experiments/exp_sim_continuous_m2/saved_models/run_0/bootstrapped/m1_0.pt (torch, 6385 bytes, 7 tensors)

network.0.weight f4 [20, 2]
000000 67 71 5d be ba 28 53 3f 48 94 bb bf 05 29 11 bf
       -0.21625291 0.8248402 -1.4654627 -0.56703216
000010 d4 25 0e bf 82 fd 5f 3e 40 8a 65 bc 41 87 0f 3f
       -0.5552647 0.2187405 -0.014010012 0.56065756
000020 e0 83 80 bd 98 99 3f 3e 5c d3 5a be 1c 54 0e be
       -0.06275153 0.18710935 -0.2136969 -0.13899273
000030 2c b6 6b bf ab ec 41 bf de 99 15 bf 81 a4 09 3f
       -0.9207485 -0.7575175 -0.5843791 0.5376664
000040 ec e7 79 3f ed 79 a0 3e b2 45 c0 bd 58 e2 10 c0
       0.9761951 0.31343022 -0.09388293 -2.263815
000050 91 bd d9 3d 70 2b 08 3e 03 17 1d 3e a8 e1 2c bf
       0.1063186 0.1329782 0.1534081 -0.67531824
000060 d6 87 1b bd 1e c4 21 be fe 01 9c 3f c0 4a 55 bf
       -0.03797134 -0.15797469 1.2188108 -0.83317184
000070 e1 51 69 bf 41 c5 29 be fc a0 ce bd 21 24 97 3f
       -0.9114056 -0.16579153 -0.10089299 1.1807901
000080 84 8e 16 bf e1 34 61 bf 53 ef fc be 20 89 29 bf
       -0.5881121 -0.8797131 -0.4940134 -0.6622486
000090 5f 81 26 bf ef f8 84 3f 54 27 51 3e 2a 1e 70 3e
       -0.65041155 1.0388469 0.20425159 0.23449007

network.0.bias f4 [20]
000000 87 71 e4 bd c8 03 16 bf fb 3d 42 be 4d 04 29 bf
       -0.11154466 -0.5859952 -0.18968956 -0.6602219
000010 68 cc 02 bf 4c a4 ba be 62 a8 f6 3e ce 08 00 3f
       -0.5109315 -0.36453474 0.4817534 0.50013435
000020 b6 5f 24 bf c5 4d a7 3e ad 3b bf bd df 78 f3 3d
       -0.64208543 0.3267652 -0.09337554 0.11888289
000030 29 29 22 bd de f5 9c 3e 64 3d b8 3e 23 72 83 bf
       -0.039590035 0.30656332 0.35984337 -1.0269207
000040 9f 68 f8 3d 65 58 0c bf fe 25 15 bf 6f 74 ef be
       0.1212933 -0.5482238 -0.58261096 -0.4676852

network.3.weight f4 [20, 20]
000000 60 3a b2 bd 9e 91 c6 bd e6 f8 a3 be 54 59 8a 3d
       -0.087025404 -0.09695743 -0.32025832 0.06755319
000010 60 66 fb 3d 10 34 e7 bc ab ec 35 be a6 cc 0b be
       0.12275386 -0.028223068 -0.17766063 -0.13652286
000020 ba 0c 0e 3e ec 1d 3d 3e 8f 19 b5 be 58 50 e5 bd
       0.13872042 0.18468446 -0.35371062 -0.11196965
000030 20 fd 6c 3d 3a b7 3d 3e e3 b5 db 3b 6a 3a 23 3d
       0.057858586 0.18526927 0.006705032 0.03985063
000040 05 35 6d 3c 7c 1c 47 be ea 17 0d be 38 3f 0f be
       0.014477973 -0.1944446 -0.13778654 -0.1398896
000050 7d 0f 86 bf ec 70 4b 3e ce 32 06 be 47 68 64 be
       -1.0473477 0.19867295 -0.13105318 -0.22305404
000060 00 6e 2b 3d 9c 4a 1a bd 0c 02 85 bf df 8a da be
       0.04185295 -0.03766881 -1.039125 -0.42684075
000070 b4 c0 78 bf a5 8f fb be 52 09 0c be e2 ed 3e 3e
       -0.9716904 -0.4913303 -0.1367543 0.18645433
000080 91 68 dd 3d 78 a3 00 3f b6 de 84 bf 67 fb 49 bf
       0.1081096 0.50249434 -1.0380466 -0.78899235
000090 82 aa 54 be a0 b2 3f 3d 87 82 47 bf 07 19 5e bd
       -0.20768169 0.04680121 -0.77933544 -0.054223087
0000a0 fd ef 9a bf 4e 49 1a 3e 7a b5 75 be 34 84 66 bd
       -1.2104489 0.15067026 -0.23995009 -0.056278422
0000b0 9d 1e 5a be 00 b3 83 bb 34 6f e1 be 3d 35 e0 bf
       -0.2130074 -0.004019141 -0.44030154 -1.7516247
0000c0 0b 14 8f 3e 11 fb b6 3f 8e 74 62 bd c9 c9 97 3d
       0.2794498 1.4295369 -0.055286936 0.07411534
0000d0 2f e7 93 be cd 10 6f 3f 23 66 91 bf ad 9d c5 be
       -0.28887317 0.9338501 -1.1359295 -0.3859686
0000e0 d7 28 bc be 60 4f 25 3c 59 85 33 3d b8 21 df bc
       -0.36749908 0.010089725 0.043828342 -0.027237758
0000f0 14 b6 b3 3d e0 72 5b 3c 04 72 df bd 04 b2 d8 3d
       0.08774963 0.013394088 -0.10910419 0.10580829
000100 77 a4 5b be cc b6 07 be 84 46 65 bd 6c 12 df bd
       -0.21449457 -0.13253325 -0.055975452 -0.108921856
000110 7e 34 a0 bd e9 ab 3b be 0c d3 42 bd 30 c7 43 3d
       -0.07822512 -0.18327297 -0.04756455 0.047797382
000120 16 2b 15 be 20 03 3c bc 28 e9 23 3e e0 4e bc bc
       -0.14567217 -0.011475354 0.16006911 -0.02298683
000130 40 a3 cb 3b b8 06 9e bc 18 5c 39 3d 1e 97 11 3e
       0.0062145293 -0.019290313 0.045253843 0.14217803
000140 35 92 3d 3c 23 f7 8b 3f e6 a5 7c 3e 58 7a 84 bc
       0.011570503 1.0934795 0.2467266 -0.01617162
000150 13 b1 4d be 24 1a d9 bd a5 8a 13 3f 7f b6 e6 3c
       -0.2008708 -0.10600689 0.5763343 0.028163193
000160 bf 99 14 b9 f1 a8 13 3e d5 31 54 be 4e 61 dc bc
       -0.00014171655 0.14419915 -0.20722134 -0.026901867
000170 97 f4 af 3d 8c a0 9d be d0 d8 b8 3e c0 52 5e c0
       0.08591574 -0.3078655 0.36102915 -3.4738007
000180 be 1a 58 3f 7f 2c 33 be 94 a8 98 bd 4c 21 9a bd
       0.84415805 -0.17497443 -0.07454029 -0.07525882
000190 8a cf 7f 3d 84 14 87 3d 4e 83 d5 be 4b b4 45 be
       0.062453784 0.0659571 -0.4170174 -0.19307058
0001a0 8c 51 0f bd 00 83 3d 3b 99 38 27 bf 63 88 63 3e
       -0.03498988 0.0028917193 -0.65320736 0.22219996
0001b0 bd 67 0e bf bd c6 89 be 77 52 2a 3e 41 68 10 be
       -0.5562704 -0.26909438 0.1663302 -0.1410227
0001c0 a8 f5 34 3e 31 5c b3 bc 7e 19 32 bf 24 b9 c4 be
       0.17671835 -0.021894546 -0.6957015 -0.384225
0001d0 c7 16 90 bf 38 6e cc bd 62 89 af be 6f 26 f0 bd
       -1.1256951 -0.0998196 -0.34284502 -0.117260806
0001e0 eb 82 d5 be 89 f4 64 bf 18 f6 b8 3d a8 aa 7f 3d
       -0.41701445 -0.8943563 0.09031314 0.06241861
0001f0 bc 0b dc 3d 5c ba a1 3d c7 cf 57 3d 31 7b 02 be
       0.10744426 0.07896873 0.052688386 -0.12742306
000200 28 0e d4 bf 47 22 07 3f 61 d5 b1 bc 84 6a bb 3e
       -1.656682 0.5278668 -0.021708192 0.36604702
000210 51 cf 7b bd 92 8b cc 3c c0 30 1a be fa 74 23 40
       -0.06147701 0.024968896 -0.15057659 2.5540147
000220 c6 86 80 3d 44 80 9c 3d 60 ae ef be 92 2d 41 bc
       0.06275706 0.07641652 -0.46812725 -0.01179065
000230 d2 c9 aa bd e6 71 52 3d ce 10 86 be 69 31 1d be
       -0.083392754 0.051378153 -0.26184696 -0.1535088
000240 be f4 04 be 20 44 20 3e 7b 59 31 be f5 29 c4 3d
       -0.12983987 0.15650988 -0.1731929 0.09578315
000250 d4 98 a5 3d 25 0b 84 bd 61 7d c1 bd e7 50 0c be
       0.0808579 -0.06447438 -0.09447742 -0.13702737
000260 0f 9e 84 bd b0 23 51 bd a4 4f c1 bd 63 7f 83 bd
       -0.0647546 -0.051059425 -0.09439018 -0.064207815
000270 d7 06 89 be 36 06 f0 bd 81 b6 b3 3d 94 d2 39 be
       -0.2676303 -0.11719935 0.08775044 -0.18146735
000280 19 25 0a bd 52 02 e1 be bd d4 8a bd 20 74 cf 3b
       -0.033726785 -0.43947083 -0.06778858 0.006330982
000290 3b 6e 46 be 50 db e2 3d e2 9b ee be 86 1e c2 bc
       -0.19377987 0.11076987 -0.46603304 -0.023696195
0002a0 7e 07 d6 be a1 a3 e6 be 9f 03 ab 3d 6e 5e 93 3e
       -0.4180259 -0.45046714 0.083503 0.28782982
0002b0 8e 62 27 3e ac 37 17 3d 7d 8e 25 be 9f a7 87 bf
       0.1634619 0.036918327 -0.16167636 -1.0598029
0002c0 1b 93 56 bf 41 dc 21 be 40 7d d4 be 10 d1 07 3e
       -0.83818215 -0.15806676 -0.41501808 0.13263345
0002d0 dc 35 97 3d 40 c8 2b 3e 9a 6b 93 bd 00 ae bb 39
       0.0738332 0.16775608 -0.07198258 0.0003579706
0002e0 04 c3 eb 3d 37 70 5d be 16 8b 25 3e dc 57 3d be
       0.11511806 -0.21624838 0.16166338 -0.18490547
0002f0 00 f9 49 3b 9c b7 1b bd 2b 30 f1 bd f0 1b f2 3c
       0.0030818582 -0.0380169 -0.117767654 0.029554337
000300 a4 57 3d 3e e4 dd 85 bd ac f0 07 be d2 5d a9 bd
       0.18490463 -0.06536463 -0.13275403 -0.08269848
000310 52 f2 62 be e0 b6 ce 3d 69 ef db bd 9b cd 18 be
       -0.2216275 0.100934744 -0.10739023 -0.14922182
000320 8e cc 8c be 4d a3 be 3d cd d5 a9 3d f8 bd 2f 3e
       -0.27499813 0.09308491 0.082927324 0.17162311
000330 9c 1b a6 3d 8e ef 98 bd 78 42 b5 bd a3 53 2b be
       0.08110735 -0.074675664 -0.088505685 -0.16731124
000340 97 e7 ba 3c 9d 46 cf 3c f0 83 a2 be 45 fb 9a be
       0.022815509 0.025302226 -0.31741285 -0.30269828
000350 25 74 e4 be d3 8a 86 bd ad d8 1e be d1 eb 05 be
       -0.4461986 -0.06569447 -0.15512343 -0.13078238
000360 fc 71 24 3e a7 b2 14 be 02 20 79 bd e4 32 83 3d
       0.16059107 -0.14521275 -0.06082154 0.06406191
000370 2b 3a 0c be bd 2b 30 be b6 9f 35 bf ba 82 36 3e
       -0.13694064 -0.17204185 -0.70946825 0.17823306
000380 98 24 15 3d 40 f6 3d 3e 02 69 00 bf 56 a2 f4 3d
       0.03641185 0.18550968 -0.5016023 0.119450256
000390 fb 9e 21 bf bc 38 c7 bd b0 d3 06 be ef 5b 7d 3e
       -0.6313321 -0.09727618 -0.1316669 0.24742101
0003a0 f7 68 a4 3c 8d 88 2d 3e 2a 0a 35 bf aa 4b a9 bf
       0.020069582 0.16946621 -0.70718634 -1.3226216
0003b0 24 56 18 3d 0b 74 2a be ec b6 96 bf 7c ea e7 3a
       0.037191525 -0.1664583 -1.1774573 0.0017693783
0003c0 15 b4 fb be 8d 93 84 bf a6 e3 fd bd b8 06 53 3d
       -0.4916083 -1.0357529 -0.12396936 0.05152008
0003d0 28 dd 33 3d a3 02 2a be a6 fb 26 3e 41 fb 11 bd
       0.043912083 -0.16602568 0.16306934 -0.035640005
0003e0 ae 6c 15 bf 2b e3 70 3f 3c 03 90 be 22 af 80 3d
       -0.5836896 0.9409663 -0.28127468 0.06283404
0003f0 95 10 72 3d dc 20 81 bf 87 14 02 3e 03 cb 62 40
       0.059097845 -1.0088153 0.12703143 3.5436409

network.3.bias f4 [20]
000000 9f 78 d0 be 37 28 08 bd 3a f4 73 be f8 c7 33 be
       -0.40717027 -0.033241477 -0.23823634 -0.17556751
000010 3f 27 63 be 31 c3 00 3f f3 87 aa 3e f4 3f 78 be
       -0.2218294 0.5029784 0.33306846 -0.24243146
000020 94 d1 7e bd c0 48 8d bd b8 68 bf bd ab be 2d 3f
       -0.062211588 -0.068986416 -0.093461454 0.6786906
000030 36 c4 de 3d 2e 74 0b be 2a 6f d6 3e 24 a3 60 be
       0.10877268 -0.13618538 0.41881686 -0.21937233
000040 82 f3 b0 be 87 1a d1 3d a9 b1 01 be e3 5b d9 3e
       -0.34560782 0.10210138 -0.12665428 0.42452917

network.6.weight f4 [20, 20]
000000 c0 a3 21 be 05 b8 09 3f 72 04 8f bf a8 f9 ee 3d
       -0.15785122 0.53796417 -1.1173232 0.11668712
000010 51 41 0f bf 09 85 9d 3e 72 24 81 3e c4 66 fd 3d
       -0.5595904 0.3076556 0.25223118 0.123731166
000020 3b 19 1d 3d 48 96 8d bd 5c d2 4f 3e 85 8e c7 3e
       0.03835414 -0.069134295 0.2029509 0.3897592
000030 84 d1 0d be 7d 4d b0 3d d8 78 6c 3e 98 2b c7 bc
       -0.13849455 0.0860853 0.23092973 -0.02431278
000040 60 ae ad bd 89 85 2d bf 84 99 4a 3e 4d da ab 3e
       -0.08480525 -0.67781883 0.19785124 0.33564988
000050 e7 17 54 be 1c f9 b5 3d 14 81 e5 3d 98 88 07 3e
       -0.20712243 0.088854045 0.1120626 0.132357
000060 0d 24 1f 3f 24 ca 59 be a8 39 57 be 6f 3d 84 39
       0.62164384 -0.21268517 -0.21018088 0.00025222774
000070 14 45 9b be d8 40 99 3d 9b db ca bd 64 d9 d3 3c
       -0.3032614 0.07483071 -0.09905168 0.025860496
000080 af 0f 49 be 4f a8 09 3a d2 94 d2 be 48 6e a2 3d
       -0.19634889 0.0005251215 -0.41129166 0.07931191
000090 69 1e 3e bd a6 6b 16 3c c0 b2 04 3e 08 26 8f bd
       -0.04641572 0.009180939 0.12958813 -0.06989676
0000a0 64 5e 8b 3d 5a 01 4b be 8f 09 91 3d f2 dd 25 be
       0.06805113 -0.19824734 0.07081901 -0.16197947
0000b0 97 a4 06 be 23 80 69 be fc a6 e9 3d cc 73 76 bd
       -0.13148724 -0.22802787 0.11408803 -0.060169026
0000c0 ea 14 dc bd 86 df dd bd f2 94 64 3e be d7 b9 3d
       -0.107461765 -0.10833649 0.22322443 0.09074353
0000d0 6d 15 a4 be 2f 9f 39 be 21 8f 9d be 00 59 8d ba
       -0.32047597 -0.1812713 -0.3077326 -0.001078397
0000e0 00 77 69 bd bc b1 9c 3d b2 40 a4 bd 60 de 9c bd
       -0.056998253 0.07651088 -0.08020152 -0.07659602
0000f0 de f2 b1 bd 79 7f 8b 3e 58 d7 1f bf 79 e7 dd bd
       -0.08688901 0.2724569 -0.62437963 -0.108351655
000100 ee 2a d2 be 6a 01 6f 3d e9 11 93 be b0 1d 2a 3c
       -0.41048378 0.058350958 -0.28724602 0.010383055
000110 14 21 4f be 68 b1 60 3e 8b 7c 77 3d 5a 5d 7b be
       -0.20227462 0.21942675 0.060421508 -0.2454733
000120 54 53 36 be f6 37 95 3d e0 60 8a be 28 18 9e bc
       -0.17805225 0.07286064 -0.27027035 -0.019298628
000130 df d6 97 bd c3 80 4b bf bc 7f 11 3e 8f 20 c0 bd
       -0.0741403 -0.7949335 0.14208883 -0.0938121
000140 0d 44 40 be e1 bd 6c 3e 61 d0 4b bf 40 72 e6 3d
       -0.1877596 0.23119308 -0.79614836 0.1125226
000150 8a 7c 4c bf ee e3 ac 3e 2d 3f 9f 3e ac 75 24 bd
       -0.7987753 0.33767647 0.31102887 -0.040151283
000160 6a 69 a1 3d e4 2a e6 3d dd 29 de 3e f3 08 ef 3e
       0.07881434 0.112386495 0.43391314 0.46686515
000170 22 00 8a 3e a1 97 07 3e df a3 2a 3e c8 81 3d 3e
       0.26953226 0.13241436 0.16664074 0.18506539
000180 2a 6e 71 ba bf 03 ea be b4 b9 bb 3d b9 5f b0 3e
       -0.0009209836 -0.45705983 0.091662794 0.3444803
000190 c1 5b 8f 3b 75 51 c2 be 33 91 cd bf b8 85 65 3d
       0.0043749516 -0.37952772 -1.6059936 0.056035727
0001a0 fd 79 00 be 34 59 71 be 24 dd 3b 3e 20 e9 30 3e
       -0.12546535 -0.23569185 0.18346077 0.1727643
0001b0 7c db d6 3d 56 c5 31 3e 23 0b 5a be a4 5c 10 bf
       0.10491082 0.17360434 -0.21293311 -0.5639136
0001c0 a8 8e a7 3d b4 cf d5 3c 12 2d 34 3f 54 9f c7 3d
       0.081815064 0.026100017 0.7038127 0.09747186
0001d0 76 e1 8f be e2 6a 02 3f 94 ea 58 3e 06 8a 8b 3b
       -0.281017 0.5094434 0.21183234 0.004258397
0001e0 47 08 d1 bd 89 7f 06 bf 41 de 98 bf 74 d4 58 3e
       -0.10206657 -0.52538353 -1.1942827 0.21174794
0001f0 5d 30 04 bc 34 39 9c be 19 00 ca 3e f2 24 58 bc
       -0.008068171 -0.30512393 0.394532 -0.013192402
000200 b2 13 1b be a8 3a a0 bc 35 0c 58 be 22 e3 20 bf
       -0.15144232 -0.01955922 -0.21098407 -0.6284658
000210 cd 58 25 3f e5 4c 80 be e3 9b 56 3f 44 28 47 3e
       0.64588624 -0.25058666 0.83831614 0.19448954
000220 82 24 17 3d 42 35 16 3f d6 d2 42 3e 1f 0e 8c be
       0.03690005 0.58675015 0.1902574 -0.27354524
000230 41 df d3 bd 51 87 c7 3e 54 a2 9e 3f a9 67 5f be
       -0.10345317 0.38970426 1.2393289 -0.21816887
000240 87 92 57 be 47 9e 2c be dd 3c a1 be 8c 41 17 bd
       -0.2105199 -0.16857253 -0.31491747 -0.036927745
000250 90 98 9f bc f0 4d 66 bc ae bf b4 3d 90 3e cd 3d
       -0.019481927 -0.014056668 0.088256225 0.100216985
000260 b4 4f 3c bf 09 b1 ac bd e5 8b b2 be c4 28 5f bd
       -0.7355912 -0.08432204 -0.34872356 -0.054482237
000270 da 2b b6 bd bd b4 b2 be 7c 7e 2c be d6 94 06 3e
       -0.08895083 -0.34903517 -0.16845125 0.13142714
000280 04 94 07 be 81 59 9e bc 98 98 d4 3c 98 b2 81 3c
       -0.13240057 -0.019329788 0.025951669 0.01583223
000290 bf 91 83 be a8 9c 0a 3e 99 c6 71 be aa 54 3c 3e
       -0.25697133 0.13536322 -0.23610915 0.18391672
0002a0 c2 ae 9a be 18 51 5c bd d4 1b f9 3d 08 71 11 be
       -0.30211455 -0.053788275 0.12163511 -0.14203274
0002b0 f6 bb c6 3b cb 91 1d be e1 d7 83 be 38 7f ce bd
       0.006064887 -0.15387647 -0.2575064 -0.10082859
0002c0 f8 0d 14 3d 0b 2b 63 bd ca 9f da bd 8c 2c ba 3c
       0.036146134 -0.05546097 -0.106750086 0.02272632
0002d0 d9 ee 26 3b 3e 1b c3 be 0f b9 c7 be 7d 73 31 be
       0.0025471954 -0.38106722 -0.39008376 -0.17329212
0002e0 e5 2f 31 be ad 23 d8 be 90 f0 63 be 6e 56 86 3e
       -0.17303427 -0.42214718 -0.22259736 0.26237816
0002f0 8a f3 aa be 9c 50 38 3e ba 77 c0 be b9 94 83 bf
       -0.3338893 0.179995 -0.37591344 -1.0279762
000300 7c 49 19 3d ff ac 4a bd 9a a4 e3 3e 42 cf 2f 3e
       0.037423596 -0.04948139 0.4446152 0.17168906
000310 e7 90 a6 bd 7f 1c 25 3e b4 cd 1c 3e 38 4e a4 bf
       -0.08133107 0.16124152 0.15312845 -1.283637
000320 ca b9 48 3e 08 74 18 be a8 37 c6 bc 20 c6 44 bc
       0.19602123 -0.14888012 -0.02419646 -0.012010127
000330 d4 5d 0d 3d 2a 8b 1c 3e 2c 2c 11 bd 32 b3 3d be
       0.03451331 0.15287462 -0.035442516 -0.18525389
000340 b8 e8 e2 3d 84 fc 88 3d f4 f4 b7 3d 0b 3f 0d be
       0.11079544 0.066887885 0.08982268 -0.1379358
000350 48 68 a2 3d 8e df 58 3e b4 b9 3b bd 49 df 55 be
       0.07930046 0.2117903 -0.045831397 -0.20885958
000360 aa bc 20 3e 77 93 6c be d0 89 52 3d 78 18 05 3d
       0.1569697 -0.23103128 0.05140096 0.03249404
000370 e8 2a 99 bd 38 aa 66 3e c1 28 49 bf 78 9a 50 3d
       -0.07478887 0.22525871 -0.7857781 0.050928563
000380 de 74 e2 be d2 a2 04 be 62 af 12 be 94 12 43 3e
       -0.44229788 -0.12952736 -0.14324716 0.19050056
000390 90 94 6a be 48 b0 12 3e 82 a8 63 3e b7 b4 f2 bd
       -0.22908235 0.14325058 0.2223225 -0.11850875
0003a0 da 7e 07 bf c2 92 5d 3d ba 30 63 bd 64 6c 64 bd
       -0.52927935 0.054095037 -0.05546639 -0.05576743
0003b0 c0 fd 36 3c cf d5 1c bf fc a3 1b 3e 87 91 9e 3d
       0.011168897 -0.61263746 0.15199274 0.07742601
0003c0 8a b3 39 3e d6 ca c9 3e 82 5e 72 bf fe 7d 07 be
       0.18134895 0.39412564 -0.9467546 -0.13231656
0003d0 3f 8b 12 bf 7b a4 2c 3d cd 0f e1 3e 74 6e 37 be
       -0.5724372 0.04214905 0.43957368 -0.17913228
0003e0 70 aa 9d 3b 1d 6e ed bd df 57 68 3e d4 a2 b9 3e
       0.0048115775 -0.11593268 0.2268977 0.3625704
0003f0 18 15 4d 3e 8a ef ab 3e 5d b6 23 3e 56 e9 42 3e
       0.20027578 0.3358119 0.15987535 0.19034323

network.6.bias f4 [20]
000000 b3 bd 8f 3e 8c 96 f1 be 23 76 98 be 3d fe 2b 3d
       0.28074417 -0.4718517 -0.2977763 0.041990507
000010 9f e8 29 3f 04 e9 43 3e cd 4c b0 3e 6c fd 0f bf
       0.66370577 0.19131857 0.34433594 -0.56246066
000020 c9 11 6a bd 29 17 0d 3e b5 9a 42 be aa 68 8e 3d
       -0.057145867 0.13778366 -0.19004329 0.06953557
000030 97 28 c9 3e b4 54 09 bf 4e 1c fe be 97 f4 a8 3e
       0.3928878 -0.5364487 -0.4963097 0.32999107
000040 bc 04 2d bf 63 78 9a bd 96 9b ee bd 77 6a 07 bf
       -0.6758535 -0.07542493 -0.116507694 -0.5289683

network.9.weight f4 [1, 20]
000000 54 94 a6 3e a9 27 09 3f db 68 8c bc 0a 78 4e bc
       0.3253504 0.5357614 -0.017139843 -0.012601862
000010 93 fc dd 3e d1 3d 3f be 04 c2 e6 be 99 63 0c bf
       0.4335676 -0.18675925 -0.45069897 -0.54839474
000020 1f 70 7e 3c 62 3b ed bd 9b a8 4c 3d 91 a0 46 3c
       0.015529661 -0.11583592 0.049965482 0.012123243
000030 29 5c 44 3e a4 da 3e be 6d 16 c7 3d 2d 4b dd 3d
       0.19175781 -0.18638092 0.09721074 0.10805354
000040 14 03 db be 2c d5 d1 bd 4d 84 b9 bc 4e 68 3e bd
       -0.42775786 -0.102457374 -0.022646094 -0.04648619
