experiments/exp_sim_continuous_m2/saved_models/run_0/bootstrapped/m2_2.pt (torch, 10673 bytes, 7 tensors)

network.0.weight f4 [30, 3]
0	0xbf03b237	-0.5144381
1	0x3cbb6b3b	0.02287828
2	0x3f2dcd2a	0.6789118
3	0x3f3878ba	0.72059214
4	0xbe44af7f	-0.19207571
5	0xbedf8ee3	-0.436637
6	0xbe938e2b	-0.28819403
7	0x3d916cb0	0.071008086
8	0x3e05c728	0.13064253
9	0xbee1d2ff	-0.4410629
10	0x3e8532b7	0.26015255
11	0xbe8d8d2a	-0.27646762
12	0x3f4c9c2a	0.7992579
13	0xbe9055f3	-0.28190574
14	0xbf131791	-0.57457834
15	0x3db5b940	0.08873224
16	0x3cf3fba0	0.02978307
17	0x3ea6ed0a	0.3260272
18	0x3f756d66	0.95870054
19	0xbe913659	-0.28361776
20	0x3f14404e	0.5791062
21	0x3d7dafaa	0.061935104
22	0x3f6089f4	0.877105
23	0x3e1a3f5d	0.15063234
24	0xbdb0c8dc	-0.08632061
25	0x3da24400	0.07923126
26	0x3c789900	0.015173197
27	0xbee17404	-0.44033825
28	0xbf37a754	-0.717397
29	0x3f149921	0.58046156
30	0x3e23c3d6	0.15992674
31	0xbdc3268d	-0.09528837
32	0xbda44549	-0.080210276
33	0x3dff1d90	0.124568105
34	0xbecdc4d0	-0.4018922
35	0xbddeace4	-0.1087282
36	0xbe9f7aa7	-0.31148264
37	0xbea26060	-0.31714153
38	0xbef13689	-0.4711192
39	0xbd768300	-0.060183525
40	0xbc61f940	-0.013792336
41	0xbe415842	-0.18881324
42	0xbe10809a	-0.14111558
43	0xbe358c9c	-0.1772942
44	0xbdbc9354	-0.09207788
45	0xbe2ee052	-0.17077759
46	0x3f37a52b	0.717364
47	0xbdfabf46	-0.12243514
48	0x3e99f7c4	0.30071843
49	0xbf0218c6	-0.5081905
50	0xbcd84980	-0.026402235
51	0xbd5a4b60	-0.05329454
52	0xbefb6774	-0.49102366
53	0x3cf59b80	0.029981375
54	0xbf369a83	-0.71329516
55	0x3e6a782a	0.22897401
56	0x3eef83b0	0.46780157
57	0x3e219030	0.1577766
58	0xbe49f2b8	-0.19721496
59	0xbeebf8df	-0.4608831
60	0x3ef4a961	0.47785476
61	0xbef68233	-0.4814621
62	0x3f337e34	0.70114446
63	0xbdd4d348	-0.10391861
64	0x3df66be1	0.12032295
65	0x3e8ff7b7	0.2811868
66	0xbf2bc7a2	-0.6710149
67	0xbed4c5b7	-0.41557094
68	0x3de90769	0.113783665
69	0xbf67e6cc	-0.90586543
70	0xbc200bf8	-0.009768479
71	0xbc87a5ad	-0.016558493
72	0xbf62355f	-0.8836269
73	0xbf219d07	-0.6313023
74	0xbf34640b	-0.70465153
75	0x3d7b0817	0.061287012
76	0x3f1f6ac4	0.62272286
77	0x3f0000f3	0.5000145
78	0xbee6e853	-0.45099124
79	0x3dbe1fbe	0.09283398
80	0xbe9d8725	-0.3076717
81	0x3eacdda5	0.3376285
82	0x3f049bfa	0.518005
83	0xbf161e5c	-0.58640075
84	0xbed55d44	-0.4167272
85	0xbf0487c6	-0.51769674
86	0xbd5db990	-0.054132044
87	0x3e4ed5bb	0.20198719
88	0xbf8b375c	-1.0876269
89	0xbca352d2	-0.019936953

network.0.bias f4 [30]
0	0xbe26517c	-0.16242021
1	0x3f251f9c	0.6450136
2	0xbf078315	-0.5293439
3	0xbeec720c	-0.4618076
4	0xbe852659	-0.2600582
5	0xbee65cd0	-0.44992685
6	0x3eadbb18	0.33931804
7	0xbef02fa2	-0.4691134
8	0xbe3ebc84	-0.186266
9	0xbe5dd831	-0.21664502
10	0xbe3011e5	-0.17194326
11	0xbe8c71f7	-0.27430698
12	0x3ebb6587	0.36600897
13	0xbefe7ab9	-0.49703005
14	0xbe9bebb0	-0.30453253
15	0xbec02932	-0.3753143
16	0xbf0d43e1	-0.551817
17	0xbf129926	-0.57264936
18	0x3e3e3289	0.18573965
19	0x3e2cdb97	0.16880642
20	0xbd8ffb7f	-0.07030391
21	0xbf04b5a9	-0.5183969
22	0x3e6a44b4	0.2287777
23	0x3ea10f44	0.3145696
24	0xbe68cb4b	-0.227338
25	0xbf02651f	-0.5093555
26	0x3ee4448e	0.44583553
27	0x3e7870d1	0.24261786
28	0xbf093680	-0.53598785
29	0x3e92aaa5	0.28645816

network.3.weight f4 [30, 30]
0	0xbe0d932c	-0.13825673
1	0xbe109dd0	-0.141227
2	0xbdb9b6dd	-0.090680815
3	0x3e398f3a	0.18121043
4	0xbdd79856	-0.10527103
5	0x3e0080f6	0.12549195
6	0xbe29aa1e	-0.16568801
7	0xbc4dc840	-0.01255995
8	0x3e291312	0.16511181
9	0xbd27ea24	-0.04099478
10	0xbd80de09	-0.0629235
11	0xbda54e21	-0.080715425
12	0xbe071f76	-0.13195595
13	0x3d6ff100	0.058579445
14	0xbe0848f5	-0.13309081
15	0xbdedd188	-0.116122305
16	0x3e22677c	0.15859789
17	0x3e0b1e06	0.13585672
18	0xbdc382e0	-0.09546447
19	0x3b7c9780	0.003854245
20	0xbd48ee34	-0.049055293
21	0x3e0e53ec	0.13899201
22	0xbe27d923	-0.16391425
23	0xbe27f8a9	-0.1640345
24	0x3db705bc	0.089366406
25	0x3c0e8eb0	0.008701012
26	0xbd5ac1b0	-0.05340737
27	0x3dbf8378	0.093512475
28	0x3d9990b0	0.074983
29	0xbdfe5ead	-0.12420402
30	0x3d882f73	0.06649675
31	0x3dd9228c	0.106022924
32	0xbcd37e58	-0.025817081
33	0xbe35c4d4	-0.17750865
34	0x3d9d0068	0.07666093
35	0x3ddebff4	0.10876456
36	0xbe60b620	-0.21944475
37	0xbe381ac6	-0.17978963
38	0xbcb49838	-0.02204524
39	0xbe4a584d	-0.19760247
40	0xbdd340dc	-0.10315105
41	0x3e11e8da	0.14248982
42	0x3bb3cf49	0.005487357
43	0x3ddf621c	0.10907385
44	0x3d301e2c	0.042997524
45	0x3e0d7fd3	0.13818292
46	0x3d9abe34	0.075558096
47	0x3d5c3538	0.05376169
48	0x3dd182ba	0.10230012
49	0xbdca436b	-0.0987614
50	0x3e1b5032	0.15167311
51	0xbcadc87b	-0.02121376
52	0x3e06090c	0.13089389
53	0xbe15b8bc	-0.14621252
54	0xbdfdfea8	-0.124020875
55	0x3dc0476d	0.093886234
56	0xbe11a9de	-0.14224955
57	0x3d10819c	0.035279855
58	0x3e311c84	0.17296034
59	0x3d0bd5a8	0.034139305
60	0xbda6acf4	-0.08138457
61	0xbe6c0aea	-0.23051038
62	0xbdce5677	-0.100750856
63	0xbf749540	-0.9554024
64	0x3f33f8df	0.7030162
65	0x3cd8d850	0.026470333
66	0x3ccb470f	0.024814157
67	0x3cf20193	0.029541766
68	0x3dda9750	0.10673392
69	0xbed61c86	-0.41818637
70	0x3d1e52be	0.038653128
71	0xbcc8f318	-0.024529979
72	0x3d4171e8	0.04722777
73	0x3d1fdebc	0.039030775
74	0x3acea400	0.0015765429
75	0x3ed1da5b	0.40986905
76	0x3e347b06	0.17625055
77	0x3e167748	0.1469394
78	0x3dcda7ea	0.10041793
79	0x3e24533b	0.16047375
80	0x3ea5024b	0.32228312
81	0xbdbb8d1f	-0.09157776
82	0x3d2edceb	0.042691153
83	0xbd820c1a	-0.063499644
84	0x3e84df97	0.25951836
85	0xbd2b8d8a	-0.04188303
86	0x3ddcf48d	0.10788832
87	0xbeeda4e5	-0.46414867
88	0xbda263e4	-0.07929209
89	0x3f678d72	0.90450203
90	0xbc255cd0	-0.010092929
91	0x3c903aa0	0.01760608
92	0xbe0bce88	-0.13653004
93	0xbda489dc	-0.08034107
94	0x3dbbe1a8	0.091739
95	0x3dabc520	0.08387208
96	0xbe2b666d	-0.16738291
97	0xbe01d0c5	-0.12677296
98	0x3d594bb4	0.05305071
99	0xbe12cfc9	-0.14337076
100	0xbdc5da5e	-0.09660791
101	0xbdd37faa	-0.10327084
102	0xbe0eaff4	-0.13934308
103	0xbdb6a42d	-0.08918033
104	0x3e032c1e	0.12809798
105	0xbe2bfc92	-0.16795567
106	0x3df7c2d0	0.120977044
107	0xbe220a06	-0.15824136
108	0xbd49b2dc	-0.04924284
109	0xbd79ecd8	-0.061016887
110	0x3ded33b8	0.1158213
111	0xbe177507	-0.14790736
112	0xbdba00a9	-0.09082157
113	0xbe381c44	-0.17979532
114	0xbd5be160	-0.05368173
115	0x3d94c6d0	0.07264483
116	0x3e30e2fe	0.1727409
117	0x3e21f720	0.15816927
118	0xbd46e850	-0.048561394
119	0xbdc7216b	-0.09723171
120	0xbf1a8629	-0.6036096
121	0x3e579394	0.2105239
122	0x3e277b34	0.16355592
123	0x3e65e2a3	0.22449736
124	0xbf30bc15	-0.6903699
125	0xbe1a73ab	-0.15083186
126	0xbd94f8b1	-0.072739966
127	0x3e46c935	0.19412692
128	0xbe1f26f7	-0.15542208
129	0xbf27df27	-0.6557488
130	0xbe11b1b5	-0.14227946
131	0xbd48dc70	-0.04903835
132	0x3e6ab1e8	0.22919428
133	0x3e01943c	0.12654203
134	0x3e1018a0	0.14071894
135	0x3e326b82	0.17423823
136	0x3d29ca18	0.041452497
137	0xbd44cef8	-0.048048943
138	0xbf15b240	-0.5847511
139	0xbe15020a	-0.14551559
140	0xbcc75273	-0.024331307
141	0x3e132f9d	0.14373632
142	0xbec86693	-0.39140758
143	0xbe5429a3	-0.20719008
144	0xbc9d5d3d	-0.019209499
145	0xbdd6136f	-0.104529254
146	0xbc97042b	-0.018434605
147	0x3dde22f1	0.10846508
148	0xbe0576a1	-0.13033535
149	0x3ee6c3c1	0.45071223
150	0xbe17bb87	-0.1481763
151	0x3bfd100f	0.0077228616
152	0xbcbf21e0	-0.023331583
153	0xbe91f41c	-0.28506553
154	0x3dfd4199	0.123660274
155	0xbd395c84	-0.045254245
156	0x3d46c1e7	0.048524763
157	0xbe924d2b	-0.285745
158	0xbd680ce0	-0.056652904
159	0xbed844d5	-0.42240015
160	0x3d997dc1	0.07494689
161	0x3dcc2274	0.09967509
162	0xbeab346d	-0.33438435
163	0xbe1e873a	-0.15481272
164	0xbe344cf3	-0.17607479
165	0xbe1b57bf	-0.15170191
166	0x3de68050	0.112549424
167	0x3deb1f68	0.114806
168	0x3ca91748	0.020640984
169	0x3c6106cd	0.013734532
170	0xbdc96355	-0.09833399
171	0xbc5870cf	-0.013210489
172	0xbeb1222b	-0.3459638
173	0xbeaa4df3	-0.33262596
174	0xbe9e97c0	-0.3097515
175	0xbe72c14c	-0.2370655
176	0xbe0ca38d	-0.13734265
177	0xbe225b17	-0.1585506
178	0xbd04071c	-0.032233343
179	0xbf28e5b6	-0.6597551
180	0xbe818fb5	-0.25304952
181	0xbe90cd52	-0.28281647
182	0xbd2b0f44	-0.041762605
183	0xbeeec826	-0.46637076
184	0x3ef4236c	0.47683275
185	0xbe213be3	-0.15745501
186	0x3d94a542	0.07258083
187	0xbeb0b7cb	-0.34515223
188	0x3e11e110	0.14246011
189	0xbe691bff	-0.22764586
190	0xbda1632e	-0.07880245
191	0x3e1ad830	0.15121531
192	0x3daf89f2	0.08571233
193	0xbe38629c	-0.18006366
194	0x3d949b34	0.07256165
195	0x3de228cc	0.11042938
196	0xbd9b3553	-0.0757853
197	0x3e08e84e	0.13369867
198	0x3de3bd99	0.11120147
199	0x3e1ced9d	0.15325017
200	0x3de27383	0.11057188
201	0xbdf83a33	-0.121204756
202	0x3e0b0922	0.13577703
203	0xbc4637a5	-0.012098228
204	0x3ec3b473	0.3822361
205	0xbecd6761	-0.40117934
206	0xbe3ce811	-0.18447901
207	0xbee1008d	-0.43945733
208	0x3d23a5d0	0.039953053
209	0x3f2e7b56	0.68156946
210	0xbed6732f	-0.41884753
211	0x3e8dccb9	0.27695253
212	0xbd45956c	-0.048238203
213	0x3ec643ba	0.38723546
214	0xbf32e891	-0.6988612
215	0xbcac7990	-0.02105406
216	0x3de805eb	0.11329254
217	0x3f12e8a5	0.5738624
218	0x3d971664	0.073773175
219	0xbf1f7d86	-0.6230091
220	0x3e1dfeae	0.15429184
221	0x3e123e62	0.1428161
222	0x3e2a469c	0.16628498
223	0x3e34158a	0.17586342
224	0xbde3f0e6	-0.11129932
225	0x3ebe8c73	0.3721653
226	0x3a1a7800	0.0005892515
227	0x3e0a633a	0.13514414
228	0xbeb08e3e	-0.34483522
229	0x3e2f2849	0.17105211
230	0xbe68e081	-0.22741891
231	0x3d004a3f	0.031320807
232	0xbe3c1e7d	-0.18371005
233	0xbd43b828	-0.047783047
234	0xbf3631b8	-0.71169615
235	0x3cd8a2e8	0.026444867
236	0x3ca0510e	0.0195699
237	0x3e5a015a	0.21289578
238	0x3e18af7e	0.14910695
239	0x3e694aef	0.22782491
240	0x3db148d2	0.086564675
241	0x3d4eefae	0.050521545
242	0xbe1a2770	-0.15054107
243	0xbc2243a0	-0.009903818
244	0x3f59e801	0.85119635
245	0xbe368d20	-0.17827272
246	0x3eae1c62	0.3400603
247	0xbd948826	-0.07252531
248	0x3e06ce62	0.13164666
249	0xbe6f6727	-0.23379193
250	0x3e20142c	0.15632695
251	0x3dd2c1bc	0.10290858
252	0xbf6a8d83	-0.9162218
253	0x3e0f9c1c	0.14024395
254	0xbc5b8730	-0.01339893
255	0xbf4e479f	-0.80578035

network.3.bias f4 [30]
0	0xbbfe2b60	-0.0077566355
1	0xbdb23f10	-0.087034345
2	0x3e60da61	0.21958305
3	0xbe0bf5c0	-0.13667965
4	0x3d862b78	0.0655126
5	0x3c79c955	0.015245755
6	0x3de4a1e8	0.11163694
7	0x3d7d276f	0.061805185
8	0x3d64ced3	0.055861305
9	0x3e55b6c0	0.20870495
10	0xbe3520df	-0.1768832
11	0x3dd3c583	0.10340407
12	0xbdc1faec	-0.09471688
13	0x3dd70e8a	0.1050082
14	0x3d9cfcde	0.07665418
15	0xbc8d3c34	-0.017240621
16	0x3dc6ca90	0.097066045
17	0xbc94c502	-0.018160347
18	0xbea8369b	-0.3285416
19	0x3e11e30e	0.1424677
20	0x3ce45f7e	0.027877565
21	0x3e28dd6e	0.16490719
22	0x3e084df8	0.13310993
23	0x3dec52ba	0.11539216
24	0x3c8e03e1	0.017335834
25	0x3d0ce235	0.034395415
26	0x3c910b00	0.01770544
27	0xbe083bce	-0.13304064
28	0x3d947f86	0.07250886
29	0xbdc3516c	-0.09537014

network.6.weight f4 [30, 30]
0	0x3dbd7160	0.0925014
1	0xbd9d62fc	-0.076848954
2	0x3c7af9d4	0.015318353
3	0x3e0baaae	0.13639328
4	0x3dc6d650	0.097088456
5	0xbe12d775	-0.14340003
6	0x3d81cab4	0.06337491
7	0x3e985d1d	0.2975854
8	0xbed5032d	-0.41603985
9	0x3e1e57c0	0.15463161
10	0x3c3c20a2	0.01148239
11	0x3d4e4267	0.050356295
12	0x3e9f2a20	0.31086826
13	0xbec773fe	-0.38955683
14	0x3e09e041	0.13464452
15	0x3ee5a1a7	0.44849893
16	0xbd711db1	-0.058866207
17	0xbbba8861	-0.005692527
18	0x3f791adb	0.97306603
19	0x3e026e1f	0.1273732
20	0x3f1c6666	0.6109375
21	0xbe03d222	-0.12873128
22	0x3eaab20d	0.33338967
23	0x3eeafa6e	0.45894188
24	0x3e13268a	0.1437017
25	0x3cd4d1e9	0.025979
26	0x3e6bdaee	0.23032734
27	0x3e9b9459	0.30386618
28	0xbf1571bf	-0.5837669
29	0x3e26a865	0.16275175
30	0x3dedc674	0.116101176
31	0x3d8b40ac	0.067994446
32	0xbd44dbe2	-0.04806126
33	0xbe0c0cdd	-0.13676782
34	0x3e0e0be2	0.1387172
35	0x3e766a50	0.24063993
36	0xbe5d2aad	-0.21598311
37	0x3df50781	0.11964322
38	0xbdd9f1a2	-0.10641791
39	0x3e1da862	0.15396264
40	0x3d1a31c8	0.03764513
41	0x3e97f474	0.2967869
42	0x3e2378c6	0.1596404
43	0xbd7dd952	-0.06197483
44	0xbd8ddb9d	-0.069266535
45	0xbe742f01	-0.23846056
46	0x3eb0a041	0.34497264
47	0x3e97eaf3	0.2967144
48	0x3f0ef46c	0.5584171
49	0xbf62e203	-0.88626117
50	0xbd95c44d	-0.07312832
51	0x3d83228f	0.06403076
52	0x3dbbedb3	0.09176197
53	0x3f27c13a	0.65529215
54	0x3df2a91a	0.1184866
55	0xbe17bd2a	-0.14818254
56	0x3ec095a0	0.37614155
57	0x3e9a380f	0.30120894
58	0xbe6b3cca	-0.22972408
59	0x3e2ed040	0.17071629
60	0xbdd0a0f0	-0.101869464
61	0xbdd63e84	-0.10461143
62	0x3e54122f	0.20710061
63	0xbc2ac8e0	-0.010423869
64	0xbdde04c1	-0.108407505
65	0xbd9c71b9	-0.076388784
66	0x3e08fd4e	0.13377878
67	0xbda30c64	-0.07961348
68	0x3e80aaeb	0.251304
69	0xbdcead22	-0.10091616
70	0xbd0c5d55	-0.034268696
71	0x3d37be26	0.044859074
72	0xbe6d7d16	-0.23192248
73	0x3e25b096	0.16180643
74	0xbead0ad4	-0.33797324
75	0x3e7cb15f	0.24677037
76	0xbe6126d2	-0.21987465
77	0xbe16a414	-0.14711028
78	0x3d909b89	0.07060916
79	0xbd519f46	-0.051177286
80	0xbe1f9cda	-0.15587178
81	0x3e35a7f1	0.17739846
82	0xbe39bae5	-0.18137701
83	0xbe36e088	-0.1785909
84	0xbe5b27d9	-0.2140192
85	0xbe73b4e8	-0.23799479
86	0xbeb55d77	-0.3542287
87	0xbe4c0b9a	-0.199263
88	0x3e507ca3	0.20360045
89	0x3e480fcd	0.19537278
90	0xbdba4ec7	-0.09097057
91	0x3e09cadb	0.1345629
92	0x3eb35937	0.35029003
93	0xbdd272ca	-0.102758005
94	0xbd2bc600	-0.041936874
95	0x3e2bc6fe	0.16775128
96	0x3de86929	0.11348183
97	0xbeae1e17	-0.34007332
98	0x3ec0440e	0.37551922
99	0x3db63893	0.088975094
100	0x3e389e77	0.180292
101	0x3d7cff9a	0.0617672
102	0xbe725470	-0.23665023
103	0x3d607056	0.054794632
104	0x3af7dde0	0.0018910728
105	0xbb8a1fae	-0.0042152023
106	0xbdec8bd1	-0.11550105
107	0x3d89b5d3	0.06724133
108	0xbee1e3bc	-0.4411906
109	0xbe64f933	-0.22360687
110	0xbe4224e3	-0.18959384
111	0x3ea198f8	0.31562018
112	0xbea20d8a	-0.31650954
113	0xbe5c1c48	-0.21495163
114	0x3daac9a7	0.083392434
115	0x3d89c273	0.06726541
116	0xbd718622	-0.05896581
117	0xbe35d2cd	-0.17756195
118	0x3e33946a	0.17537084
119	0x3ba707ab	0.0050973496
120	0x3e070120	0.13184023
121	0xbd0a59e5	-0.033777136
122	0x3db0be7f	0.08630084
123	0xbd9d68dc	-0.07686016
124	0xbe81d8c0	-0.2536068
125	0xbdd259e1	-0.10271049
126	0x3e0a6d39	0.13518228
127	0xbf08bc15	-0.5341199
128	0x3e7b2257	0.24524818
129	0xbe035e32	-0.12828901
130	0xbdc0f674	-0.09422007
131	0xbe3061b9	-0.17224778
132	0xbe89e9f4	-0.26936305
133	0x3d8948ba	0.067033246
134	0xbddd0a24	-0.1079295
135	0x3e3433bc	0.1759786
136	0x3da56d55	0.08077494
137	0xbc82b8b6	-0.015957218
138	0xbe8b028a	-0.27150375
139	0xbe2ef5d6	-0.17085966
140	0xbc0d34b7	-0.008618525
141	0xbd66ecff	-0.05637836
142	0xbf2cbf16	-0.67479074
143	0xbf116acf	-0.568036
144	0xbd113889	-0.035454307
145	0xbc378062	-0.011200042
146	0xbe2bbaf7	-0.1677054
147	0xbf3edb78	-0.7455363
148	0x3c0fa732	0.00876789
149	0x3b8b315d	0.004247828
150	0x3d9bc008	0.076049864
151	0xbe1c7f07	-0.15282832
152	0xbd199a0f	-0.037500437
153	0x3e1084ee	0.14113209
154	0x3db804dd	0.089853026
155	0x3d37f863	0.044914614
156	0xbe193531	-0.14961697
157	0x3c906b5f	0.017629324
158	0xbd5c1f7b	-0.05374096
159	0x3e1f9f9e	0.15588233
160	0x3dc49b10	0.09599888
161	0x3c7e2057	0.01551064
162	0xbc3c5fd2	-0.011497455
163	0x3cb65171	0.022255631
164	0xbbf635bd	-0.0075137303
165	0xbce13568	-0.027491286
166	0xbde99546	-0.11405425
167	0x3c931be9	0.017957645
168	0x3d339d09	0.043850932
169	0x3d8d409b	0.06897088
170	0x3d9babf1	0.076011546
171	0xbe0ae0ed	-0.13562365
172	0xbd4ca152	-0.049958535
173	0xbe378465	-0.17921598
174	0x3dfc8d75	0.12331668
175	0xbd0bce24	-0.034132138
176	0xbe11f95a	-0.14255276
177	0x3e0a1021	0.13482715
178	0x3da4de11	0.08050168
179	0xbdbb1163	-0.09134176
180	0x3dbcefd0	0.09225428
181	0xbc3cc7d1	-0.011522249
182	0x3e570742	0.20998862
183	0x3d9e617c	0.077334374
184	0xbd97f167	-0.07419091
185	0xbd531fd2	-0.051544018
186	0x3e2f4953	0.17117815
187	0xbe7e5882	-0.2483845
188	0x3e9efd73	0.3105274
189	0x3e271ca2	0.16319516
190	0xbc31c096	-0.010849139
191	0x3d656dda	0.056012966
192	0xbe438161	-0.19092323
193	0x3e3f3ea4	0.18676239
194	0xbe1b9a47	-0.15195571
195	0x3e134516	0.14381823
196	0xbc4f56b1	-0.012654946
197	0xbdc1a70f	-0.09455692
198	0xbed18eb2	-0.4092918
199	0xbe911373	-0.2833515
200	0xbe7c513a	-0.2464036
201	0x3e91bba6	0.28463477
202	0xbea1b4e6	-0.31583327
203	0xbead3bbc	-0.33834636
204	0x3e49bddf	0.19701336
205	0xbb5235ea	-0.0032075592
206	0xbdf768af	-0.12080514
207	0xbe4101bb	-0.18848316
208	0x3c841cc4	0.016126998
209	0x3dcfeb20	0.101522684
210	0x3e15c6c6	0.14626607
211	0x3d87f1bc	0.06637904
212	0x3ea27b96	0.31734914
213	0x3dcfaae8	0.1014002
214	0x3e02bf1c	0.12768215
215	0x3dbf0f64	0.093291074
216	0x3e73775c	0.23776
217	0x3dbe046c	0.09278187
218	0x3ed4e159	0.41578177
219	0xbeac104d	-0.33606187
220	0x3e004ac9	0.12528528
221	0x3e421f0f	0.1895716
222	0xbec393f7	-0.38198826
223	0x3b72f4ee	0.003707226
224	0xbc86b5fb	-0.016444197
225	0x3e66ff03	0.22558217
226	0xbf80ddc9	-1.0067683
227	0x3eaa0212	0.33204705
228	0x3db6bcc7	0.08922725
229	0x3de86677	0.113476686
230	0xbd6917c6	-0.056907438
231	0xbf1ebf4c	-0.62010646
232	0xbd78b079	-0.060715172
233	0xbdd43cec	-0.103631824
234	0x3e592db3	0.21208839
235	0xbe7cfc25	-0.2470556
236	0xbeb27120	-0.34851933
237	0xbdb0b1f8	-0.08627695
238	0xbe308df4	-0.17241651
239	0xbe7f7969	-0.24948658
240	0x3e2827d2	0.1642144
241	0x3d8c1053	0.06839051
242	0x3e8e48a0	0.27789783
243	0xbe390742	-0.18069175
244	0x3e4857ed	0.19564791
245	0xbe386f36	-0.18011174
246	0xbcb2e39b	-0.021837046
247	0x3e315b09	0.17319883
248	0xbeeac093	-0.45850047
249	0x3e825f53	0.25463352
250	0xbdc3f82e	-0.09568821
251	0xbeabaab6	-0.3352868
252	0x3eae760d	0.3407444
253	0xbedba47b	-0.42898926
254	0x3e3f4f67	0.18682633
255	0x3ed974ab	0.42471823

network.6.bias f4 [30]
0	0x3e6a9dd2	0.22911766
1	0xbcf125e6	-0.029437017
2	0x3e3e0dd8	0.18559968
3	0x3e8fa21f	0.28053376
4	0x3e300f23	0.17193274
5	0xbe2cb0e7	-0.16864358
6	0x3e49fcd9	0.1972536
7	0x3d991ace	0.07475816
8	0xbd8ad7b9	-0.06779427
9	0x3e11851d	0.14210935
10	0xbe612055	-0.2198499
11	0x3e99455f	0.29935738
12	0xbd237384	-0.039905086
13	0xbdc1af31	-0.09457243
14	0x3db1dbfd	0.086845376
15	0xbde54729	-0.11195213
16	0x3d6c55ca	0.057699002
17	0xbe0f22a6	-0.13978061
18	0x3e6e2829	0.23257507
19	0x3e447270	0.1918428
20	0x3d8805c8	0.06641728
21	0xbd4369a9	-0.047708187
22	0xbdceebad	-0.10103545
23	0xbc5f53ab	-0.013630788
24	0x3dafe2aa	0.085881546
25	0xbe8e89fb	-0.27839646
26	0xbe064a44	-0.13114268
27	0xbe2552bd	-0.16144843
28	0x3e87ade3	0.26499853
29	0x3d033a47	0.032038

network.9.weight f4 [1, 30]
0	0xbe811a5a	-0.25215417
1	0xbe88641e	-0.26638883
2	0x3ddef090	0.108857274
3	0x3e5ba70c	0.21450442
4	0x3dbe11b9	0.09280724
5	0xbcc95fa1	-0.024581732
6	0x3df046fe	0.11732291
7	0x3e93dad8	0.28877902
8	0xbebc448d	-0.3677105
9	0x3d9af69c	0.07566568
10	0x3dc714c5	0.09720758
11	0x3e6ae214	0.22937804
12	0xbe1c728d	-0.15278073
13	0x3d395906	0.045250915
14	0xbf0b3a2b	-0.5438563
15	0x3d0c0e27	0.034193184
16	0xbe5a9ca8	-0.21348822
17	0xbd249ae2	-0.04018677
18	0x3e4003a3	0.18751387
19	0x3d8a19fb	0.06743237
20	0x3e7c97a3	0.2466722
21	0x3e7a8969	0.2446648
22	0xbe716d46	-0.23576841
23	0x3e1f3a7f	0.15549658
24	0xbec7266d	-0.38896504
25	0x3eacc62a	0.33744937
26	0x3d6eb802	0.058280952
27	0x3e078a96	0.1323646
28	0x3dfdc930	0.12391889
29	0x3e828424	0.2549144
