experiments/exp_sim_continuous_m2/saved_models/run_0/bootstrapped/m2_4.pt (torch, 10673 bytes, 7 tensors)

network.0.weight f4 [30, 3]
00000000: ec95 e53e 9e6d b4be b725 d3be 5da4 6b3e
00000010: 0ce5 7dbf 1e5c bf3e 8698 d93e f169 df3e
00000020: 4180 083e f1e3 d6be 82ef 17bf 8206 cb3e
00000030: 9bb3 ce3e 930c 5dbd 800e e6bc c255 6dbe
00000040: 006c 343d 983b 62be 8f10 21bf bd71 1fbe
00000050: 7190 b0be 641a 9cbe cdd7 fabe 2cd0 33be
00000060: 1518 973e 7ad2 5ebf 55f3 a63e e42b 9abd
00000070: 1564 0abc 56fc 0f3e 82f6 67be b7fb 56bf
00000080: d8a6 adbe 072c b8be d3a5 fbbd 69f4 17bf
00000090: 9eb9 bfbe d748 f53e 4606 b6be c160 363e
000000a0: 1f31 273f 5148 cebe 665e 27bf 61d8 04bf
000000b0: 59f7 e03e 7887 4c3f 9356 983e e1ba ebbe
000000c0: 84fa 40bf 6928 0abe 28fe 33bf ee80 a93e
000000d0: 2d0e 233e 414f b03e ad0b 12bf 530e 5a3e
000000e0: 9485 9bbe b52a 63be 5241 98bd a0c6 60be
000000f0: 2071 0abd 806f 0b3d a4e4 bdbe 36ac 2d3f
00000100: e86c dbbe e8ee ee3d 5fd1 723f ac72 6cbe
00000110: 61b7 2a3f 2cbe 0f3f 0b51 17bf 45f1 b2be
00000120: 918a 29bf 942e 043f 52fd 92be b1d7 1fbe
00000130: fc8c 2b3f e760 953c 9a20 993e d5b5 25be
00000140: ff86 a1bd 7ccf 34bf 723c 23bf 1eb6 1cbf
00000150: c395 f53e e447 363e 6ea2 b23e 4b09 033f
00000160: 3544 5fbe 4fe5 e7be
0.44840944 -0.3523988 -0.41239712 0.23011918 -0.9917762 0.37374967 0.4249918 0.43635514
0.13330175 -0.4197078 -0.59349835 0.39653403 0.40371403 -0.05396707 -0.028083086 -0.23177245
0.04404831 -0.22093046 -0.6291589 -0.15570731 -0.344852 -0.30488884 -0.48992768 -0.1755988
0.2951056 -0.8703991 0.32607523 -0.07527903 -0.008446713 0.14061102 -0.22652629 -0.83977836
-0.33916354 -0.3597109 -0.12287488 -0.59357315 -0.37446302 0.47907135 -0.3555166 0.17810346
0.6530933 -0.40289548 -0.65378416 -0.5189267 0.4393871 0.7989421 0.2975355 -0.46041015
-0.75382257 -0.13491978 -0.70309687 0.33106178 0.15923376 0.34435466 -0.57049066 0.21294527
-0.3037535 -0.2218426 -0.07434334 -0.2195077 -0.03379929 0.03404188 -0.370885 0.678409
-0.42856526 0.116666615 0.94850725 -0.23090619 0.66686064 0.56149554 -0.59108037 -0.349497
-0.6622706 0.5163357 -0.28708893 -0.15609623 0.67012 0.018234683 0.29907686 -0.16182645
-0.078870766 -0.70629096 -0.6376411 -0.6121539 0.47965822 0.17800862 0.3488955 0.51186055
-0.21803363 -0.45292136

network.0.bias f4 [30]
00000000: e349 12bf b4d2 b8bd bb47 0cbf e88c 18be
00000010: 6915 dabe f5e8 d3be 41ab 163d facb cebe
00000020: 118a 163e df1a 60be df3e 013f 31ee b63e
00000030: bcaf a23e c4c1 01bf 3309 a9bd 309c 93bd
00000040: c727 a93e 10eb 963e f4e1 16bf 532e 9b3c
00000050: 1b53 b6be da1a c8be c397 96be 38ff 3b3e
00000060: b5e6 10bf 817a efbe af8b f1bd a84d 06be
00000070: 31d4 ec3e f365 843e
-0.5714399 -0.090245634 -0.5479695 -0.14897501 -0.4259446 -0.4138867 0.036784414 -0.40389997
0.14701106 -0.2188525 0.5048656 0.357286 0.317747 -0.5068629 -0.08253708 -0.07207525
0.3303816 0.29476213 -0.5893853 0.018942988 -0.3561028 -0.39082986 -0.2941266 0.18359077
-0.5660203 -0.4677315 -0.11794221 -0.13115561 0.4625564 0.2585903

network.3.weight f4 [30, 30]
00000000: ccd5 903d 7c83 6e3e 55df 05bf 11c4 f3bd
00000010: 771d f73d 960c 873d 4cd1 0ebe e21f 353e
00000020: 7c40 8f3d 8924 c13d 373f 4b3e c8f5 c23d
00000030: 3489 b4bc a1d0 813d b073 a0be d399 25bf
00000040: 6d4b 2f3e bd4d 3abd 3b00 953c c054 56be
00000050: 5058 fb3c 5d66 00bf 043d 933e 2902 2dbf
00000060: 3ce9 c4bf 7f9b cbbe 9527 2fbd e027 21bf
00000070: 0f5f 96bc 4cbb 76bf feb5 3a3e 456c 923e
00000080: 533d 1abf 954b d8be 62a7 5abd 4084 63bc
00000090: 3f9e 593e 70b7 943d c1ab 213e c0ac 4ebd
000000a0: 0fb1 51be fd04 443d 4772 163e f97f c8be
000000b0: eb7a 25bf ac82 e9bc 4242 d73e 4dd0 ee3c
000000c0: 17fe 333f 7571 bebd acf7 ed3d 159d 36bf
000000d0: fb3b 063f da71 c2be c292 97bd 7398 1bbf
000000e0: e1ec 763d 29fb 8abe 0e6b de3d 88f0 68be
000000f0: 443f 293d 0930 313f a140 f53e 1f9a f3bd
00000100: 129a dabd acfb d43d 1acb 83be 35f1 2abe
00000110: 0d95 123e fb51 10be 96ad 123f 9226 75be
00000120: 414b 553d 88a1 bc3e 5ad6 6a3e 7fd5 46bc
00000130: f702 dfbe 6483 973d d5e2 efbe 219b e0bd
00000140: 908a 073e c44b 00bf 8408 07bf 584a a83e
00000150: ef3b 333f 6d0d 2c3f dd80 d23d 51de 293f
00000160: 85ad e23d c207 603e f295 34be 08de cbbd
00000170: 79f7 19be c044 223c 4858 eb3c 68c5 d03c
00000180: 9d8a 41be 9052 453d 5520 b8bd 4b8f 5ebe
00000190: 0b20 ab3c c5f8 c8bc 64b1 37be 8004 823b
000001a0: ed32 363d 2632 33be 8298 a0bc 5fba e93d
000001b0: f419 213e b7cb e6bd 26b4 8bbd 8d9e c4bd
000001c0: e8a2 dcbd 6077 b5bd c060 f43d 32ea 033e
000001d0: 5aa7 73bd d80a bd3c 5a29 10be 58db e9bc
000001e0: bc2c ef3d e4d5 fa3e ac79 cc3e 1fa0 41be
000001f0: 7f64 02bd bae3 b7bd 394f 90bd dec7 2a3e
00000200: 5177 683e 9914 e4bc bd95 d23e d0cf b3bd
00000210: 6776 433d 9e69 af3e 8827 8c3b 7bb8 a4bc
00000220: 24e1 8abe af60 113c 168f 523d 204a 8c3c
00000230: 00b9 b73d 9666 06bf fdf0 f6be 92b1 1d3e
00000240: 908d 473f 54c5 653f 2ecc 64bd 0447 c53e
00000250: ed4e b13c 9580 473c feef 1d3e 3996 3cbf
00000260: 6046 0c3e 1ced e63e 00e0 3db9 0807 0b3e
00000270: 4817 433d 80c7 d4bb e8cc 38bf 3513 103e
00000280: 61cd ca3d 7b02 023e 29eb 073e 361a 58be
00000290: 247b 033e 2010 913b 2917 743e e923 ddbe
000002a0: 2d3a b7be 1b71 dabd 8cfd 233d ac5a 013e
000002b0: 60a8 4d3c 57a1 d5bd 26d3 92bc c5a7 0dbf
000002c0: 7e57 c8bd 1698 3a3f d505 30bf 0565 063e
000002d0: a082 f23d 0a52 fc3d 5e4d 51bf 0a1d 223c
000002e0: a9ee c23d 70b1 a1bc a964 2bbf 2cc3 923d
000002f0: 5b11 033f f0c8 563d ae17 263f 9ae7 46bd
00000300: 4d18 1cbf e25d 7ebd b6db b5bc 6a1d 31be
00000310: f925 41bf 48fc db3d 49bb 933d 0066 e5bc
00000320: 4e9c a5bd 4baf bbbf 8dd6 2abe 8633 af3e
00000330: a19c f73e 9bac dd3b dcf9 083d c948 f3bd
00000340: c2fe 40bd e32f cebb 4408 af3d fafd 58be
00000350: 484a 10be 7a4d f13e dc60 ce3d 868c 16be
00000360: 43d0 953e 1a76 853d ac88 95be 8499 603d
00000370: 429b 553e 60c3 003e ca79 4bbe 1ec8 7fbb
00000380: 196d a93e 7f1b 39be 0927 0c3e 0c8f 38bf
00000390: 954f b5be 73e8 2ebe d2de febd 9c57 06be
000003a0: ac15 e83d c72d cabe 4e30 eabe 82b4 3abe
000003b0: 319a 18be 2121 153f e1fa 55bf 6c94 b7be
000003c0: bc46 043d 4d1e 5bbe 9e76 173e b362 a63d
000003d0: 96d8 fdbd 3c53 e53d 2def 163e dfe1 32be
000003e0: c4e0 a1be 5443 5cbd 8a49 7c3e 5639 d33e
000003f0: e5f3 703e 33a1 b4be de6a 0e3e 4158 49be
0.070720285 0.23292345 -0.522939 -0.11902631 0.12066167 0.065941975 -0.13947028 0.17687944
0.06994721 0.09430797 0.19848333 0.09519535 -0.02203808 0.06338621 -0.31338263 -0.6468784
0.17118616 -0.045484293 0.018188586 -0.20930767 0.03068176 -0.50156194 0.2875749 -0.6758142
-1.5383677 -0.39767072 -0.042762358 -0.6295147 -0.018355874 -0.9637954 0.18233487 0.28598228
-0.60249823 -0.42245165 -0.053382285 -0.013886511 0.21251772 0.072615504 0.15788175 -0.050457716
-0.20477699 0.04785632 0.14692031 -0.39160135 -0.6464068 -0.028504692 0.42042738 0.02915206
0.70309585 -0.09298984 0.11619505 -0.7133344 0.5243527 -0.37977487 -0.07401039 -0.60779494
0.0602845 -0.27144745 0.10860263 -0.22748005 0.0413201 0.6921392 0.4790087 -0.11894631
-0.10673918 0.10399565 -0.25740892 -0.16693576 0.14314671 -0.14093773 0.5729612 -0.23940495
0.05207372 0.3684199 0.22933331 -0.012135862 -0.4355695 0.07398108 -0.46852747 -0.109670885
0.13236451 -0.5011561 -0.5274737 0.3286922 0.70013326 0.67207986 0.10278485 0.6635485
0.110682525 0.2187796 -0.17635325 -0.099544585 -0.1503581 0.009904087 0.02872862 0.025484756
-0.18900533 0.04817444 -0.08990542 -0.2173435 0.020889303 -0.024532685 -0.17938763 0.0039678216
0.04448216 -0.17499599 -0.019603971 0.114125006 0.15732557 -0.11269324 -0.0682147 -0.09600554
-0.107732594 -0.088606596 0.11932516 0.12882307 -0.05948577 0.02307646 -0.14078274 -0.028546974
0.11678454 0.4899131 0.39936578 -0.18908738 -0.03183412 -0.08978982 -0.070463605 0.16677806
0.22701766 -0.027841853 0.41129866 -0.087798715 0.04772034 0.34260267 0.0042771734 -0.020107498
-0.27124894 0.008873149 0.05140599 0.01712519 0.08970833 -0.52500284 -0.48230734 0.15399769
0.7795038 0.89754224 -0.055858783 0.38530743 0.02164408 0.012176652 0.15423581 -0.7366672
0.13698721 0.45102775 -0.00018107891 0.13576901 0.047629625 -0.006493509 -0.7218766 0.14069827
0.09902454 0.12696259 0.132733 -0.21103749 0.12839943 0.004426971 0.2383696 -0.4319146
-0.35786572 -0.106661044 0.040036723 0.12632245 0.012552351 -0.10431164 -0.017922949 -0.5533412
-0.09782313 0.72888315 -0.687589 0.13124473 0.11841321 0.12320335 -0.8175868 0.009894619
0.09518177 -0.01973793 -0.6695047 0.07166132 0.5119836 0.052437723 0.6487988 -0.048560716
-0.6097458 -0.062101252 -0.022199493 -0.17296377 -0.75448567 0.10741478 0.07213456 -0.028002739
-0.080864534 -1.466287 -0.16683407 0.34218997 0.48361686 0.006764961 0.03344141 -0.11879117
-0.047117956 -0.0062923296 0.085464984 -0.21190634 -0.14090836 0.47129422 0.10077068 -0.14702043
0.29260454 0.06516667 -0.29205835 0.054833904 0.20860007 0.1257453 -0.19870678 -0.0039029191
0.33091047 -0.18076895 0.13686766 -0.7209327 -0.3541228 -0.1708086 -0.12444843 -0.13119358
0.113322586 -0.3948805 -0.4573998 -0.18232921 -0.1490257 0.58253676 -0.83585936 -0.35855424
0.03229402 -0.21398278 0.14791343 0.08124294 -0.12394826 0.11197516 0.14739676 -0.17468975
-0.31616795 -0.053775147 0.24637428 0.4125468 0.23530538 -0.35279235 0.13907954 -0.19662572

network.3.bias f4 [30]
00000000: 3cbe 2e3e 4bb5 193e b234 d33c 628f e5bc
00000010: 5350 18be 2de3 93bd 00df 313e 90de 86be
00000020: a36d 7cbd 886b 63bd efcb 9bbd 8a29 1abe
00000030: 0f4c 58bd 5eec 86be 4e68 8f3e 3c2c 543e
00000040: ac45 57be 6d71 ce3d 0d95 b8bd de03 973d
00000050: 9212 373e 92e6 973b 731d 9bbd 0918 b63d
00000060: d598 2abe fa61 963d a3ea 28be 008d 663e
00000070: e85a 65bd c9fe fabc
0.17064756 0.15010564 0.025781963 -0.028022472 -0.14874391 -0.07221065 0.17370224 -0.26341677
-0.061627995 -0.05552247 -0.076072566 -0.15054908 -0.05280691 -0.2635221 0.28009266 0.20719999
-0.21022671 0.10080228 -0.09012804 0.073737845 0.17878178 0.0046356404 -0.07573976 0.08891303
-0.16659863 0.07342906 -0.16495757 0.22514725 -0.055994898 -0.03063907

network.6.weight f4 [30, 30]
00000000: 9912 3abe 5ef9 55bf 4388 933e da65 9c3d
00000010: 0208 863e 694f df3e 9e08 2e3f 1bf2 1d3f
00000020: ab6b 28be 4b48 7b3d ef1d 2ebe 5a50 11be
00000030: 6043 3cbf 347c 22be 6dad f2be 69b2 003e
00000040: 6f64 983e e8ec 043c 5cb1 f5bd ffd5 b23d
00000050: 8db7 90be 4170 91be c83e 62be 9925 80be
00000060: 2fdb 26be 9ad7 253d b0f9 16be 9bb3 c2be
00000070: 468b 77bd 789a d93d b7e9 acbd 645f 4ebe
00000080: 4725 823e 215d 573d a85a c1bd 3bd0 9a3e
00000090: 7c02 273f 422d 2c3f 66d5 88be 2c08 9a3c
000000a0: cbb9 e2bd 0f93 14be d5cf dcbe 7cfd 65bf
000000b0: 1154 433c 1edf a13e f4bb 69bd 090e aabd
000000c0: bc73 ef3d aace 0bbe 3a24 62be f060 3dbe
000000d0: 3d2c b9bd 5280 5bbc 07a7 edbd 1d4c 673e
000000e0: db59 f53d e0f0 2bbe c0c5 acbd eb75 19be
000000f0: 9d19 b93d 5cee 26be a0df a03e 2003 e5bb
00000100: e4dc 893d ec0f 77bf 0fea ac3e 59af 1bbe
00000110: ead0 e1be 9e39 563d 4087 00be 68cb fcbe
00000120: b984 23bf 33b4 98bf 4bf4 343e a168 bf3e
00000130: b1d7 f23d a2c6 89bd 97b5 0abc e0f1 dc3b
00000140: 998f 83be b9c3 e6bb c62b 3c3d 7463 d93d
00000150: 4778 ef3c 303c ac3d 79df 4e3d 70df e13d
00000160: 25f3 1abe d294 debb af38 0c3f ab13 6d3e
00000170: 4fd0 1ebe b70f 32be 0cc4 2dbd 03ee 9bbe
00000180: cf7f cb3e 9af7 12bf 4320 823e 25d7 31be
00000190: 70f2 a6bc 18f0 773e 30de 3b3e 8a28 8abe
000001a0: c503 9d3e 799d cdbe 5bd8 e03d 8c7c 573e
000001b0: 8ed1 b63c 1396 f0be ab7e 0cbd 6e25 f5bb
000001c0: daa3 49bc 7d36 f53c b0d8 bdbd 1238 223d
000001d0: e93d 1dbe 8e5c c33e 30c3 913d 88fe eb3d
000001e0: a9ce 023f 5753 6f3e 9d62 72be c3d6 0d3e
000001f0: 6440 e0bd d458 98be 3fb5 fb3e 08aa a5be
00000200: 54f8 473e 58f7 893d ec17 d03d 955a 923e
00000210: 712a 543e 0e73 c7be 1413 9d3e 579f debe
00000220: ec0e 72be 5437 b83d 9e91 fb3d d504 9b3c
00000230: f0b8 0e3e 45cf f33d eb86 5b3e ce2a 303e
00000240: 461f 9bbd 4036 82bd 1b16 9dbb 09bb 013f
00000250: df00 f4bd 6d61 96bd b134 08bb 65c7 b53e
00000260: fdc7 3dbe a842 763d 8289 95bd be9e df3e
00000270: 7e3f a9be 2526 083f b6ed a53d adf2 0b3d
00000280: a657 193e f7eb 54bd 44b5 3c3e edb5 d43e
00000290: 0e75 c1be ba91 b8bd e6aa febe d2ed 223e
000002a0: 051e c33d e7a1 01bf 831d 7cbe e696 b7bd
000002b0: 78a1 3abc 172d d7be c8b4 853d ab33 b23d
000002c0: 6089 e53d e80c 93be 44f9 72bd fab2 863d
000002d0: 23a8 0bbf 76ed 1fbe 9e6a 61bd 207e b33c
000002e0: 4053 32be 8d4f 893e a6ad a0bd 09b5 983e
000002f0: 174d f43d 1023 503d e4cc 2d3e c778 9c3e
00000300: fa17 2abe ad6d 69bc 79fc f53d c7eb f2be
00000310: d6d2 91bc 9f18 2fbd f961 c1bd 2878 29bf
00000320: 2679 2d3e cebd 3a3e 19a6 9e3e 140c 203e
00000330: c010 b2bb 7c5a 0fbe 6737 e93d 4097 83be
00000340: 3ce2 57bd 2ffd e8bd 0c64 c13d 5809 69bf
00000350: 96f3 053c 3641 1ebe 12b0 503d 3fe7 30be
00000360: d3ae 05be 60ef d3bc 806c 8ebd 7801 f4bc
00000370: 7a66 cbbd 37eb e4bd 1c9e 753e bac0 b83d
00000380: 611d 46be dad6 313e 4b41 c43b cae1 0a3e
00000390: 403a b83c 6983 06bf 722b bfbd 8d5e 21be
000003a0: ab64 9f3d ae48 6fbe 3f00 a1bd 5463 92bd
000003b0: acf2 ef3d ddbd 87be 27c9 e2bd b2de f7bd
000003c0: e37b 363e 5950 b33e 33d5 11be d1a8 713b
000003d0: 8439 bcbb dca9 9ebe 9644 dd3e c442 04bf
000003e0: 0103 973e 5f98 f9bd 60b1 a13d 3f9d d13d
000003f0: 2cdb 0cbd d3a8 61bd 2791 aa3e 09ef 2bbe
-0.18171157 -0.8358363 0.28814897 0.07636614 0.26177984 0.43615273 0.679819 0.6169755
-0.16447322 0.06134824 -0.17003606 -0.14190808 -0.73540306 -0.15867692 -0.47397938 0.12568058
0.29764125 0.0081131235 -0.11996719 0.08732223 -0.28265038 -0.28405955 -0.22094262 -0.25028685
-0.1629455 0.040488817 -0.14743686 -0.38027653 -0.060435556 0.10625166 -0.08443015 -0.20153576
0.25419065 0.05257905 -0.094411194 0.30236992 0.65238166 0.6725656 -0.2672531 0.018802725
-0.110705934 -0.14509223 -0.43127313 -0.8983991 0.011921898 0.31615537 -0.05706401 -0.08303458
0.116919965 -0.13653055 -0.22084132 -0.1849401 -0.09041641 -0.013397293 -0.116041236 0.22587629
0.11980029 -0.16791105 -0.08436155 -0.14986388 0.090380885 -0.16301864 0.31420612 -0.006988898
0.06731585 -0.9650867 0.33772323 -0.15203609 -0.441047 0.05230104 -0.12551594 -0.49373937
-0.63874394 -1.1929992 0.17671315 0.37384513 0.11857546 -0.06727339 -0.008466146 0.006742701
-0.25695494 -0.007042375 0.045940183 0.10614672 0.029232157 0.08409917 0.05050609 0.110289454
-0.15131815 -0.006792643 0.5477399 0.23152034 -0.15509151 -0.17388807 -0.042423293 -0.30455026
0.39745948 -0.5740906 0.2541524 -0.17367227 -0.020379275 0.24212682 0.18346477 -0.26984054
0.30666938 -0.40159205 0.109787665 0.21043605 0.02231672 -0.46989498 -0.034300487 -0.0074812686
-0.012307132 0.029933209 -0.092698455 0.039604254 -0.15355648 0.3815655 0.07117307 0.11523157
0.5109659 0.23371635 -0.2367043 0.13851456 -0.109497815 -0.2975527 0.49161717 -0.32356286
0.19528323 0.0673663 0.10160813 0.28584734 0.20719315 -0.38954967 0.30678618 -0.43480942
-0.23638505 0.08994928 0.12283634 0.018923203 0.13937736 0.11904768 0.21438186 0.17203829
-0.07574324 -0.063580036 -0.004793895 0.5067602 -0.11914229 -0.07342801 -0.002078336 0.35503688
-0.1853332 0.060122162 -0.07301618 0.43675798 -0.33056253 0.53183204 0.081019804 0.03416698
0.14974841 -0.051982846 0.18428522 0.41545048 -0.37784618 -0.0901217 -0.4973976 0.15911034
0.0952721 -0.5063767 -0.24620633 -0.089643285 -0.011391036 -0.42026588 0.06528622 0.08701261
0.11207843 -0.28720784 -0.05931975 0.06577106 -0.5455343 -0.15617928 -0.05503332 0.021910727
-0.1741457 0.26818505 -0.07845621 0.2982562 0.11928766 0.05081469 0.16972691 0.30560896
-0.16610709 -0.01424734 0.12011046 -0.4744551 -0.01780073 -0.04274809 -0.09442515 -0.6619897
0.16940746 0.18236467 0.30986097 0.15629607 -0.0054341257 -0.13999361 0.1138752 -0.25701332
-0.05270599 -0.11376416 0.094429106 -0.9102988 0.008175751 -0.15454563 0.050949164 -0.17275713
-0.13054971 -0.025870979 -0.069542885 -0.029785857 -0.09931655 -0.11177676 0.23986095 0.09021135
-0.19347145 0.17367116 0.005989229 0.13562694 0.022488713 -0.52544266 -0.093344584 -0.15758725
0.07782873 -0.23367569 -0.07861375 -0.071478516 0.11716208 -0.26512042 -0.11073523 -0.12103023
0.17820697 0.35022238 -0.14241485 0.0036874304 -0.005744161 -0.30988967 0.4321639 -0.51664376
0.2949448 -0.121872656 0.0789516 0.102350704 -0.034388706 -0.055092644 0.33313867 -0.16790403

network.6.bias f4 [30]
00000000: 35e0 3abe b6ec c83d 444b 773e 52fc db3d
00000010: 8ae5 523e 1f52 b6bd 83d1 96be 0873 6bbe
00000020: d848 993b 965b d83d a5ab c2bd 5386 01be
00000030: b233 7fbd 92a5 3bbe d36a 36bc 50a0 88bc
00000040: 322a 35be fa6b 7a3d febc 4cbe e54d 783e
00000050: cb36 273c a979 2b3e de39 31be d2eb 5a3e
00000060: 37c4 2bbe 6de9 2abe b8b6 d5bc 28a5 843e
00000070: 608b 9dbe 8d33 aa3c
-0.1824959 0.09810774 0.24149805 0.10741486 0.20595375 -0.08902382 -0.2945672 -0.229931
0.004677873 0.10564344 -0.09505395 -0.12648897 -0.06230516 -0.18324879 -0.011133867 -0.016678005
-0.17691877 0.06113813 -0.1999397 0.24248464 0.010205935 0.16745628 -0.17307231 0.21379021
-0.16774069 -0.16690607 -0.026088104 0.25907254 -0.30770397 0.020776534

network.9.weight f4 [1, 30]
00000000: 3a89 3abf 564b febd 877b efbe 1a04 683e
00000010: 0c08 a13e cd8b d4be 5527 7bbe b2c7 ad3e
00000020: c8ed 433e 9dd1 18be c287 103f 5fea 17be
00000030: e810 e1bb 126a 9abd 9f2b 02bf 6ca0 b73d
00000040: dc11 64bc f5fd 8b3e e126 2d3e 79c9 cbbe
00000050: 82a3 a13d 985d c6be 51a3 d8bb 81d3 83be
00000060: 1ee0 3d3d 2c53 1f39 cabe bd3c caa8 e5be
00000070: c7c5 c9be cc05 b3be
-0.7286564 -0.12416713 -0.4677393 0.22657815 0.31451452 -0.4151291 -0.24526723 0.33941418
0.19133675 -0.14923711 0.5645715 -0.14835499 -0.0068684705 -0.075397626 -0.5084781 0.08966145
-0.013920274 0.2734219 0.16909362 -0.3980215 0.07892515 -0.3874328 -0.0066112657 -0.25747302
0.046356313 0.00015194406 0.023162264 -0.44855338 -0.39408705 -0.3496536
