experiments/exp_sim_continuous_m1/saved_models/run_0/full_data/y.pt (torch, 8231 bytes, 6 tensors)

y_transform.nn.layers.0.weight f4 [30, 3]
000000 30 9d c8 3e f3 7d d8 be d1 07 60 3e eb d2 05 be
       0.39182425 -0.42283592 0.21877982 -0.1306874
000010 d7 dd 9a 3e f4 37 bd be e8 79 10 40 95 f1 88 bf
       0.30247375 -0.3695675 2.2574406 -1.0698725
000020 ec 51 5a bd 28 cf bf 3e fe 4e 02 40 e4 70 62 bf
       -0.053300783 0.37462735 2.0360713 -0.8845351
000030 9d 4b cc 3d e3 b2 b0 3e 5f 1f 37 bf 7a 10 f4 be
       0.099753596 0.3451148 -0.71532243 -0.4766882
000040 bc 82 ea 3f b7 8e 1e 3f 09 27 ec be ef e9 12 bf
       1.8321147 0.61936516 -0.4612353 -0.57388204
000050 b4 42 b9 3c 20 10 4e 3e 78 05 2a bf 3c 88 be 3e
       0.022614814 0.20123339 -0.66414595 0.37213314
000060 ef 2d 9f 3f 34 83 28 3f c4 1c 61 bf d1 3c 27 40
       1.2435893 0.658252 -0.8793452 2.613087
000070 1a 84 43 3e 96 0f 79 3f 8a 61 e5 be 5b f0 1d c0
       0.19093361 0.9728941 -0.4480098 -2.4677951
000080 c7 dc b4 3e 19 7b 18 c0 e1 09 a3 3e cf cf 2e c0
       0.3532469 -2.3825133 0.31843475 -2.7314336
000090 5a ba 01 3e 95 82 3f 3e fc 3f 09 be d9 3a 2e 3e
       0.12668744 0.18702157 -0.13403314 0.17014636
0000a0 82 2e 3a 3e 63 83 23 bf f8 83 c4 bf 58 17 41 3f
       0.18181804 -0.63872355 -1.5352774 0.75426245
0000b0 80 37 18 bf 03 65 20 c0 20 d6 46 be 87 0b 42 be
       -0.59459686 -2.5061653 -0.1941762 -0.1894971
0000c0 4b 51 3f bf c6 0d 31 bf 3e 09 80 bf e6 9a 92 bc
       -0.7473342 -0.6916164 -1.000282 -0.017896127
0000d0 3b 28 f7 bd 0f b6 b5 3e 44 98 02 3e c0 d3 5f bc
       -0.1206822 0.35490462 0.12753397 -0.013661325
0000e0 86 db e0 be ec 15 c7 3f d8 41 65 bf 5e 0e a2 bf
       -0.43917483 1.5553565 -0.89553595 -1.2660635
0000f0 db 39 84 be db 0e 0f bf 74 6a 49 3e f9 7b 62 3f
       -0.2582539 -0.5588204 0.19669515 0.8847042
000100 3f 38 38 c0 0e 9c 85 3e 80 ed 80 3c 34 7e 84 be
       -2.878433 0.26095623 0.015738249 -0.25877535
000110 59 9c c9 be 00 83 bc bc 73 33 f2 be b8 b1 ca bd
       -0.39377096 -0.023011684 -0.47304878 -0.098971784
000120 59 15 ee 3e 37 e2 25 be 3e 51 00 be a6 f7 e2 3f
       0.46500662 -0.16199575 -0.12530991 1.7731826
000130 c4 10 22 3f 72 48 8b 3f 8a 1b 9b 3c 67 42 a5 bf
       0.6330683 1.0881484 0.01893403 -1.2910889
000140 86 05 0a bf 66 11 ab 3c 5e 00 27 3e 4d 02 08 be
       -0.5391468 0.02088232 0.16308734 -0.13282128
000150 8e ae 92 bf fa a2 e6 c0 2b d1 b4 bf 0c 7f 1e 40
       -1.145952 -7.2073946 -1.4126333 2.4765043
000160 d2 e2 50 bf 88 97 8c bb
       -0.815961 -0.004290525

y_transform.nn.layers.0.bias f4 [30]
000000 1f 1a 14 bf 98 7c df be 93 13 c2 bf 60 ce 41 bf
       -0.5785236 -0.43649745 -1.5162224 -0.7570553
000010 1d 7a dd be ab 86 b0 bf 5b 2e 00 bf ec 43 0a bf
       -0.43257228 -1.3791097 -0.5007073 -0.5400989
000020 ae 23 b3 bf dd 2d 5d bf 2d b9 f7 3d 1d 7d 23 3e
       -1.3995264 -0.86398107 0.12095866 0.15965696
000030 01 de ad be 7a fb b1 be f2 d3 03 bf fd 78 a3 bf
       -0.33958438 -0.34762174 -0.5149528 -1.2771298
000040 8b 17 4b bf 48 af d4 be 63 c5 88 be 12 ba e0 be
       -0.793328 -0.4153998 -0.26713094 -0.4389196
000050 29 69 0d bf d1 5c ab 3e 95 67 9f bc 38 16 07 bf
       -0.55238587 0.3346925 -0.019458571 -0.5276828
000060 e1 57 ee be 8a 54 18 bf 02 49 2a bc f9 45 3e be
       -0.4655142 -0.59503996 -0.010393383 -0.1858138
000070 8d 33 82 bd 74 70 66 bf
       -0.06357489 -0.9001534

y_transform.nn.layers.1.weight f4 [30, 30]
000000 6e f3 74 3e 91 40 5e 3e b2 0f 82 c0 e1 6d b5 3f
       0.23920986 0.21704318 -4.064416 1.4174157
000010 1b 9b 54 3e 4d 11 b5 3f b5 78 79 bd 71 7e 57 3c
       0.20762293 1.4145905 -0.06090613 0.013152705
000020 8b 34 38 3e 32 fb b9 be b1 84 a5 be 4c 6e 9a be
       0.17988794 -0.3632446 -0.32327798 -0.30162275
000030 df c0 10 3e 23 b3 1a 3e 2e cd a9 3c 53 1d 21 bf
       0.14136074 0.15107398 0.02072772 -0.6293537
000040 f0 c8 40 bd ce 4d fb 3c bc 1c e6 3d 64 17 db 3e
       -0.04706663 0.030676749 0.112359494 0.42791283
000050 9e 48 53 be 62 d1 1b c0 c7 b2 dc bb 48 eb 56 3d
       -0.2063317 -2.4346547 -0.006735179 0.052470475
000060 81 8c c1 bd 1f a7 24 bf 28 f2 7e be fe 42 aa 3d
       -0.09450627 -0.64317507 -0.24897063 0.08313559
000070 8b 9b dd 3e 96 f5 38 40 a0 13 95 3d ce 5a 85 be
       0.43282732 2.8899894 0.07279134 -0.2604584
000080 27 f0 e5 bd 62 51 8d bd 16 d7 3a be ab d1 07 be
       -0.11227446 -0.06900288 -0.18246111 -0.13263576
000090 be 0a 23 3e f4 1e 0d be 28 f8 a7 bd 2a cd 09 be
       0.15922067 -0.13781339 -0.08201629 -0.1345717
0000a0 e7 e3 ef bd a7 80 53 be 50 0e 3c be 7d eb 8c be
       -0.11713391 -0.20654546 -0.18364835 -0.27523413
0000b0 d0 53 32 3c 3b 6f 47 be 38 bb fd bd c4 f4 1e bd
       0.01088424 -0.19476025 -0.12389225 -0.038807645
0000c0 d8 ec 0e 3d ec 82 ba 3d 28 b1 10 3e 20 ed 0f 3c
       0.03489384 0.091070026 0.1413008 0.008784562
0000d0 fc aa 64 be 26 14 38 be 10 74 38 be f0 ba 12 3e
       -0.2233085 -0.17976436 -0.18013024 0.14329123
0000e0 66 e7 b1 bd 4b cb 30 be f8 66 30 be 08 c0 31 be
       -0.08686714 -0.1726505 -0.1722678 -0.1735841
0000f0 e4 0b 14 be 61 8a 40 be 98 7b 23 be dd 07 80 3c
       -0.14457661 -0.18802787 -0.15965116 0.01562875
000100 a4 77 90 be 4d 1a ec bd 80 7c 9f 3d b8 a8 99 3d
       -0.2821628 -0.11528454 0.07787418 0.07502884
000110 20 a1 44 be 25 23 d7 bd 38 d8 27 be 57 cf de 3c
       -0.1920209 -0.1050475 -0.16391075 0.027198477
000120 bb 73 91 be 92 58 a4 be 31 eb ff bd 91 ff b1 bd
       -0.28408608 -0.32098824 -0.12496031 -0.086913235
000130 bd 08 82 be 20 18 e2 bd d8 de bf bd c7 5f a0 be
       -0.25397292 -0.11039758 -0.09368676 -0.31323072
000140 20 88 f9 bb 92 e4 c4 be 23 50 49 be 73 6d 93 bd
       -0.0076151043 -0.38455635 -0.19659476 -0.0719861
000150 7b 95 ed bd 66 0c 95 bd 17 86 27 bd a7 dd 65 bc
       -0.11600777 -0.072777554 -0.040899362 -0.014029897
000160 1b 95 c7 bd f6 33 36 be 72 8d 32 be ba c1 ab 3d
       -0.097452365 -0.17793259 -0.1743677 0.0838656
000170 ae 00 03 3e 52 d0 f6 be ae 3e ad 3d c7 85 99 bf
       0.12793228 -0.4820581 0.08459221 -1.1993951
000180 3d a1 af bd f2 7b 6d 3c 98 6c ae bd 0d a6 d5 be
       -0.08575676 0.014494883 -0.08516806 -0.4172825
000190 f2 d9 1f be a2 bc a7 bd b4 53 27 3e df 65 84 3d
       -0.15610483 -0.08190276 0.16340524 0.06464743
0001a0 62 9d cf 3d d8 99 96 bf 14 d2 73 bd 55 40 9b be
       0.1013744 -1.1765699 -0.059526518 -0.3032252
0001b0 7d e8 91 bd 57 20 8e be 59 ed 09 be 19 f8 46 bf
       -0.07124422 -0.27759048 -0.13469447 -0.77722317
0001c0 0f 3a 4f 3e 36 be dc bd 68 92 63 bd 2d 49 49 bf
       0.20236991 -0.10778467 -0.055559546 -0.7862728
0001d0 a3 c3 5a 3b ca 40 22 3d 39 d4 4b bf 94 a6 2f 3d
       0.0033380769 0.03961257 -0.796207 0.04288347
0001e0 69 c5 38 be 03 49 d0 bd 86 3b 0d bd 5f 53 19 be
       -0.18044056 -0.10170176 -0.034480594 -0.1497321
0001f0 8f 27 06 3c 30 36 06 bd 8d d5 15 be e0 04 a6 3d
       0.008188142 -0.03276652 -0.14632244 0.081063986
000200 45 cf 67 bd c2 9e 2a be 24 0f bf bd fe 1e c9 bd
       -0.056594152 -0.16662124 -0.0932906 -0.098203644
000210 fc d7 17 bd f5 65 1b 3d ab b0 d9 3d ca 71 07 bd
       -0.037071213 0.03793903 0.106294 -0.033067502
000220 3f 2a a4 bd ae 8b 1c 3e 7d 78 a2 bd 03 68 06 3e
       -0.0801587 0.15287659 -0.079331376 0.13125615
000230 4c 84 7b 3d da 8a 4c 3d e7 f0 af 3c 50 4d 53 bd
       0.061405465 0.049937107 0.021477176 -0.051587403
000240 84 bf 1f be a9 95 43 be 55 53 19 be e6 13 9c 3d
       -0.15600401 -0.1910006 -0.14973195 0.07620983
000250 38 e6 02 be d9 c4 05 3e 06 86 17 be ce a0 6d be
       -0.12783134 0.13063373 -0.1479722 -0.23205873
000260 1a e7 35 be 10 28 b2 be 04 15 30 3a d8 59 db be
       -0.1776394 -0.3479619 0.0006716999 -0.42841983
000270 78 fd 59 3e bd cf d3 3d 2f 2b 11 be 87 06 cb 3c
       0.21288097 0.10342357 -0.1417663 0.024783386
000280 d9 90 53 3e 2e cf 06 be af 45 84 be d6 3d 1d bd
       0.20660724 -0.1316497 -0.25834414 -0.03838905
000290 26 a9 d2 bd 2b 34 56 3d 7c 55 4b be b4 9e 03 3e
       -0.10286169 0.052295845 -0.19856828 0.12853509
0002a0 d8 46 0b 3d db 86 99 bd 87 96 39 3e c1 bc 17 be
       0.03400311 -0.07496425 0.18123828 -0.14818098
0002b0 c8 0e 1b be fc e5 0e 3e 09 a6 51 bd cb 44 ba bd
       -0.15142357 0.1395492 -0.051183734 -0.090951525
0002c0 7d ac d9 3d 1f ec 25 be c4 c8 1b 3e d8 c0 35 3d
       0.10628603 -0.16203354 0.15213305 0.044373363
0002d0 90 d1 ac bc b9 6c 67 bd 00 d4 2e ba a2 fb 6b 3d
       -0.021096021 -0.05650017 -0.00066691637 0.057613023
0002e0 6e 03 bc 3c 73 49 56 bc f1 62 48 3e 59 f7 17 be
       0.022950854 -0.013079035 0.19568993 -0.1484045
0002f0 a1 20 ff bd 26 22 42 be 71 bf 20 bd d2 84 99 3c
       -0.12457395 -0.18958339 -0.039245073 0.018740091
000300 38 c3 23 3d 4b 94 2d 3d d0 52 b6 3b af 25 45 be
       0.039981097 0.04237775 0.0055640712 -0.19252656
000310 3c 1c 45 be 67 91 6e bd 4a 41 14 be 0a a7 4a be
       -0.19249052 -0.058244135 -0.14478031 -0.19790283
000320 7a 62 41 3e e2 40 49 be 23 ab 33 3c 7d ff ac bd
       0.18885222 -0.19653657 0.010966095 -0.08447168
000330 47 9f 0e 3e a6 21 fc bd 8c 69 e7 3d 22 ba f3 3d
       0.13927947 -0.123111054 0.11299428 0.119007364
000340 6c 96 a5 3d f8 05 6b bd 03 9d cd 3c 86 3f 39 be
       0.08085331 -0.05737874 0.025099283 -0.18090639
000350 c9 8d 60 be 88 f4 ef be 31 cc 37 bf b3 c0 19 bf
       -0.21929087 -0.4686625 -0.71795946 -0.6005966
000360 a6 86 e5 bd 5d 64 0a bd b7 73 93 be 38 19 2e bd
       -0.11207323 -0.03378712 -0.2879922 -0.04250452
000370 e7 c5 56 be 68 2e e1 bd e2 84 95 bd 29 25 a1 be
       -0.20973931 -0.109951794 -0.07300736 -0.31473663
000380 7f f2 1a bd 5e 32 e3 be 50 a1 a7 bc 91 7c 4f be
       -0.03782892 -0.44374365 -0.020462662 -0.20262362
000390 80 87 93 3b 47 75 4d bf 33 96 cd 3d d2 e2 5a be
       0.004502237 -0.80257076 0.10038414 -0.21375588
0003a0 6c f0 3a 3d c8 33 8b 3d fe 0f 84 3b 14 9f 32 3d
       0.04563944 0.06796986 0.0040302267 0.04360874
0003b0 74 ed 59 3d 67 82 98 bc d1 03 4e 3b 75 43 a1 bf
       0.05320497 -0.018616868 0.003143538 -1.2598711
0003c0 ef 07 8d 3c 0f 7f e4 be 67 f5 4c 3e c1 83 d8 be
       0.017215697 -0.44628188 0.20015489 -0.4228802
0003d0 0d 76 a1 be 9f 88 47 bf ee ac 79 be cd 03 05 be
       -0.31535378 -0.7794284 -0.24382374 -0.12989731
0003e0 52 37 be be 89 cf e6 bc b5 63 e3 bc b7 18 d9 be
       -0.3715158 -0.028175132 -0.027757505 -0.42401668
0003f0 b2 ec 8f be 3d 5f 5e bf c4 f0 34 bf 50 32 4b be
       -0.28110272 -0.8686407 -0.7067988 -0.19843411

y_transform.nn.layers.1.bias f4 [30]
000000 29 b3 95 bf 82 e2 24 be ba a1 90 be 14 a4 db bd
       -1.16953 -0.16102031 -0.28248388 -0.10724655
000010 91 1a 43 be 56 2f 9f be e8 f1 22 be df bf fb bd
       -0.19053103 -0.31090802 -0.15912592 -0.12292456
000020 13 fc 24 be 46 05 49 3e 82 c0 9c be 80 45 5f 3f
       -0.16111784 0.19630918 -0.30615622 0.87215424
000030 14 80 e8 bd 33 32 d5 bd 1c d8 e1 3d 5d 57 b2 be
       -0.11352554 -0.10409965 0.11027548 -0.34832278
000040 f5 18 b1 3e ff 8b be be cd f1 ed bd 25 52 09 be
       0.34589353 -0.37216184 -0.116183855 -0.13410242
000050 cf d2 a6 bf cf 5f 26 be 5a 06 15 bf d1 3f c8 be
       -1.3033084 -0.16247486 -0.58212817 -0.39111188
000060 7e f1 0a be d3 ff 27 be 4b dc 74 3f b2 e4 09 bf
       -0.13568684 -0.16406183 0.9564864 -0.53864586
000070 12 2b 90 be d6 6d b7 be
       -0.2815786 -0.35825986

y_transform.nn.layers.2.weight f4 [15, 30]
000000 da a3 1e 3f bd f6 20 be 47 4c 53 be 49 10 bb be
       0.6196877 -0.15719123 -0.20634566 -0.36535862
000010 87 cb e4 3d 1e 4f 2e 3e e2 e6 f9 3d 76 be 0d be
       0.11171632 0.17022368 0.122022405 -0.13842186
000020 18 dd 2a be 06 5d 26 3f a6 4f 14 be 02 21 9c bd
       -0.16685903 0.6498569 -0.14483508 -0.07623483
000030 29 be 99 bd c9 aa 3e 3e 25 d1 39 3f 53 c9 35 be
       -0.07506973 0.18619837 0.72584754 -0.1775258
000040 da 75 5c c0 b3 7a 12 3e d3 99 1e be db 06 30 3e
       -3.444693 0.14304619 -0.15488367 0.17190115
000050 56 52 9d be 93 12 15 3e fc 7b 43 be 85 77 47 3e
       -0.3072688 0.14557867 -0.19090265 0.19479187
000060 d0 14 01 be 1f e4 68 3d 36 2b 2d 3f 3a 52 58 be
       -0.12605596 0.05685818 0.6764406 -0.21125117
000070 38 93 58 be 79 04 a6 be 33 49 36 3f 94 61 a0 3a
       -0.2114991 -0.32425287 0.71205443 0.0012236112
000080 30 a3 a4 bd 3a 5e df 3d 58 67 fd bd ab da 81 be
       -0.08038938 0.10906644 -0.12373227 -0.25362143
000090 3b a3 2b 3e bd e5 88 3e 53 e2 8f ba bd 22 7b 3e
       0.16761486 0.26737776 -0.0010977484 0.2452497
0000a0 95 ce 83 be 65 04 a2 3e fc 01 f5 bc 6a 5d 92 bd
       -0.25743547 0.31643978 -0.029908173 -0.071467236
0000b0 69 fd c3 3e 20 29 b4 be 79 e2 50 3f 0f f2 e4 3d
       0.38279274 -0.35187626 0.8159557 0.111789815
0000c0 66 1a a6 bc c7 77 81 3e 56 4a cd 3e 34 fc 37 3e
       -0.02027626 0.25286695 0.40095776 0.17967302
0000d0 e8 5e 1c 3e 01 6f 2c 3e 80 ed 85 3d 00 7c e1 be
       0.15270579 0.1683922 0.0653944 -0.44039917
0000e0 52 c7 67 3f 9f 88 08 3f 6f fc 10 be 7f 30 92 bd
       0.90538514 0.5333347 -0.14158796 -0.07138156
0000f0 fd 56 7b bf 64 b6 49 be 19 4a bf 3d 0d 2e bc 3c
       -0.9817961 -0.19698483 0.09340305 0.022971177
000100 b0 8a b5 bd 12 06 b7 bd d1 85 05 3c 26 68 89 be
       -0.08864343 -0.08936705 0.00814958 -0.2683727
000110 00 81 c4 3d aa d8 0d bf df 65 1e 3d e5 3e 86 3e
       0.09594917 -0.5540873 0.03867137 0.2621986
000120 82 c4 cb 3d 5f 90 11 3e 8e eb dc bd 05 8d 03 3d
       0.0994959 0.1421523 -0.10787116 0.03211691
000130 ce ef e6 be 4e 67 32 bc 04 2d 21 be db bf 3f be
       -0.4510483 -0.010888888 -0.15739828 -0.18725531
000140 d1 31 19 bf 88 ec 57 be 7e 48 ac bd b0 35 dd bd
       -0.5984164 -0.21086323 -0.08412264 -0.10801256
000150 a4 7b 17 be 23 bc 8a be 1a 77 21 bf 17 d8 6d 3d
       -0.14793259 -0.27096662 -0.6307236 0.058067407
000160 69 14 48 3e 49 36 83 3e 7f 3b a9 bf 59 48 1e 3e
       0.19539036 0.25627354 -1.3221282 0.15457286
000170 bb e8 96 3d 4a 63 ea 3c 46 b4 17 3e 60 d2 de 3c
       0.073686086 0.028611798 0.14814863 0.027199924
000180 e1 06 94 bd 36 86 cb bd b3 9c b8 be b6 60 79 3d
       -0.072278745 -0.09937708 -0.36057052 0.060883246
000190 35 16 89 3d fc ac 43 bf 1b 7d 26 be 90 61 3e be
       0.06693689 -0.7643583 -0.16258661 -0.18591905
0001a0 ba c3 8a bf af e2 bd bd 39 4f c7 3e 5c 19 b1 bd
       -1.0840981 -0.09271752 0.3892763 -0.08647415
0001b0 c8 f0 ad 3d d0 f6 93 be 4f 6f df bf 26 c2 d3 bd
       0.08493191 -0.2889924 -1.7455844 -0.10339765
0001c0 95 19 04 3e 12 a1 93 be bc 3d 07 3e 11 41 17 be
       0.12900384 -0.28833824 0.13207144 -0.14770915
0001d0 81 bf c1 bf 0f a3 77 bd b4 73 96 bc 78 14 c1 3d
       -1.5136567 -0.06045824 -0.018365718 0.09427732
0001e0 24 c0 1b 3c 4d ef 99 3e a9 07 01 3e 24 a3 7c be
       0.009506259 0.30065385 0.12600578 -0.24671608
0001f0 80 26 37 3d 9e 72 21 be fa e1 d8 3c dd 5e 3e bd
       0.04471445 -0.15766379 0.026474942 -0.046477187
000200 99 3a 99 be 1e c7 e1 be 68 1c 70 3e 83 f7 b7 bf
       -0.2992752 -0.44097227 0.23448336 -1.437241
000210 a6 61 d8 3d ee a1 8c 3d 25 e8 1c bf 05 11 a7 bb
       0.105655 0.06866823 -0.61291724 -0.0050984644
000220 26 bf 43 3e 79 97 2d be 46 5a 61 bd 50 26 f6 bd
       0.19115886 -0.16952313 -0.055017732 -0.12019026
000230 08 33 6d bf db f9 1b bd c7 60 c6 be d3 1f 29 bd
       -0.9265599 -0.038080078 -0.3874571 -0.041290116
000240 f0 9d 7f bc 11 e7 09 3d be a5 c7 be 28 50 00 3e
       -0.01560162 0.033667628 -0.3899364 0.12530577
000250 1e f3 ac 3e c5 1f 59 3e 01 dc 94 3e c7 46 be 3b
       0.33779234 0.21203525 0.290741 0.005806777
000260 8a 45 c2 3d cf 59 24 3e 1e 1b d0 3b 30 98 bf bd
       0.0948592 0.16049884 0.006350889 -0.09355199
000270 d2 ee 97 3d 2e 1a 58 be b1 10 c2 3d 31 30 78 3e
       0.07418598 -0.21103737 0.0947584 0.24237134
000280 ee b7 6d 3e ec 20 93 3e 7a 82 b0 3d d7 1d 90 3c
       0.23214695 0.28736055 0.086186364 0.017592354
000290 62 67 08 3e 07 af 69 3e a6 9c 33 3f cd 50 dc 3d
       0.13320687 0.22820674 0.701609 0.10757599
0002a0 0d ef bb bc 1c f7 32 bd 48 7c 2e 3e 12 bd 26 bc
       -0.022941137 -0.043692693 0.17039597 -0.010176914
0002b0 57 dd 53 3e d6 f7 0d be 9f b0 ea bd 0d aa 6d bd
       0.20689903 -0.13864073 -0.11459469 -0.0580235
0002c0 41 8e b4 3e 7c 3f 94 3d a8 4a 9a 3d 84 ad b0 3e
       0.3526478 0.07238671 0.07533771 0.34507382
0002d0 aa 07 a3 be b8 16 83 3e bd 6b 75 bd d7 59 4b 3d
       -0.31841785 0.2560327 -0.0599172 0.049646225
0002e0 9e 89 82 bc a4 5b ae bd 54 3b 9b bd 84 4b 7c 3d
       -0.015934762 -0.08513573 -0.07579675 0.061595455
0002f0 74 00 38 be ef f6 de be 00 52 c1 3c 31 d3 32 3f
       -0.17968923 -0.4354777 0.023598671 0.698535
000300 84 45 6e 3d 49 1a 9c 3d b6 7f b6 be 17 c6 71 be
       0.058171764 0.07622201 -0.3564431 -0.23610722
000310 09 f3 b4 be 79 f5 fd 3c e6 76 9e 3d e3 2d 8c 3e
       -0.3534167 0.03100084 0.07737522 0.2737876
000320 6c 5d 0e bf e0 09 3c 3e d4 11 dc 3d e4 9f ba bd
       -0.556113 0.18363142 0.10745588 -0.09112528
000330 9d dd 1f be e6 63 15 3e de 14 87 3e 36 c3 24 3d
       -0.15611883 0.1458889 0.26383108 0.04022523
000340 33 bf af 3d 73 82 85 bd a8 a1 ed 3e e0 00 5f bd
       0.0858139 -0.06519022 0.46412396 -0.054444194
000350 e1 04 95 be 68 ef df bd ed 17 40 3e e4 b9 51 bd
       -0.29105285 -0.10934335 0.18759127 -0.05120267
000360 ca 78 b2 bd 58 a6 70 bd 91 d2 cd 3d fe 16 f3 3e
       -0.08714445 -0.058752388 0.10049928 0.4747848
000370 2e 49 d3 bc eb 77 49 3e ff bb 35 3e db e7 b7 bd
       -0.02579173 0.19674651 0.17747496 -0.0897977
000380 ed d5 78 3f 2f 02 29 bc da 84 e7 be 71 4f e2 bd
       0.97201425 -0.010315462 -0.45218545 -0.110503085
000390 f9 41 a5 3d b7 2d 71 3e c5 55 8e 3f 2d 6d 92 3e
       0.08069224 0.23552595 1.1119925 0.2859892
0003a0 9a 87 f8 bd 18 aa 67 3e 8c 04 33 3e 62 be ca bd
       -0.12135239 0.2262348 0.17482203 -0.09899594
0003b0 76 4b a5 3e 9b ac 99 3d 2c 06 22 bc 5f 04 5f be
       0.32284135 0.07503625 -0.009889167 -0.21779011
0003c0 61 ab 83 bf 00 5d 90 3b bb 03 25 be 20 e6 94 3c
       -1.0286676 0.0044056177 -0.16114704 0.018176138
0003d0 f4 59 65 3d 7c d7 be bb 56 a7 f5 bd 99 98 b7 3e
       0.05599399 -0.0058240276 -0.119948074 0.3585861
0003e0 16 ee 27 bf a3 48 f3 ba 35 f6 88 bd 1c 7a 27 bf
       -0.65597665 -0.0018561076 -0.06687585 -0.654207
0003f0 3a 41 bb 3d 48 d0 48 bd 23 48 b1 be 4c 1e 2b be
       0.091433 -0.049026757 -0.34625348 -0.16710776

y_transform.nn.layers.2.bias f4 [15]
000000 ad ff a7 bf 04 85 c9 3f 8a be 41 bf 87 1c 63 bf
       -1.3124901 1.5743718 -0.75681365 -0.88715404
000010 c3 ef 9c be 32 79 ce 3f 42 fb 72 bf 2f 49 88 bf
       -0.30651674 1.6130736 -0.9491464 -1.0647334
000020 94 04 3a 3f f9 89 d4 3e 11 ea 0a 3f 73 6e 7e c1
       0.72663236 0.41511515 0.54263407 -15.901965
000030 82 6a 93 bf 6a 57 9b 3c 0c ed 66 40
       -1.1516879 0.01896258 3.6082182
