experiments/exp_real/saved_models/run_0/full_data/y_regression.pt (torch, 3905 bytes, 7 tensors)

network.0.weight f4 [10, 4]
000000 3e 75 99 3e a8 e2 e7 be c0 c3 5b 3e 91 0a ab be
       0.2997226 -0.45290112 0.21461391 -0.334065
000010 df 4f ac 3e 80 dc c4 be 96 f3 ec 3e cc c3 c4 be
       0.33654687 -0.38449478 0.4627959 -0.3843063
000020 e3 32 67 be d8 a3 3e 3d 4f be 00 3f d9 e0 0a bf
       -0.22578005 0.046542972 0.5029039 -0.5424934
000030 ac 7f bd be e8 f6 c9 3e 59 86 b7 bd 3d 11 15 3e
       -0.37011468 0.39446187 -0.08961172 0.14557357
000040 a4 23 9e be 51 76 56 bd 3f 86 d3 bd 54 36 0e 3f
       -0.30886567 -0.05235893 -0.1032834 0.5555165
000050 75 68 aa 3e 20 0d 9b be f2 e8 67 3e 7f b8 f6 3d
       0.3328282 -0.3028345 0.22647455 0.120469086
000060 ed 52 bb be 3c 25 70 be 73 d3 90 bb 2a 74 b4 3e
       -0.36586705 -0.23451704 -0.004419738 0.35244876
000070 2d 7f 0c bf 80 b9 82 be b5 c6 51 bd ba b4 10 bd
       -0.54881555 -0.2553215 -0.051214892 -0.035328604
000080 fd 3b a0 3e ef b0 cc 3d b5 bc 40 bc 16 9c 29 be
       0.31295767 0.09994685 -0.011763741 -0.16563448
000090 87 b6 a7 bc 6f 4f 24 be b6 60 d5 3e 2a 89 e9 be
       -0.020472778 -0.16045927 0.41675347 -0.4561246

network.0.bias f4 [10]
000000 01 b1 64 be 11 cb 85 be f9 66 78 bd b6 18 b0 3e
       -0.22333147 -0.2613149 -0.060645077 0.34393853
000010 0e c5 19 3f 35 11 95 be e2 0f ed 3c d4 70 9c 3e
       0.60066307 -0.2911469 0.028938238 0.3055483
000020 bb 88 b1 3e 1b 22 d9 3e
       0.3467463 0.42408833

network.3.weight f4 [10, 10]
000000 26 00 48 bc 1b 0d 5b be 0a 37 56 3e cb e7 10 be
       -0.012207067 -0.21391718 0.20919433 -0.14150922
000010 53 6c 03 3e 4e dc 9e bd 12 d5 cd 3d 5f dc 80 3e
       0.12834291 -0.077568635 0.100504056 0.2516813
000020 41 94 92 3e fb 4d 8a be e0 32 56 be 3f e3 05 be
       0.28628734 -0.2701262 -0.20917845 -0.13074969
000030 22 26 80 be 62 cb b2 3e a9 bc c7 3c 68 a8 58 be
       -0.25029093 0.34920794 0.024381952 -0.21157992
000040 10 95 1b be 1e 36 61 be 69 78 54 3e 50 b6 95 be
       -0.15193582 -0.219933 0.20749058 -0.29240656
000050 2e 05 9e be 2c 95 d1 be 3f 0e 1d 3e f7 fc 25 3e
       -0.30863327 -0.40934122 0.15337466 0.1620978
000060 14 e3 2e be 98 94 64 3d 1d f3 8f 3e 00 d3 0b 3e
       -0.17078811 0.055805773 0.28115168 0.13654709
000070 b9 2c 22 be 8b 5b 53 3b 11 cd 70 bc 87 be 22 3d
       -0.15837373 0.0032250609 -0.014697329 0.039732482
000080 95 14 62 bd 52 8d 6f 3e 54 d2 77 3e d3 4e 1c be
       -0.05519541 0.23393753 0.24201328 -0.15264444
000090 92 44 a9 3e 20 c1 e5 3e 8b 62 1b be e1 aa 00 3d
       0.33060127 0.44873905 -0.1517431 0.031412963
0000a0 22 cc 0a 3e da 48 8d be 3a 51 ae 3d f3 a9 8c 3c
       0.13554433 -0.27594644 0.085115865 0.017170882
0000b0 89 c3 0d 3e c3 df a8 be 16 d7 94 be 31 b4 c7 3d
       0.13844122 -0.32983217 -0.29070348 0.09751166
0000c0 9f 41 be 3c df 16 ba be 6b 94 34 be 95 24 94 be
       0.02322465 -0.36345574 -0.17634742 -0.2893416
0000d0 76 fd 67 be 4e 6a 3a be 35 96 5d 3e 88 e9 80 bd
       -0.22655281 -0.18204615 0.2163933 -0.062945426
0000e0 26 be 10 3e 5a 46 85 3e 23 fc c8 3d e9 37 aa be
       0.14135036 0.26030236 0.09813716 -0.3324578
0000f0 92 8d 84 3e 46 1c 91 3e eb eb 2f 3e af 9d 88 be
       0.2588926 0.28341883 0.1717984 -0.26682803
000100 dd 98 8f 3e 20 38 d0 3e db 76 9a be 85 e0 04 be
       0.28046313 0.4066782 -0.30168805 -0.12976272
000110 41 a7 ed 3e 3d 3c dd bd f4 f2 8f 3d 61 cf 6d 3d
       0.46416667 -0.10802505 0.070287615 0.0580591
000120 d2 7a 2d 3e 85 eb a8 3e 89 e0 82 3e 24 3a 67 3e
       0.16941383 0.32992187 0.25561932 0.22580773
000130 16 fd 41 bc 31 b2 bb 3e b3 83 c9 be c1 d8 e9 bd
       -0.011840126 0.36659387 -0.3935829 -0.11418296
000140 34 fe 4b 3d 7c f3 8a 3d ba 5b b1 3e 84 96 4e 3e
       0.049802974 0.06784722 0.34640294 0.20174605
000150 97 66 a0 3e b0 1b bf 3e 4b 68 77 be 66 47 05 be
       0.3132827 0.3732581 -0.24160878 -0.13015518
000160 74 c1 7e 3e a9 14 53 3e 2d 95 10 3e ad d2 4a be
       0.24878484 0.2061335 0.14119406 -0.19806929
000170 a0 d6 c4 bd b1 52 7a 3e a7 38 e6 bd 37 73 87 be
       -0.09611249 0.24445607 -0.11241274 -0.2645509
000180 6b f3 66 3e ad 64 8c 3e 4a 01 5a be 01 97 ce bd
       0.22553794 0.2742056 -0.21289554 -0.100873955

network.3.bias f4 [10]
000000 70 27 88 be 9a 1f 53 be 3a ef bb 3d e5 ff b7 bd
       -0.26592588 -0.20617524 0.09176488 -0.08984355
000010 78 5e 37 3e d8 e8 96 be 68 eb e6 3d 2c 08 8b bc
       0.1790713 -0.2947452 0.11275369 -0.01697167
000020 8e 61 a2 3e 0f c0 4c 3e
       0.31715053 0.1999514

network.6.weight f4 [10, 10]
000000 fa 0e 6f 3e 06 2b 48 3e fd 19 2c be 9d 31 8f be
       0.23345557 0.19547662 -0.16806789 -0.2796754
000010 6e 81 36 be b9 24 3d bc e7 de fb 3e 70 18 e6 bd
       -0.17822811 -0.0115444 0.49193498 -0.1123513
000020 ba bf 12 3e 79 05 3d be 8f ee f3 3d dc ee 8d 3e
       0.1433095 -0.18459119 0.11910736 0.27721298
000030 ad 56 b0 be 6e fb 84 be 23 40 b0 3e 3d 3d 06 3e
       -0.34441128 -0.25973076 0.34423932 0.13109298
000040 84 03 41 3e 6d 1d ae 3c ac 3a f1 3d 5a 35 3b be
       0.18848997 0.021254266 0.11778769 -0.18282071
000050 8d e1 8c be ae 7d 8f 3e 16 ef 72 bd a4 a2 32 be
       -0.27515832 0.28025573 -0.05931004 -0.17444855
000060 53 94 9b bc 2d 43 0b be b6 e4 b8 3d 93 6e a3 be
       -0.018991625 -0.13599844 0.09027998 -0.319203
000070 39 82 b1 3e 45 57 10 3e d9 68 2b be 73 67 fa bd
       0.34669665 0.1409579 -0.16739215 -0.122267626
000080 9f da 04 3e e3 12 07 be 27 0b 8f 3d 00 a4 99 3d
       0.12974022 -0.13190798 0.06984549 0.07501984
000090 3c d7 4b be f1 de 85 3d 9f 38 ad 3b 3d 98 86 3e
       -0.19906324 0.06536663 0.005286291 0.26288024
0000a0 00 86 07 be 84 fa 18 be e7 35 8e 3e 9d d9 57 be
       -0.1323471 -0.14939314 0.277755 -0.21079107
0000b0 2c e8 d5 bc 1d 3a 8c 3e 31 3a 9b be cc 30 ab 3e
       -0.026111685 0.27388087 -0.30317834 0.33435667
0000c0 b0 e9 49 3e a7 09 8e 3e 89 69 1d bc 6e b7 a0 3e
       0.19718051 0.2774174 -0.009607681 0.31389946
0000d0 0a 97 e3 bd 9c 3f 99 bd 3e 66 17 3e 63 21 da 3d
       -0.11112793 -0.07482836 0.14785096 0.10650899
0000e0 01 7a 35 3e b2 f2 a9 3e 39 6a 28 be 3e 41 4a 3e
       0.17722322 0.33192974 -0.1644677 0.1975145
0000f0 f0 ac d8 3d ec d5 2a 3e 90 8b 19 3e b6 42 f2 bd
       0.1057986 0.16683167 0.14994645 -0.1182913
000100 50 ee 7f be d5 96 81 3e f1 a6 38 be 72 06 4f 3e
       -0.24993253 0.25310388 -0.18032433 0.20217302
000110 bf 3d 9a be a8 15 60 bd 88 d5 32 3b b0 1c 60 3d
       -0.30125234 -0.054708153 0.002728792 0.05471486
000120 00 66 d1 3c dc 12 cc 3d 70 54 5f bd c8 9b 9e 3d
       0.025561333 0.09964535 -0.054523885 0.07744557
000130 4c 8a 6b 3e 4e 8a 5e be 49 b2 c5 bd 16 34 04 be
       0.23001975 -0.21732447 -0.09653146 -0.12910494
000140 57 f3 85 3e 14 01 51 3e 09 2c 08 bc 28 88 8a bd
       0.26162216 0.20410568 -0.00831128 -0.06764251
000150 0f 42 7b be e9 bc 49 3e 38 d8 44 be d2 02 a5 3e
       -0.24536918 0.1970097 -0.19223106 0.32228714
000160 f6 11 b9 3d fa 01 84 3e 41 7d 77 3e 50 78 77 be
       0.09036629 0.25782758 0.24168874 -0.2416699
000170 08 b0 80 3d cf 9e 2e be 5a 03 e0 3d d9 25 34 bd
       0.06283575 -0.17052768 0.10938139 -0.043981407
000180 38 f6 88 bd 91 9d 80 be 04 59 b4 be ff c8 9f 3d
       -0.066875875 -0.25120214 -0.35224164 0.07802009

network.6.bias f4 [10]
000000 17 32 60 3e 44 e0 3d 3e 3c b8 9f 3e 6d a6 14 be
       0.21894108 0.18542582 0.31195247 -0.14516611
000010 a4 3d 20 3d 2b 1e 16 be 98 30 86 3d fe bc 0d be
       0.039121285 -0.14659946 0.06552237 -0.13841626
000020 54 77 15 3e f6 59 5e 3e
       0.14596301 0.21714005

network.9.weight f4 [1, 10]
000000 49 2a f6 3e 14 d9 4b 3e b6 d8 9a 3e b6 27 9d be
       0.48079136 0.19907027 0.30243462 -0.3069436
000010 a7 de 1e be 1a 30 e9 3d 00 28 e7 3a 70 0e 14 be
       -0.15514623 0.11386128 0.0017635822 -0.14458632
000020 82 63 c0 bd 32 a5 d7 bd
       -0.093939796 -0.105295554
