experiments/exp_sim_binary_m2/saved_models/run_0/bootstrapped/m1_0.pt (torch, 6385 bytes, 7 tensors)

network.0.weight f4 [20, 2]
000000 65 14 82 bf 32 f1 8c be b3 63 3a bf 5e de 79 3e
       -1.0162474 -0.27527767 -0.7280838 0.24401233
000010 b3 30 19 3f cb e3 d9 be 83 6f 94 be 5b 53 67 bf
       0.59839934 -0.42556605 -0.28991327 -0.90361565
000020 48 5a ee 3d 60 a6 44 bd c9 be 8d 3e 3d 1e 3d 3f
       0.116383135 -0.04801023 0.2768462 0.73874265
000030 b6 5f 2a 3f 6d 43 65 be 49 4e 37 bf c1 8d 30 be
       0.66552293 -0.22389002 -0.7160383 -0.17241575
000040 98 06 34 3f b3 5a 07 3f 00 6b ee bc ca ab ba be
       0.7032256 0.5287277 -0.029103756 -0.3645919
000050 8d c0 27 3f 14 e6 c6 bc d3 13 07 3f 56 22 10 bf
       0.65528184 -0.024279632 0.52764624 -0.5630239
000060 a7 b8 1d 3f 1c c5 39 3e 0a 76 b3 3e 15 0a e8 be
       0.6160988 0.18141598 0.35050994 -0.45320192
000070 c5 23 2f bf b3 b2 fe 3e 86 04 ce bb 8a 79 4d 3e
       -0.68413955 0.49745712 -0.0062871603 0.20065895
000080 b4 52 07 bf e7 af b5 3e 63 dd 07 3f a0 f3 8c bf
       -0.5286057 0.35485765 0.53072184 -1.1011848
000090 17 51 16 3f a1 9a ff 3e 34 6d 8f bd b8 2a d0 3d
       0.58717483 0.4992266 -0.07003251 0.10164398

network.0.bias f4 [20]
000000 ff a8 de be bc b0 42 3e a4 4e 1e 3e 1b 9d 2a 3f
       -0.4348831 0.19012731 0.15459687 0.66645974
000010 02 f7 f9 be e9 7c 8e bd 2e ca 2d 3e 6c 7f 24 3f
       -0.48821265 -0.069574185 0.16971657 0.6425693
000020 47 01 17 3e 6e ac 2b bf ef 01 c2 3d 2f a2 08 3f
       0.14746581 -0.6705998 0.09473025 0.5337247
000030 2f c5 1b 3f 59 ca b7 3e 2b 16 41 bf 83 ad 56 be
       0.60847753 0.35896567 -0.7542445 -0.20964627
000040 df 98 ff 3e a5 fc 0c 3f 09 4b 12 3f 48 7a 33 be
       0.4992132 0.55073005 0.57145745 -0.17527115

network.3.weight f4 [20, 20]
000000 55 0b 40 bf 08 94 6b 3e dd 45 55 bf 79 47 e6 3e
       -0.7501729 0.23005688 -0.8330973 0.44976404
000010 92 66 3e 3e 27 61 9a be 1d b9 0f bf c4 5a 87 3e
       0.18593815 -0.30152246 -0.56141835 0.26436436
000020 d6 d2 c9 be 62 b4 2d 3e ee b1 19 bf 5f c4 d3 3e
       -0.39418668 0.16963342 -0.60037124 0.41360757
000030 8a f9 43 3c d9 a7 fc 3e 41 44 98 3e 70 68 9d bd
       0.01196135 0.49346808 0.29739574 -0.076859355
000040 f1 94 62 3e 16 58 24 3f 63 57 a1 bd d3 ca cc 3d
       0.22127129 0.6419691 -0.07877996 0.09999623
000050 c4 b1 ad bd 13 b2 52 bf 4f e0 0a 3f f5 57 ee bb
       -0.08481172 -0.8230297 0.5424852 -0.007273669
000060 70 c5 94 bd d9 58 34 bd 3d 44 cf 3e 9a 82 d6 be
       -0.07264221 -0.044030044 0.4048175 -0.41896516
000070 13 1f 7e bb 94 ff f8 3d 4f 7b 17 3e 16 45 85 3e
       -0.0038775846 0.12158123 0.14793132 0.2602927
000080 ff 2e 9f 3e 61 d1 16 3f 98 2f 08 3e db 7a d1 bb
       0.31090543 0.58913237 0.13299406 -0.0063928193
000090 c5 77 3f be 70 43 e7 3e ef 8b 2b 3d 43 15 6e bd
       -0.18698032 0.45168638 0.041881498 -0.058125746
0000a0 68 50 9b bc 1b 6b 0c be 00 7c c4 39 a8 c0 17 be
       -0.01895924 -0.13712732 0.0003747642 -0.14819586
0000b0 2a 87 39 be 61 5d db bd 32 da 17 be fc ad a5 3d
       -0.18117967 -0.1071117 -0.14829329 0.080898255
0000c0 b2 53 52 3e 30 16 27 3e 30 4e 1c bd 20 52 e3 3c
       0.2053974 0.16317058 -0.038160503 0.027749121
0000d0 6c 43 55 be 58 b4 cd 3c 40 be 5e 3e 44 1a 01 3e
       -0.208265 0.025110409 0.21752262 0.12607676
0000e0 90 77 ca bc fe cd 8f bd 1d d9 58 be aa 07 b1 bd
       -0.024715215 -0.07021712 -0.21176572 -0.0864404
0000f0 fe 58 c6 bd a5 f1 13 be dc 04 12 be 75 6d 4c be
       -0.09684943 -0.14447649 -0.14259666 -0.1996363
000100 ee 41 49 3e ee a6 06 be ac 11 2b 3e 08 85 78 bd
       0.19654056 -0.13149616 0.1670596 -0.060673743
000110 30 a3 4d 3d 78 48 64 be 38 06 f4 3d 44 c4 ca 3d
       0.050204456 -0.2229327 0.11915249 0.09900716
000120 1e a9 af bd 18 fb 21 bd ca a2 25 3e 11 56 e0 bd
       -0.085771784 -0.039546102 0.1617538 -0.10953916
000130 74 01 43 be 36 92 e5 bd aa 3b 5c be 20 bd 3b bd
       -0.19043523 -0.11209528 -0.21507135 -0.04583466
000140 fd 96 72 be b9 a2 35 3e 00 b6 9e bd 62 56 cf bd
       -0.2369041 0.17737855 -0.077495575 -0.10123898
000150 f8 48 af 3d 99 f6 9d 3d fc 92 cc 3d 48 04 f0 bd
       0.085588396 0.077130504 0.099889725 -0.117195666
000160 3d cf 54 be 03 23 0b be 30 5e cb 3d c4 a7 bf 3d
       -0.2078218 -0.13587575 0.09930074 0.09358171
000170 f0 e9 0e 3e 60 f1 2e 3d 2f 5b 0b be c0 53 82 bb
       0.13956428 0.042710662 -0.13609003 -0.003977269
000180 7c 50 a2 bd b7 31 5f be de f7 3d be 60 bd 02 bd
       -0.079255074 -0.21796308 -0.18551585 -0.031918883
000190 a5 b9 30 3f f7 3e a3 3e 6b f3 47 be cb 10 94 3e
       0.6903327 0.31883976 -0.1952645 0.28919062
0001a0 68 88 9c bc f3 3e 54 bf 4d 2c 87 be 51 06 3c 3d
       -0.019108012 -0.8290855 -0.26400986 0.04590446
0001b0 c3 b4 59 be 8e 9f 16 3e 74 0c 86 3d ea 59 e3 be
       -0.21260361 0.14709303 0.06545344 -0.44404536
0001c0 ba 8f 6c bf fd 56 1c bf e1 65 5f bf 0f 2f 79 bf
       -0.9240681 -0.61070234 -0.8726483 -0.9733743
0001d0 9a 9d 46 3e f1 81 a8 be 45 7f 34 bf 14 04 80 be
       0.19396058 -0.32911637 -0.705067 -0.2500311
0001e0 25 9f ea be ff f4 f4 be 9a bd e0 be 51 fa 4a 3f
       -0.45824543 -0.47843167 -0.43894655 0.792882
0001f0 e8 6c fa bd 37 9c 09 bf fe 91 80 be b5 4d f3 3e
       -0.122278035 -0.5375399 -0.25111383 0.47520223
000200 83 d7 a3 be 1c be b4 3d 09 51 ce be 7f db b2 3e
       -0.3200036 0.08825323 -0.402962 0.34933087
000210 7e 3a ac bd 8e fe c8 3d 73 73 1f bf 43 32 38 bf
       -0.08409594 0.098141775 -0.62285537 -0.71951693
000220 1d e1 8a 3e d8 0b ed 3e 62 24 43 be 1f 37 20 be
       0.27124873 0.462981 -0.19056848 -0.15646027
000230 16 a1 57 3e fd 5c b2 be 43 a3 81 3f 04 04 e4 bb
       0.21057543 -0.3483657 1.0127949 -0.0069584865
000240 98 d5 60 bd 62 41 23 bf 46 08 45 3e 71 68 ee be
       -0.0548912 -0.6377164 0.19241437 -0.46564057
000250 19 76 fa 3c 60 7d fa 3c de 92 de 3e 01 62 9b 3e
       0.030573891 0.030577362 0.43471426 0.3034821
000260 a4 09 bc 3c ed b5 b2 3e 94 da 3d 3e c2 2d 51 bf
       0.022953816 0.34904423 0.18540412 -0.81710446
000270 ef 70 1b bf e2 a3 c1 3e 15 91 25 be 6c 53 93 be
       -0.607192 0.37820345 -0.16168626 -0.28774583
000280 80 17 6f bd 80 a9 ab 3d 24 cb 75 bd 92 d1 16 be
       -0.05837202 0.08381939 -0.060008183 -0.14728382
000290 6f cb 43 be f8 37 13 bd ba 53 e5 bd c8 f1 0e bd
       -0.19120573 -0.035942048 -0.1119761 -0.03489855
0002a0 68 81 bf 3d 80 e0 60 3d 28 06 0b bd 9c 06 c2 3d
       0.09350854 0.0549016 -0.033941418 0.09473917
0002b0 34 e5 8b bd d3 78 1c be 8c 17 47 3e 7f 4d 39 be
       -0.068308264 -0.15280466 0.19442576 -0.18095969
0002c0 08 3d 30 be 6c 87 f4 bd e0 0b 4f be 70 17 4a bc
       -0.17210782 -0.11939892 -0.20219374 -0.0123346895
0002d0 50 4a 7f bd ee b5 a8 be 20 8d c6 bd a9 76 98 bc
       -0.06232673 -0.329513 -0.09694886 -0.01861127
0002e0 80 1e 56 3e a4 11 26 3e 6d 66 86 bd 54 73 bc be
       0.20910072 0.16217667 -0.06562505 -0.36806738
0002f0 0a ae 8c 3e 3e 2f 1a 3e 35 65 8f 3e 1d 23 3f 3e
       0.2747653 0.15057084 0.28006902 0.18665738
000300 89 a5 4b 3e b5 09 d0 bd fa 47 e3 bd f6 80 d6 bc
       0.19887365 -0.101581015 -0.11097713 -0.02618454
000310 53 09 fc bc 3d 38 41 be 75 1e 67 3e 2e a9 17 be
       -0.030766165 -0.1886911 0.22570212 -0.1481063
000320 d0 03 0b bf 8c 0c 38 3e c2 bf ae bf c5 df 8d 3e
       -0.5430269 0.17973536 -1.365227 0.27709785
000330 90 e3 ea 3c 9c 81 9c 3d c1 56 df be 6b f0 d5 3e
       0.028672963 0.076419085 -0.43620875 0.41784987
000340 59 03 4c be 04 29 61 3e 5b 77 9f be 89 00 a5 3d
       -0.19923152 0.21988302 -0.31145748 0.08056743
000350 73 f4 7d 3e f6 6e 8a 3c 8b ff e2 3d e3 40 4f bd
       0.24800281 0.016898613 0.11083897 -0.05059899
000360 36 b0 a5 3e 9d 53 e9 bc 3d 6f 48 3c f9 96 37 3e
       0.32361 -0.028482253 0.0122335525 0.17928685
000370 60 04 ed bd 6f 0f 36 be eb 63 37 3f 89 8f 85 be
       -0.115731 -0.17779325 0.7163684 -0.2608607
000380 d0 b5 a8 3d cf 1d ed 3d 37 35 fe 3e a8 29 ea bd
       0.08237803 0.11577951 0.49649975 -0.114337265
000390 1a 37 7d 3e fa b3 82 bd 7c ed 9a 3e d9 5b 81 3e
       0.24728051 -0.06381984 0.3025931 0.25265387
0003a0 f2 6b ca 3e d5 cd 9f 3d 88 de 5e 3e 3a 20 54 bc
       0.3953548 0.07802931 0.21764576 -0.012947137
0003b0 98 8b 07 3d c0 2b 76 3e 0b e3 8a 3e 83 96 59 bc
       0.03309211 0.24040127 0.27126345 -0.013280514
0003c0 f7 c6 10 be c3 94 24 bd dd 24 8d 3d c6 11 05 bf
       -0.14138399 -0.040180933 0.06891797 -0.51980245
0003d0 c4 70 d6 3d c1 d5 72 3e 74 1e 8e 3d 32 29 a8 be
       0.10470727 0.23714353 0.06939402 -0.3284393
0003e0 3e af 97 3e fc 70 07 3e 70 cc 5f 3e 15 4b 5e 3e
       0.29625887 0.13226694 0.2185533 0.21708329
0003f0 71 a2 ca bd 97 8d 82 bd af 11 5d bd fc 0b 71 3e
       -0.098942645 -0.06374662 -0.053971943 0.23539728

network.3.bias f4 [20]
000000 1a f1 4e 3e 03 4d 82 3e ec 5e 3b bd 06 fc 0c 3e
       0.2020916 0.2544938 -0.04574482 0.13768014
000010 db 70 3e bd 7e c8 e8 3d 9d ec 0d 3e dc 4f d6 bd
       -0.046494346 0.11366366 0.13859792 -0.10464451
000020 23 74 5a be 2a 1a 57 3e 32 52 3b 3c 29 88 2f 3c
       -0.21333365 0.21006075 0.011433171 0.010713615
000030 1d c6 e5 bd bf 4a 44 3e 8d a6 3d 3e cf 1a 15 bd
       -0.11219428 0.19169138 0.18520565 -0.03640252
000040 4a 7d 18 be 97 3f f5 bd d5 a8 b2 3d e3 cf 83 be
       -0.14891544 -0.119750194 0.087236084 -0.25744542

network.6.weight f4 [20, 20]
000000 43 9b 52 bd 1a 3f 73 3e 2c b2 83 bd 7a 68 0a be
       -0.0514176 0.2375454 -0.06430468 -0.13516417
000010 b1 e6 cd bd c4 94 83 be 4f e8 e5 bd 33 11 ae 3e
       -0.100537665 -0.25699437 -0.1122595 0.33997497
000020 bc 52 41 3e 2c d5 2e bd 8e d3 d8 be c9 2d 45 3d
       0.18879217 -0.042683765 -0.42348903 0.048139367
000030 76 a2 f3 3d 54 6f 15 3d 3d 63 81 3e 58 0b 10 be
       0.11896221 0.036483124 0.25271025 -0.14066827
000040 16 d0 36 3e 6e 28 9f be 93 d3 fa 3d 50 fe 1c bc
       0.17852816 -0.31085533 0.12247386 -0.009582117
000050 ae 8b fe bd 1f a1 83 bd 56 f4 51 3e 38 bd 6c 3d
       -0.124289855 -0.06427216 0.20503363 0.05779764
000060 89 b2 3a be ba f1 5d be 15 85 98 bc 37 79 e9 3d
       -0.18232168 -0.21674243 -0.018618146 0.11400073
000070 18 2b 22 3e da 48 66 3d e7 17 0b be 92 35 56 be
       0.15836751 0.05622182 -0.13583337 -0.20918873
000080 9d 94 69 be fb ce a1 3d 95 bf 8b be 4d 5a 25 be
       -0.22810598 0.079008065 -0.27294603 -0.16147728
000090 e8 02 37 bd a7 5e f4 bd fa 47 5b bd c0 48 46 bd
       -0.044680506 -0.11932116 -0.05353544 -0.048409224
0000a0 ba 07 f9 ba 67 78 ec 3d ee f5 20 3e 84 6d c5 3d
       -0.0018999495 0.115464024 0.15718815 0.09640029
0000b0 3f d2 4e be 0b f4 64 be 08 53 1a 3d 6f 0c 2c be
       -0.2019739 -0.2235872 0.03767684 -0.16801618
0000c0 05 10 4c be f5 2e 5c 3b 9b 29 10 3e 13 7e aa bd
       -0.19927986 0.0033597325 0.14078371 -0.08324828
0000d0 8d d2 18 be b6 62 92 be 52 16 25 be fa 1b 97 bd
       -0.14924069 -0.28590935 -0.16121796 -0.07378383
0000e0 4c 6d 64 3e 6c d3 5a bd b6 0f 18 3e d9 2a 64 be
       0.22307318 -0.053424284 0.14849743 -0.2228197
0000f0 8a a1 4f bd 76 4e d0 3e b0 c0 ed 3d 50 59 0c 3e
       -0.050691165 0.4068486 0.11609018 0.13705945
000100 5f 92 05 be 0e 64 a4 3e 07 40 14 3e df bf b8 3d
       -0.13044117 0.32107586 0.1447755 0.090209715
000110 72 38 13 be e0 70 93 3e f5 5e 29 be 99 50 99 3e
       -0.14377001 0.28797054 -0.1654013 0.29944304
000120 b8 a7 44 3e bc e4 45 3e 50 22 aa 3d c1 b0 d9 bd
       0.19204605 0.19325536 0.08307326 -0.10629416
000130 c4 52 9a bd 9e 0c 45 bd b1 99 a0 3e 85 11 75 bb
       -0.075353175 -0.048107736 0.31367257 -0.0037394476
000140 c8 5b ce be c6 dd 11 3f a0 83 6d bc 80 17 b3 bb
       -0.403044 0.56979024 -0.014496714 -0.005465448
000150 04 d1 e2 3d de 08 e2 bd 29 a9 d4 bf 53 7f fc 3e
       0.11075023 -0.110368475 -1.6614124 0.4931589
000160 e8 2b 87 bd 1d 84 8e be fb 42 8c bc 4d f4 56 3e
       -0.06600171 -0.2783517 -0.017121783 0.20991631
000170 81 c8 63 bf fb 4f f0 bd ff 5c 0f bd f1 d3 4f be
       -0.8897782 -0.11734005 -0.035000797 -0.20295693
000180 d5 bd 31 be 98 96 16 be 7e 3d 11 3e 61 50 da bd
       -0.17357571 -0.14705884 0.14183614 -0.10659862
000190 79 af 26 be d8 48 fe bc 08 14 dc bc 20 fb 7d bc
       -0.16277875 -0.031040594 -0.02686502 -0.015501767
0001a0 a8 75 ec bd d0 52 5e bd 22 75 16 be 47 b8 50 be
       -0.11545879 -0.054278195 -0.1469312 -0.20382796
0001b0 04 bc ad 3d 74 2e be bd b6 ae 45 3e a4 83 35 bd
       0.08483127 -0.09286204 0.19304928 -0.044314995
0001c0 40 72 40 be df b4 2d be 57 82 33 be 64 20 63 bd
       -0.18793583 -0.16963528 -0.1753019 -0.055450812
0001d0 cc 6e 95 3d a6 5f 82 bd ec 96 a6 3d e8 0d 65 3d
       0.072965235 -0.063659 0.08134255 0.055921465
0001e0 8c f5 d1 be ba 37 e8 3c 28 78 cb bd 66 a9 35 be
       -0.4100765 0.028346885 -0.09935027 -0.17740402
0001f0 25 e7 3e be 28 98 9f 3c 7c c2 10 be d3 f9 85 bc
       -0.18642862 0.019481733 -0.1413669 -0.016354477
000200 42 24 c3 bd 80 58 0a bc e8 4b 03 bc aa 6f a4 bd
       -0.095284 -0.008443952 -0.008013703 -0.08029111
000210 00 74 d2 3d 4a 76 86 be 7a 6a 66 be c7 f4 47 3d
       0.102760315 -0.26262122 -0.22501555 0.048817422
000220 7c 39 07 be 3e 6e 4a be 88 2f 06 3e 9c d3 21 be
       -0.13205522 -0.19768617 0.13104069 -0.15803379
000230 27 4a f0 3e 47 07 34 bf 84 5d c6 3d eb cd 08 be
       0.46931574 -0.70323604 0.096858054 -0.13359801
000240 9b b9 cc bd d5 46 34 bf e2 a8 9a 3e 4e 66 4d bf
       -0.09996339 -0.7042058 0.30206972 -0.8023423
000250 a8 5b 4d 3e 40 b9 be 3c e7 0f eb bc 2b 67 a6 be
       0.20054495 0.023281693 -0.028694106 -0.32500586
000260 aa cc 29 3e 4e 28 b7 bd 6c b5 45 3e 05 94 4b 3e
       0.1658198 -0.089432344 0.19307488 0.19880684
000270 f0 a6 27 3d 0b 3c fd be 8e 0e 9f be 40 4c 24 3e
       0.04093069 -0.49459872 -0.31065792 0.16044712
000280 fc b6 15 bd a4 31 28 3e 88 b7 48 3d ae 62 5f 3e
       -0.03655146 0.16425186 0.049003154 0.21814987
000290 71 e7 47 be e5 19 3e be 8a aa b7 bd a4 7e bc bd
       -0.19521882 -0.18564565 -0.089680746 -0.09203842
0002a0 34 c5 ec 3d b8 7a 0e be c0 72 2c 3b 58 9c 10 bd
       0.11561051 -0.13914001 0.0026313514 -0.03530535
0002b0 b5 0f 01 be 28 cf 8e 3d 68 e2 57 3e 50 c3 3c bc
       -0.12603648 0.06973106 0.21082461 -0.0115211755
0002c0 a4 28 88 bd d8 90 17 3e 33 92 1e be 00 c8 af bb
       -0.066483766 0.14801347 -0.15485458 -0.005364418
0002d0 11 2f 07 3e 22 87 a9 3e 18 54 fd bd d9 bc 1f be
       0.13201548 0.3311091 -0.12369555 -0.15599383
0002e0 ac 26 bd 3d 49 a4 14 3f bb 63 31 3e 6a fa 87 3e
       0.09235892 0.5806318 0.173232 0.26558238
0002f0 f0 1b f2 3c 70 7d 16 be 3a f0 ef be 68 7a 4c bc
       0.029554337 -0.14696288 -0.46862966 -0.012480356
000300 32 da 85 be df 25 56 bd 2d 82 59 3e 49 00 f7 bd
       -0.26143032 -0.05228221 0.21241064 -0.12060601
000310 9e a0 2f be 39 0d 99 3e 05 d8 8a 3d 8d a7 a5 bc
       -0.17151114 0.298929 0.06779484 -0.020221496
000320 a9 29 93 3e 5f ec 0a bf 38 21 cd bd a0 ad b6 bd
       0.28742722 -0.54266924 -0.100161016 -0.08919835
000330 80 52 41 3d a7 7e e3 be 45 8e fb 3e 9f d9 3b bf
       0.04719782 -0.44432566 0.4913198 -0.7337894
000340 1e 52 61 3e 9f 7c 39 be cc 32 55 3e 09 b8 35 be
       0.22003981 -0.18113945 0.20820159 -0.17745985
000350 8e ff aa be 4e 67 7a 3e 72 23 e9 3e 82 06 10 be
       -0.33398098 0.2445347 0.45534855 -0.14064983
000360 c8 53 8a bc 0a 3e 12 bf 19 de 2b bd 5b 21 fa 3d
       -0.016885653 -0.57125914 -0.041959856 0.12213393
000370 1d c5 bb 3d c4 bf 4b 3e bc ff 2f bd ee fa 57 3e
       0.09168456 0.19897372 -0.042968497 0.21091816
000380 08 c4 28 3d fe 1b 2f be 58 11 22 be c6 da 01 3e
       0.041202575 -0.17100522 -0.15826929 0.12681112
000390 80 fe ca 3b c1 44 6f 3e af 35 80 be 8e 5c d6 3d
       0.0061948895 0.23366071 -0.25040957 0.10466872
0003a0 95 ea cc bd c1 80 53 3e 6b 38 aa 3e eb 26 92 bd
       -0.100056805 0.20654584 0.33246168 -0.07136329
0003b0 70 dc 0b 3d 5a 11 02 bf d6 62 35 3e 5c eb d0 3d
       0.034145772 -0.50807726 0.17713484 0.10201141
0003c0 20 bd 3b bc 10 82 7c bd b6 67 37 3e 7a 6c 5d 3e
       -0.011458665 -0.061647475 0.17910656 0.21623412
0003d0 f0 86 b1 3d e8 f4 0d be 96 2c 15 be 10 f0 f1 3c
       0.086683154 -0.13862956 -0.1456779 0.029533416
0003e0 09 ed 5d be 24 2e ca bd f2 b6 8f bd 94 1a 13 be
       -0.21672453 -0.09872082 -0.07017316 -0.14365608
0003f0 e0 b4 ab bd c8 35 45 3d d0 6a 23 bd b4 40 49 3e
       -0.083841085 0.048146993 -0.039896786 0.19653589

network.6.bias f4 [20]
000000 35 37 61 3e d4 32 a1 3d 6c f4 8a be bf 73 67 3e
       0.21993716 0.07871023 -0.27139604 0.22602747
000010 49 a1 ca be 3a d3 35 be 89 87 7b be e0 36 b8 3e
       -0.39576176 -0.17756358 -0.24563421 0.35979366
000020 18 c6 28 be db 6e 76 be c1 0f 3b 3e 83 f0 8d bd
       -0.16481817 -0.24065726 0.18267728 -0.069306396
000030 5a 1e 96 bd 92 90 de bd 71 90 3f 3e 58 07 1b be
       -0.07330008 -0.10867418 0.18707444 -0.1513952
000040 29 e6 7b be 65 c0 96 bc 1b 98 81 be f3 a2 99 bd
       -0.24599518 -0.018402288 -0.2531136 -0.07501783

network.9.weight f4 [1, 20]
000000 08 98 e4 3d fc 9e b8 bb 0e 3d 00 bd 59 bf 7d 3e
       0.1116181 -0.005634187 -0.031308226 0.24780025
000010 80 b3 97 bf 48 25 1a bd d0 dd d5 3c 20 90 05 bf
       -1.1851654 -0.03763321 0.026106745 -0.5217304
000020 30 d8 ba bc 8d ff 40 3e e1 54 d5 be 54 21 cf 3d
       -0.022808164 0.18847485 -0.4166632 0.10113779
000030 80 d7 39 bc 2b 94 94 b6 27 ca 2e 3e d6 d1 86 bc
       -0.011342883 -4.4279927e-06 0.17069302 -0.01645748
000040 9e 4e 86 3a 1c 14 ce 3b fe 01 d1 3e 85 41 a8 3d
       0.0010246818 0.0062890183 0.40821832 0.08215622
