experiments/exp_sim_binary_m2/saved_models/run_0/bootstrapped/m1_4.pt (torch, 6385 bytes, 7 tensors)

network.0.weight f4 [20, 2]
000000 00 5f 92 3b 64 6e 1d 3e 4d b8 50 bf cd 1c 61 bf
       0.0044668913 0.15374142 -0.8153122 -0.8793457
000010 ea 33 13 be db 6a 16 3f 7a 7f 32 3f 93 3b 1a be
       -0.14375272 0.587568 0.69725764 -0.15061788
000020 27 16 0b 3f c9 f3 65 be 8f 17 76 3f dd 6a ae ba
       0.54330677 -0.22456278 0.961297 -0.0013306994
000030 be f1 35 3f b7 ee 0f 3f a8 01 d8 bd f8 71 3a 3e
       0.71071994 0.56223625 -0.10547191 0.18207538
000040 81 b2 4b 3f 35 4c d7 be 6f b8 ff be ad 74 03 bf
       0.7956925 -0.4205033 -0.499454 -0.5134991
000050 a5 dc 29 bf 1e 1d ab be ce 63 6b bf 8d b6 ca bd
       -0.663523 -0.33420652 -0.91949165 -0.098981
000060 fd 38 41 bf b1 4c 2f bf 76 35 87 be 16 58 04 bf
       -0.7547758 -0.68476397 -0.26407975 -0.5169691
000070 ba 3d 70 3f cc 1a 18 bf f0 4e 20 be b0 86 44 bf
       0.9384419 -0.5941589 -0.15655112 -0.76768017
000080 52 ba 8f bf 64 26 0d 3f 19 f1 68 3f a9 24 13 bf
       -1.1228735 0.55136704 0.90992886 -0.57477814
000090 43 43 9c 3e 3b fc ef 3e cc 44 c3 3e c3 a9 c8 3e
       0.30520067 0.46872124 0.38138425 0.39192018

network.0.bias f4 [20]
000000 66 e1 27 bf 82 f5 69 3e 11 ff 6e be 6a 54 2d 3f
       -0.65578306 0.2284756 -0.23339488 0.6770693
000010 a5 e0 1b 3f 08 91 0e 3e 81 86 5b 3e 58 89 c4 be
       0.60889655 0.13922513 0.21438028 -0.38386035
000020 da a1 ca be 21 1a d0 3e 87 ab a4 3d fd 20 84 be
       -0.39576608 0.40644935 0.08040529 -0.25806418
000030 59 a3 a7 be 9c 18 da be e8 15 eb be 3e 2a bb 3e
       -0.32741812 -0.425969 -0.4591515 0.36555666
000040 68 60 8d 3e db a1 bf be 8f fa 97 3e 4a ce f5 be
       0.27612615 -0.37428173 0.2968335 -0.4800895

network.3.weight f4 [20, 20]
000000 6c b9 94 3d a9 5e d0 bd 83 26 df 3d b1 4f 3f be
       0.07261929 -0.10174305 0.108960174 -0.18682744
000010 73 49 8a be ba 1a 88 be 6b 5a c0 bd 10 d3 76 3c
       -0.27009162 -0.2658289 -0.09392246 0.01506497
000020 5e 9b 1a be 80 80 61 3e 50 23 36 bc ca 9f 85 be
       -0.1509833 0.22021675 -0.011116818 -0.26098472
000030 36 5e 71 bf c4 89 12 be 8c e7 c7 3a 22 94 b5 bd
       -0.9428438 -0.14310366 0.0015251501 -0.08866145
000040 a3 e6 ad 3d 24 20 c6 be 2c 3c 7c be 0d d7 27 3d
       0.08491256 -0.38696396 -0.24632329 0.040976573
000050 78 41 58 3d 91 3b 2b 3e 82 ae bc be cd 7d 6f 3e
       0.05279681 0.16721942 -0.3685189 0.23387833
000060 d1 97 48 3e 72 1c c2 3d 55 1b 4d be 5a c6 e5 bd
       0.19589163 0.09478082 -0.20029958 -0.11219473
000070 37 9d 1d 3d 04 fa 39 3d c5 f4 0e 3e 75 f0 af bd
       0.03848001 0.04540445 0.1396056 -0.085907854
000080 06 8d 30 bf 30 06 3b bd 77 55 1a 3d b5 91 13 3f
       -0.68965185 -0.045660198 0.037679162 0.57644206
000090 9a 49 e2 be 18 7c 91 3e 00 b3 ac bd 44 c2 57 be
       -0.4419678 0.2841499 -0.08432579 -0.210702
0000a0 7c bc 20 3e 7c 86 2e be e0 d5 0a bf c3 4b 5b 3e
       0.15696901 -0.17043489 -0.542326 0.2141562
0000b0 73 df 8c 3e 32 af dc 3d e4 31 e9 bd ce 77 15 be
       0.27514228 0.10775603 -0.11386469 -0.14596483
0000c0 f8 dc e3 be 72 c4 90 3e 7f a8 5c be 14 a8 f7 be
       -0.44504523 0.28274876 -0.21548651 -0.4837042
0000d0 75 8c 22 bf 18 37 99 bd 68 dd e2 be c6 c7 22 3f
       -0.6349557 -0.074812114 -0.44309545 0.6358608
0000e0 ce e3 7c be ba ff c2 bd 8e d7 aa be 12 14 d5 be
       -0.24696276 -0.09521432 -0.3336758 -0.41616875
0000f0 f9 7b d4 bd c0 54 77 bd 14 4e a0 3d a0 d6 2b 3d
       -0.103752084 -0.06038356 0.07827392 0.04195273
000100 2a 4c 9f bd 80 96 5d bd a8 fe 9d 3d 80 e7 9a 3c
       -0.07778199 -0.054098606 0.077145875 0.018909216
000110 61 ba 4c be 80 52 4c be 30 e0 8a bc 90 b1 36 bd
       -0.19992973 -0.19953346 -0.016952604 -0.04460293
000120 c0 a1 6e 3d d0 29 09 3e aa 38 4c 3e ec 76 0e 3e
       0.058259726 0.13394856 0.1994349 0.13912553
000130 a5 6f e2 bd 20 09 8d 3d 90 79 f5 bc c4 77 fb bd
       -0.11056451 0.06886506 -0.029965192 -0.12278703
000140 74 b9 34 3e 6b c3 73 bf fc d3 ef 3d 1a a0 18 3e
       0.1764887 -0.9522006 0.11710355 0.14904824
000150 e9 cd fd 3d 7e 4b 47 be a0 86 f4 3d 10 ad a2 3d
       0.1239279 -0.19462392 0.1193974 0.07943165
000160 ca 5a 2c bf 24 2e 36 bd af f4 22 be fd c8 5a be
       -0.67326033 -0.044477597 -0.15913652 -0.21365733
000170 4b 73 68 be 92 de 90 bd ad 08 01 bf be 18 36 3e
       -0.22700231 -0.07073702 -0.50403863 0.17782876
000180 8a 88 5a bd 45 0d 46 bf 63 64 87 3b db fe 1e bf
       -0.05335287 -0.77364 0.00413184 -0.6210763
000190 18 82 0c bd ed 11 c4 3e ce 10 02 3e 6e 9e a5 3d
       -0.034303755 0.38294926 0.12701723 0.08086859
0001a0 f8 b7 62 bd 86 65 8c be 90 81 97 be 9c 8b 9a 3d
       -0.055351228 -0.27421206 -0.29591036 0.075461596
0001b0 cf a2 7f 3f 87 bc c2 3e 3f d8 95 3e 44 1b a2 3d
       0.998578 0.3803446 0.29266545 0.07915357
0001c0 19 df 58 bf f0 f9 3b be 97 74 6b 3f c0 50 7b 3e
       -0.8471542 -0.18357062 0.91974777 0.24542522
0001d0 a2 f1 00 bd 24 f5 81 3f 2f 91 43 be 95 ea 8f bd
       -0.03148044 1.0152936 -0.19098352 -0.07027165
0001e0 79 1e 27 be 54 6c d0 bd e8 8a 2d 3d 1e 09 bc bd
       -0.16320218 -0.10176912 0.0423688 -0.091814265
0001f0 06 6f 3c be b0 11 a4 bd de 3b 2b be 1a 65 5f be
       -0.18401727 -0.08011186 -0.16722056 -0.21815911
000200 fc db 1b bd 30 5b 2b bd 70 58 cb 3d f0 97 44 bd
       -0.03805159 -0.04183501 0.099289775 -0.04799646
000210 10 03 1a 3d 0c ce 05 bd 8a ca cb bd b4 83 e5 3d
       0.037600577 -0.032667205 -0.09950741 0.11206761
000220 70 dd 35 be ec 63 1c be b8 0f 30 bd c8 a8 d5 bd
       -0.17760253 -0.15272492 -0.04298374 -0.10432583
000230 2c f6 a5 3d 3d eb d9 bd dc f4 6c bd d6 10 0d 3e
       0.08103594 -0.10640571 -0.057850704 0.13775954
000240 48 b5 83 3d b8 c9 c4 3a eb d6 f0 3d 07 53 62 be
       0.06431061 0.001501373 0.11759742 -0.22101985
000250 89 a2 47 be eb e3 b9 bc 14 3f 02 be 49 96 30 be
       -0.19495596 -0.022691688 -0.12719375 -0.17244829
000260 d8 c9 ac bc ea c6 12 be 84 10 3e be 72 dc bf 3d
       -0.02109234 -0.14333692 -0.18560988 0.093682185
000270 0e 5c 33 be 92 5e 8f bd 4d 75 5e be c3 46 dd bd
       -0.17515585 -0.0700046 -0.21724434 -0.10804512
000280 08 ce 33 3d c2 ed 72 bf 37 da 2f 3c e7 2d a3 3e
       0.04389766 -0.9489404 0.010733179 0.31870958
000290 f2 5d 8e 3e e0 36 f0 3e 92 c2 6e 3d d9 39 4c be
       0.2780605 0.46916866 0.058291025 -0.19943942
0002a0 5f ae 5a bf b4 c4 57 3d c1 41 0e be 01 e2 81 be
       -0.8542232 0.052677825 -0.1389227 -0.2536774
0002b0 44 59 d7 3b 76 d6 1a 3e c9 9f 68 bf 4d b2 7a 3e
       0.0065719206 0.15120873 -0.9086881 0.24482079
0002c0 24 31 df be d2 26 2e bf 7b 70 62 3c 68 0b 76 3e
       -0.4359218 -0.68027985 0.013820763 0.24027789
0002d0 00 91 a1 bc 98 4d 47 bd f6 22 1b be 8e 03 41 be
       -0.019722462 -0.048657984 -0.15150055 -0.18849012
0002e0 80 ce b7 3d ac 57 ae 3d 40 1a 0e bb a0 84 7c 3d
       0.089749336 0.08512816 -0.0021683127 0.06164992
0002f0 f4 06 ac bd e0 2e 11 be d4 25 23 3e e0 ec a3 bd
       -0.08399764 -0.14178038 0.15932399 -0.08004165
000300 fe fd 51 3e 40 a3 2f bb 18 c2 05 be f8 d2 56 3d
       0.20507047 -0.0026800185 -0.13062322 0.05244729
000310 94 2a af bd 60 3f e0 3c 65 99 62 be be a9 1c be
       -0.08553043 0.02737397 -0.22128828 -0.15299127
000320 64 9e ed 3d e0 cf 08 3c 11 b1 58 be 1d 92 30 be
       0.11602476 0.0083503425 -0.21161295 -0.17243238
000330 b0 99 25 3d 08 da a9 3d ba 26 02 be 00 e1 80 bb
       0.04042977 0.08293539 -0.12710086 -0.003933072
000340 bb 11 44 be 39 b2 e9 bd ba 64 5c 3e 80 c3 ff 3a
       -0.19147389 -0.114109464 0.21522799 0.001951322
000350 b0 ca 23 bd 48 f8 5e 3e 4c a7 fa 3d 09 ba 03 be
       -0.03998822 0.217744 0.122389406 -0.12863936
000360 98 e9 b8 3d 07 c1 4d be 80 d0 01 bb 78 7c 25 3e
       0.090289295 -0.20093165 -0.0019808114 0.16160762
000370 90 77 a5 3d 45 b2 4d bf f6 2e f2 bd a0 fc da 3d
       0.08079445 -0.8035014 -0.11825363 0.10692716
000380 e5 7e b2 3e 6f a2 68 3e f8 77 90 3e e4 35 e9 3d
       0.34862438 0.22718213 0.2821653 0.11387232
000390 4a 7c 6a bf 17 93 3a 3e 3f 9a de be 2d 25 68 be
       -0.915959 0.18220173 -0.43477055 -0.22670431
0003a0 75 a5 1f 3e 06 3f 09 be 44 af 62 bf ee 42 f7 3c
       0.1559046 -0.13402948 -0.88548684 0.030183282
0003b0 ea d8 b1 be c0 04 40 bf 67 30 58 3e b1 b1 99 3c
       -0.34735805 -0.7500725 0.21112214 0.018761488
0003c0 24 10 61 3e fd 7d b4 3e 0f 6a 8b 3e ca 3f 83 bd
       0.21978813 0.3525237 0.27229354 -0.06408651
0003d0 93 46 4f 3e 17 52 a3 be e1 b2 5f be 02 c1 94 bd
       0.20241766 -0.31898567 -0.2184558 -0.07263376
0003e0 8a 54 37 3f 13 cc 0b 3e d3 f1 0a bb 05 a4 5e 3d
       0.7161337 0.13652067 -0.0021201267 0.05435564
0003f0 ec 2d 69 bf 10 02 0e be a8 c9 7b 3f 14 5f 5e 3e
       -0.91085696 -0.13867974 0.9835458 0.21715957

network.3.bias f4 [20]
000000 6a 30 39 bd 4c 4c 98 3e 5c b8 a4 3d 33 80 1e be
       -0.045212187 0.2974571 0.08042976 -0.15478592
000010 6a e6 60 bd 66 83 41 3e 0e f0 0c 3e 29 51 49 be
       -0.05490724 0.18897781 0.13763449 -0.19659866
000020 b1 8e 61 3e 00 0e ed ba bb 67 58 be a1 44 a5 3e
       0.22027089 -0.0018085837 -0.2113332 0.32278922
000030 85 1d 88 3e ec a3 87 3e 96 b3 20 3e cc f5 4c be
       0.26585022 0.2649225 0.15693507 -0.20015639
000040 1f 3f 80 be 6d fd b2 be 47 b6 4b be 4f d4 8e bd
       -0.25048158 -0.34958974 -0.19893752 -0.069740884

network.6.weight f4 [20, 20]
000000 25 91 be be 10 cc 9e 3e 8d d9 0a 3f 58 43 d2 3d
       -0.3722011 0.31015062 0.54238206 0.10266751
000010 84 ee fa 3c 8e bb 7e 3c 08 05 c1 bd 30 8f e9 3c
       0.030631311 0.015547646 -0.09424788 0.02851066
000020 00 9f e5 3e 40 49 cf bb 08 9d c1 bd a2 b4 98 3d
       0.4484787 -0.0063258708 -0.094537795 0.07456328
000030 f9 ac b9 be 3f 83 9b 3e 81 0a 73 be c0 a1 7a 3c
       -0.3626478 0.3037357 -0.23734476 0.015297353
000040 31 80 0c 3e 5f 66 a1 be b4 62 03 3e d2 46 24 be
       0.13720776 -0.31523415 0.12830621 -0.16042641
000050 26 7c 70 3d f5 62 2c be ff aa 62 3d e3 eb 0f be
       0.058712147 -0.16834624 0.055338856 -0.14054827
000060 aa 2d a4 3c e7 b8 89 3e 62 6d 55 be 2f 4c 66 3d
       0.020041306 0.26898882 -0.20842507 0.056224998
000070 21 6d 57 be 58 a1 a2 bc 70 64 23 3e 52 e0 ac bd
       -0.21037723 -0.019852325 0.15956283 -0.08441223
000080 04 06 8d 3e a7 6b 9d 3c 38 35 22 3e 0f 64 48 be
       0.27543652 0.019216372 0.15840614 -0.1956942
000090 4f 21 3f be f1 10 44 bf f2 a0 36 3e 3d 01 31 be
       -0.1866505 -0.7658835 0.17834833 -0.17285629
0000a0 c8 7a 12 be 78 38 4a 3e 90 91 6e be f8 8f 77 3d
       -0.1430465 0.19748104 -0.23297715 0.060440034
0000b0 9d c3 3a be 13 46 8e bc 3c 18 52 3e 5c b2 24 be
       -0.18238683 -0.017367398 0.20517057 -0.16083664
0000c0 d4 a9 54 bd 96 de 5c 3e c8 de 2a 3e 2a 8f 44 be
       -0.051919773 0.21569285 0.16686547 -0.19195238
0000d0 eb 03 32 be 36 62 ec bd c2 ab 55 be a8 c4 26 bd
       -0.17384307 -0.1154217 -0.20866302 -0.04071489
0000e0 70 7a 69 3c 45 d1 da 3d a5 8f e0 bd 38 4b 5e 3e
       0.014250383 0.10684446 -0.10964898 0.21708381
0000f0 1e 0d 8c 3d fa 34 0f 3e 20 36 9a 3e 26 04 18 be
       0.068384394 0.13985053 0.3011942 -0.14845333
000100 17 33 05 3e 6a 33 a5 3c 70 c0 93 3c ea 9e 5c bd
       0.1300777 0.020166118 0.018036097 -0.05386249
000110 a5 e7 fd 3e d8 08 c0 bc 60 1e f3 3c 04 a6 bb 3e
       0.49590793 -0.023441717 0.02967757 0.36650097
000120 91 f5 80 3b 95 fb a5 3e d3 ef ed bd a0 49 11 3d
       0.003935524 0.32418504 -0.116180085 0.035470605
000130 9c e0 15 be a1 38 21 3f 2c 52 3e be 83 6a 31 3e
       -0.14636463 0.62977034 -0.18586034 0.17325787
000140 88 7b 22 be 28 d6 a9 bc c6 1c 97 bd 5c 83 e4 3d
       -0.15867436 -0.020732 -0.07378535 0.11157867
000150 e8 42 a2 bd 9c 90 ea 3d c4 a0 a2 3d 80 16 fb bb
       -0.079229176 0.11453363 0.0794082 -0.0076625943
000160 5c 5c 8f 3d 9a 26 64 3e b5 8e 55 be 88 56 db bd
       0.07000038 0.2228035 -0.2085522 -0.10709864
000170 60 9c ed bb fc ef 35 bd f0 51 52 be b0 e1 64 bc
       -0.0072513074 -0.04441832 -0.20539069 -0.013969824
000180 b0 92 36 3e fa a9 3f be a4 68 34 bd 20 ae 7a 3d
       0.17829394 -0.18717185 -0.044045106 0.061201215
000190 1a 69 16 be fc 8d a2 3e fb b0 77 3e e0 94 93 3b
       -0.1468853 0.3174895 0.24188606 0.0045038313
0001a0 52 3f 31 be fd 45 e6 3d e4 de ee 3d 38 12 1c be
       -0.17309311 0.11243818 0.11663607 -0.15241325
0001b0 7f 55 81 be b6 6c dc bd fb 7a 08 be e2 83 e3 be
       -0.2526054 -0.107629225 -0.13328163 -0.44436556
0001c0 d2 b0 4d 3e 1f d0 d2 3e 73 65 fa 3e 3a c9 46 be
       0.20086983 0.4117441 0.48905525 -0.194127
0001d0 67 13 c9 3d 44 64 f5 be 53 ce fc bd b9 08 de 3c
       0.09818154 -0.4792806 -0.12344041 0.027103769
0001e0 7b 13 46 be cc 73 b6 bd 22 d3 bc 3d 3c 07 f1 bd
       -0.19343369 -0.08908805 0.09219958 -0.11768958
0001f0 d5 77 16 be 20 d6 9a bc 54 57 e2 bd c6 f2 13 be
       -0.1469415 -0.01890093 -0.11051813 -0.1444808
000200 21 3e c1 3e 72 75 30 3e 78 c3 a9 3d 90 f4 ec 3e
       0.37742713 0.17232302 0.08289236 0.46280336
000210 99 d0 12 be e2 58 2f bc d1 01 c7 3d 02 26 2a 3e
       -0.14337386 -0.010702344 0.09717143 0.16616061
000220 ca 61 aa bd 5f 6b 1c 3f 80 13 99 bb c6 39 bc bd
       -0.08319433 0.61101335 -0.004671514 -0.09190707
000230 26 81 27 3b ba c6 5a 3e 8d 5a e1 3d 00 d7 7a 3a
       0.0025559156 0.2136487 0.11003599 0.00095687807
000240 cf c5 d1 bc 5d d9 c5 bd 60 d1 70 3d 02 e6 f1 bd
       -0.025607018 -0.096605994 0.058793426 -0.11811449
000250 78 22 31 3e ae 06 04 3e 48 d9 01 3d 15 cc a3 3d
       0.17298305 0.12893173 0.031701356 0.0799791
000260 e2 c6 00 be 68 c5 59 3e 01 d9 d1 3d ce 59 a3 bd
       -0.12575868 0.21266711 0.10246468 -0.07976113
000270 fc 8d 9d 3d 4a d3 38 3f e0 b8 5f 3c 5e f4 30 be
       0.07693097 0.721974 0.0136549175 -0.17280719
000280 03 89 a1 be b0 f3 07 3e 88 f3 ce 3e fe b8 36 be
       -0.31549844 0.13276553 0.40420175 -0.17844006
000290 f6 04 95 3d 8a ca f4 3d 78 8e 1e 3d f1 83 2b be
       0.07276337 0.11952694 0.038710088 -0.1674955
0002a0 3d 8a 4e 3d 64 0c d1 3d c8 14 13 3e ff 13 75 3e
       0.050424803 0.102074414 0.14363396 0.23933409
0002b0 bd a5 62 be a7 00 79 3e cc 7a de bd 12 fe 12 3e
       -0.22133537 0.24316655 -0.108632654 0.14354733
0002c0 52 a5 db bd a4 8e 31 3f 5c f8 3c bd b8 72 69 3d
       -0.10724892 0.6935828 -0.04613529 0.05699417
0002d0 8f b3 33 be a5 61 88 be 99 c2 42 be 1a 2d 48 be
       -0.17548965 -0.26636997 -0.19019546 -0.19548455
0002e0 4a 46 49 3d 4a 52 d8 3d e4 0f 5d 3e 34 26 e3 3d
       0.0491393 0.105625704 0.21588093 0.11091271
0002f0 ab 77 b4 3d 98 cf d9 bc 78 21 90 bc 8e 6c b3 3d
       0.08811887 -0.026588246 -0.017594084 0.087609395
000300 29 96 b5 be 4a c3 82 bd 09 2b f7 3d c8 b2 9c 3d
       -0.35466126 -0.06384905 0.12068755 0.07651287
000310 9a 8d ae ba 46 df ba bd 08 62 ac bd 71 ca 47 3e
       -0.0013317347 -0.09124617 -0.084171355 0.19510819
000320 3a cf 2c be 08 79 ac 3d 10 ef 64 bd 3f 44 f6 bd
       -0.16875926 0.084215224 -0.05589205 -0.12024736
000330 c6 f2 19 3e 20 bd 14 bc 98 3e dd 3d 80 61 70 3d
       0.15034017 -0.009078294 0.108029544 0.058686733
000340 96 aa 91 bd a3 73 50 be 6c 9a f0 3d a0 5a 91 bc
       -0.07112615 -0.20356612 0.11748204 -0.017743409
000350 00 7c 54 b9 cd 13 cd bd e0 58 31 bd 1e a8 24 be
       -0.00020264089 -0.10013542 -0.04329765 -0.16079757
000360 b8 35 3d 3e 1c 9d b2 3d 85 0c 00 be e8 cb d7 3d
       0.18477523 0.087213725 -0.12504776 0.10536939
000370 be 2d 73 bd 7c 83 be bc 2b 6d 6b bd ee 49 4b be
       -0.059369795 -0.023256056 -0.057477158 -0.1985242
000380 61 d5 88 bc 53 13 1b bd 2a 56 46 be e9 d1 b1 3d
       -0.01670331 -0.037860226 -0.19368806 0.08682615
000390 55 df f6 bc 80 0f de bb 19 8d 0a be 86 4f bf bd
       -0.03013579 -0.00677675 -0.13530387 -0.0934134
0003a0 70 70 a8 bc 7c 01 33 bd dc 48 19 bd 34 1d 24 be
       -0.020561427 -0.043702587 -0.037423 -0.16026765
0003b0 e5 27 19 be 4b 42 e7 bd 70 c4 55 3e b8 3d 49 3d
       -0.14956625 -0.11291941 0.20875716 0.049131125
0003c0 65 53 62 be f4 51 8f bd c2 12 81 3d 3f f9 34 be
       -0.22102125 -0.06998053 0.06302406 -0.17673205
0003d0 9b 4e 52 be 32 8a 8b bc bc 3b 8c bd 95 a9 27 be
       -0.20537798 -0.01703367 -0.06847331 -0.16373284
0003e0 97 41 4a be f0 da fa 3c 9c 63 20 be 48 e1 20 be
       -0.19751583 0.030621976 -0.15662998 -0.15710938
0003f0 63 8f 87 3b 7b 38 90 be 7f 92 55 be cf 20 13 3d
       0.004136966 -0.2816809 -0.20856665 0.03591996

network.6.bias f4 [20]
000000 87 e7 00 be ac 61 d0 3e f3 a1 8c 3c e9 67 5a be
       -0.1258832 0.40699518 0.017167067 -0.21328701
000010 9f c9 e4 bd 6a 0e 18 3e 65 9a 1f 3e 1f 2c 28 be
       -0.11171269 0.14849249 0.1558624 -0.16423081
000020 3e d7 ff bd b3 2d 81 be 1f 3b 32 be 7e 5a b1 bc
       -0.12492226 -0.25230178 -0.17405365 -0.021649595
000030 99 eb 8c bd 71 6b d3 bd 4c f3 fc bc a5 43 b2 3e
       -0.06880874 -0.10323227 -0.030877732 0.34817234
000040 c1 48 67 3e d2 4f 40 be ed 97 7f 3e 6b 66 47 be
       0.22586347 -0.18780449 0.24960299 -0.19472663

network.9.weight f4 [1, 20]
000000 83 f6 d2 3e 77 9d ad be cc 75 1b be fc 15 a1 3e
       0.412037 -0.339092 -0.15181655 0.31462085
000010 60 e9 ec 3c 19 db c3 be 10 84 9b 3e 7a 5b 7e 3d
       0.028919876 -0.38253096 0.30374193 0.062098958
000020 c6 8e 3d 3e b8 20 4a 3c 50 c7 20 3e ed 95 d7 3d
       0.18511495 0.012336902 0.15701032 0.10526643
000030 68 23 37 3c d4 17 0e 3e 55 43 b3 3c 26 b3 ad be
       0.011177875 0.13876277 0.021882692 -0.33925742
000040 b9 df ae be 9b 15 97 3d c5 72 9f be e1 b4 d7 3c
       -0.34155062 0.07377168 -0.3114225 0.026331367
