experiments/exp_sim_binary_m2/saved_models/run_0/bootstrapped/m2_0.pt (torch, 6449 bytes, 7 tensors)

network.0.weight f4 [20, 3]
0.5936986 -0.6291149 -0.39889023 0.28536922 -0.04557967 0.025253594 1.0581797 -1.0206988
0.7141117 -0.6331951 -0.37387222 -0.81025904 0.73659945 -0.62237275 -1.0454469 -0.9319423
-0.67045075 0.44129044 -0.86181384 0.56680816 -0.5651857 0.5185095 -0.20047837 -0.60952413
0.49750432 0.24267657 0.30408597 -0.43159017 -0.63124156 0.5512475 1.7765956 -1.2638984
-0.29750893 -0.2901961 -0.9161984 0.15192547 0.75010836 -0.4775674 -0.9029045 -0.66418153
0.7410082 -1.0887778 1.0191646 0.37923896 -0.100246504 1.4756233 0.029376626 0.6682327
0.51041937 -0.08566181 -0.42180488 0.048160523 0.059070036 0.2894989 0.6016144 -0.46397972
0.041840136 -0.9689788 0.29784605 0.32974058
00000000: a2fc 173f ad0d 21bf 573b ccbe ea1b 923e
00000010: c0b1 3abd a0e0 ce3c 6f72 873f 42a6 82bf
00000020: 06d0 363f 1319 22bf 2e6c bfbe 236d 4fbf
00000030: c891 3c3f d253 1fbf 34d1 85bf c593 6ebf
00000040: a9a2 2bbf d2f0 e13e d59f 5cbf 571a 113f
00000050: 03b0 10bf 0abd 043f 344a 4dbe c609 1cbf
00000060: e3b8 fe3e 3580 783e 28b1 9b3e 63f9 dcbe
00000070: 0c99 21bf 8e1e 0d3f 7c67 e33f 6cc7 a1bf
00000080: 1753 98be 9594 94be fa8b 6abf 5a92 1b3e
00000090: 1a07 403f b783 f4be c024 67bf cd07 2abf
000000a0: b7b2 3d3f 125d 8bbf fc73 823f 9c2b c23e
000000b0: 0a4e cdbd 39e1 bc3f 40a7 f03c 4c11 2b3f
000000c0: d8aa 023f 766f afbd cff6 d7be f843 453d
000000d0: 6cf3 713d 3339 943e 6703 1a3f c08e edbe
000000e0: 9060 2b3d ff0e 78bf 477f 983e c2d3 a83e

network.0.bias f4 [20]
0.58067465 -0.44102627 0.34301794 0.03442015 0.70185137 -0.94273764 -0.37607965 -0.18994196
0.19339547 0.12687214 -0.57409865 0.26793635 0.52704066 -0.36559188 0.2302785 -0.3752746
-0.24481505 -0.41860723 0.04593702 0.067003384
00000000: 18a7 143f 32ce e1be 0ca0 af3e 25fc 0c3d
00000010: 88ac 333f 4157 71bf 838d c0be 2580 42be
00000020: 7609 463e c5ea 013e 21f8 12bf f42e 893e
00000030: 23ec 063f dc2e bbbe 21ce 6b3e fe23 c0be
00000040: ccb0 7abe b053 d6be 7528 3c3d 1239 893d

network.3.weight f4 [20, 20]
-0.7889949 0.22151893 1.0805883 0.18203516 -0.86920685 -1.1702785 0.4120306 -0.40044034
-0.19662237 0.27622157 -0.13286127 0.470406 -0.8656987 -0.9377705 -1.249327 -1.0461553
-0.3308198 -0.11661018 -0.6673375 0.35169324 0.007803887 -0.102493495 -0.19724005 -0.22665915
-0.19646621 -0.18246117 -0.22624907 0.0779199 -0.20507026 -0.11739143 -0.1180147 0.13868421
-0.20375599 -0.11552427 -0.074860305 -0.06306273 0.1584509 -0.029998645 -0.052354127 -0.089484625
-0.7570436 0.19575363 0.8939628 0.38671687 -1.3796215 -1.5776441 0.16164358 -0.31928092
0.107023105 0.32628676 -0.29481953 0.31965813 -0.786115 -0.92072695 -0.58037764 -1.4339522
-0.21035507 0.07218256 -0.502197 0.43373245 0.5108658 -0.039299294 0.08423115 -0.22182986
0.946562 -0.05724974 -0.5946145 0.025086269 0.023390165 -0.5411226 -0.46114343 0.11356283
0.69719696 -0.3182121 0.28247517 0.06983234 -0.023957895 -0.9112952 0.09126459 -1.5326246
-0.052147973 -0.018639982 0.6955026 -0.2690396 -0.072900824 -1.0327014 -0.27037972 0.3034556
-0.2932378 0.19221447 -1.5743741 0.2474067 0.35724008 -0.72285247 -0.068705894 -0.25186288
-0.24582909 -0.020852678 0.104047984 -0.30390134 -0.026320666 0.15693632 0.036017966 0.0016360134
-0.21182923 -0.18946202 -0.055585027 -0.0073428378 -0.1310584 -0.31879354 -0.21096754 -0.30350548
-0.031051056 0.025431722 -0.33058858 -0.048728056 0.13452695 0.1042639 -0.15508929 -0.12153937
0.24265024 -0.027224824 -0.54978365 0.055107683 0.3582307 0.5419178 0.5877488 0.52914006
-0.7413144 -1.1763245 2.0757666 -0.51766497 0.16860552 0.7186188 -0.37265778 0.6112013
0.40158626 -0.1389399 -0.23617767 0.28100944 -0.19597284 0.04690191 0.08895419 -0.0132009005
-0.04847098 -0.026791424 0.066206925 0.17872775 -0.21377881 0.045188908 -0.12075006 -0.08624075
-0.23664148 -0.22242337 -0.06720331 -0.064108 0.2138977 -0.21054874 -0.20345178 -0.26405746
0.13690573 -0.045196027 0.5355612 0.09403117 -1.2053809 0.75763667 0.29082808 -0.38020948
0.2051938 -0.22823527 -1.7093338 -0.47047573 -1.1202102 0.77675974 0.07194906 0.07995834
-0.05255674 0.087512866 -0.05877895 -0.025020594 0.17996484 -0.073642954 0.5317848 -0.2034404
-0.9411713 -0.39045328 -0.37715313 -0.56586844 0.15013535 0.124583945 -1.7553339 0.6357896
-0.90735674 -0.061726227 0.0408625 0.4130471 -0.62916154 -0.073004946 0.059211783 -1.0552199
-0.12194337 0.070893615 0.036502138 -0.15114732 0.10135838 0.03601435 0.06553659 0.13918756
0.014255727 -0.30809045 0.22174248 -0.16266191 -0.22258264 -0.1714715 -0.055704404 -0.035094295
-0.20714368 0.082545795 -0.06432212 0.103051014 0.7818124 0.0018963665 -1.9229789 0.11519041
0.444013 1.1162729 0.08192101 -0.3440864 -0.6055694 -0.43373153 0.10432888 0.11295877
0.36796007 0.59751725 -0.4134361 -0.36630931 -0.024021022 -0.19892807 0.10555925 0.27593923
-0.0779966 -0.076563776 -0.1323277 -0.013141536 0.08403686 0.031844318 -0.12713598 -0.026348472
0.058449525 -0.016332535 0.080937505 -0.18251358 -0.07607345 -0.15986404 -0.1590022 0.15440944
00000000: 92fb 49bf dcd5 623e b850 8a3f 6d67 3a3e
00000010: 5784 5ebf b0cb 95bf adf5 d23e 8406 cdbe
00000020: 6057 49be ea6c 8d3e c90c 08be 0ed9 f03e
00000030: 6e9e 5dbf ba11 70bf f2e9 9fbf 6be8 85bf
00000040: 3661 a9be 51d1 eebd a1d6 2abf 2311 b43e
00000050: c0b7 ff3b 1ce8 d1bd 4cf9 49be 5619 68be
00000060: 702e 49be 1ad7 3abe d6ad 67be 7894 9f3d
00000070: f0fd 51be eb6a f0bd b1b1 f1bd 3c03 0e3e
00000080: 69a5 50be fd97 ecbd 5c50 99bd 0827 81bd
00000090: f440 223e b8bf f5bc 4871 56bd b743 b7bd
000000a0: 9ccd 41bf a473 483e bfda 643f c1ff c53e
000000b0: 7097 b0bf 3ef0 c9bf e585 253e ca78 a3be
000000c0: ee2e db3d 0f0f a73e 96f2 96be 3baa a33e
000000d0: d53e 49bf c3b4 6bbf a193 14bf bf8b b7bf
000000e0: 5267 57be 73d4 933d fc8f 00bf 2e12 de3e
000000f0: 1ac8 023f 4cf8 20bd 6281 ac3d 5e27 63be
00000100: e351 723f b47e 6abd a838 18bf b881 cd3c
00000110: bb9c bf3c 0387 0abf fe1a ecbe a193 e83d
00000120: 807b 323f b2ec a2be 96a0 903e 4204 8f3d
00000130: 5943 c4bc a44a 69bf eee8 ba3d 0b2d c4bf
00000140: 1d99 55bd e0b2 98bc 750c 323f 8fbf 89be
00000150: 074d 95bd 8f2f 84bf 366f 8abe 885e 9b3e
00000160: 4423 96be dfd3 443e 1785 c9bf 2f58 7d3e
00000170: 2ce8 b63e dc0c 39bf adb5 8cbd 2cf4 80be
00000180: 9fba 7bbe 3cd3 aabc 1c17 d53d f598 9bbe
00000190: 709e d7bc eab3 203e 9387 133d 806f d63a
000001a0: c3e9 58be 5502 42be 20ad 63bd 309c f0bb
000001b0: 2c34 06be e838 a3be e007 58be 1265 9bbe
000001c0: c95e febc 3056 d03c e842 a9be 1297 47bd
000001d0: 6fc1 093e 5088 d53d bacf 1ebe a2e9 f8bd
000001e0: 4e79 783e 9806 dfbc 9fbe 0cbf 98b8 613d
000001f0: 046a b73e 20bb 0a3f b576 163f b975 073f
00000200: c8c6 3dbf cd91 96bf 5cd9 0440 b185 04bf
00000210: eda6 2c3e 67f7 373f 00cd bebe b077 1c3f
00000220: b79c cd3e 4346 0ebe 8fd8 71be 78e0 8f3e
00000230: 1bad 48be 381c 403d 9d2d b63d 9748 58bc
00000240: 8289 46bd b079 dbbc 7f97 873d 6804 373e
00000250: d5e8 5abe 0118 393d cf4b f7bd fe9e b0bd
00000260: 2552 72be f4c2 63be e4a1 89bd 0e4b 83bd
00000270: 0008 5b3e 179a 57be aa55 50be 8a32 87be
00000280: 0431 0c3e 781f 39bd 8a1a 093f 6a93 c03d
00000290: ec49 9abf 7af4 413f 6be7 943e d1aa c2be
000002a0: 531e 523e 82b6 69be 73cb dabf 32e2 f0be
000002b0: 0c63 8fbf bad9 463f 075a 933d 33c1 a33d
000002c0: bc45 57bd f239 b33d 32c2 70bd fdf7 ccbc
000002d0: b448 383e 1ed2 96bd 0c23 083f ae52 50be
000002e0: 9af0 70bf 7ee9 c7be 371a c1be c1dc 10bf
000002f0: 15bd 193e de25 ff3d c8ae e0bf 1bc3 223f
00000300: 8848 68bf a4d4 7cbd 705f 273d e97a d33e
00000310: bb10 21bf 9e83 95bd 0e88 723d 7211 87bf
00000320: 72bd f9bd ac30 913d 4483 153d 5dc6 1abe
00000330: fb94 cf3d c883 133d 0c38 863d 2f87 0e3e
00000340: da90 693c 08be 9dbe 7610 633e d890 26be
00000350: b4ec 63be 3a96 2fbe 4d2a 64bd 09bf 0fbd
00000360: 791d 54be c50d a93d 51bb 83bd 690c d33d
00000370: dc24 483f 808f f83a 2c24 f6bf f3e8 eb3d
00000380: ac55 e33e 08e2 8e3f 34c6 a73d 182c b0be
00000390: 9906 1bbf 0f12 debe 61aa d53d ed56 e73d
000003a0: 4365 bc3e e4f6 183f e6ad d3be e58c bbbe
000003b0: bcc7 c4bc cdb3 4bbe 732f d83d e847 8d3e
000003c0: aebc 9fbd 78cd 9cbd ea80 07be 994f 57bc
000003d0: 841b ac3d 306f 023d ef2f 02be c0d8 d7bc
000003e0: c568 6f3d cfcb 85bc 90c2 a53d d7e4 3abe
000003f0: 66cc 9bbd 66b3 23be 79d1 22be 821d 1e3e

network.3.bias f4 [20]
-0.06578916 -0.18143357 0.123021156 -0.20098361 -0.03583265 -0.12927663 -0.06392583 0.002837813
-0.13372263 -0.37744078 -0.26537234 0.116021916 -0.22706698 -0.36362654 -0.17534642 0.057898063
-0.3016599 -0.2770246 0.116628274 -0.07688828
00000000: 78bc 86bd b9c9 39be 84f2 fb3d a6ce 4dbe
00000010: 42c5 12bd 1861 04be 8ceb 82bd 9afa 393b
00000020: 96ee 08be eb3f c1be e2de 87be e69c ed3d
00000030: 3f84 68be 422d babe 038e 33be 8526 6d3d
00000040: 2b73 9abe 2bd6 8dbe ceda ee3d 9a77 9dbd

network.6.weight f4 [20, 20]
0.02513031 0.16771737 -0.22689827 0.052190363 0.02184628 -0.013230681 -0.2073509 0.11853656
-0.19963042 -0.007929206 -0.19413792 -0.05685767 -0.13185127 -0.22199643 0.19343707 -0.23349336
-0.17366666 0.13473704 -0.1983594 -0.13253224 -1.4440916 0.001802864 -1.3970464 -0.2396204
0.41952175 -0.1152036 0.24546552 0.011120846 0.1566957 0.22696626 0.06023 0.58188736
-0.07693179 0.26319587 -0.11465271 0.46828803 0.13977815 -0.0056510386 -0.24950786 0.31081036
-0.81937754 -0.18492389 -0.7173463 -0.4459637 -0.036359254 0.13010788 0.0033883383 -0.03638452
-0.14461647 0.10562359 0.061905865 -0.1567213 -0.18968701 0.051345464 -0.0698591 0.23842382
-0.09607408 -0.3157683 -0.34030217 -0.1604341 0.5294333 0.07166046 0.86417186 0.770391
0.3522112 -0.27164143 -0.5819722 0.08021387 -0.3052123 0.074268654 0.11384709 0.0008730384
0.28801998 -0.35461086 0.046355993 -0.76390785 -0.034694076 -0.00019516716 0.07825 -0.46023494
0.08336482 0.18338412 0.025492 0.064594835 -0.110615365 -0.20533371 -0.007301683 0.0041861385
-0.114949815 0.057289183 -0.039759994 0.06328913 0.21511462 0.10611126 0.12554228 -0.12403849
-0.20589127 0.01055867 -0.27176127 -0.15711589 -0.48367593 0.04330956 -0.5481644 0.15634733
-0.4249725 -0.0033090094 0.33991978 0.1936079 0.024796806 -0.4717411 -0.07906708 0.14201474
-0.11673908 -0.082052685 0.052130908 0.61599666 -0.040794946 -0.032380097 -0.4732945 -0.23986942
-0.1626068 -0.097929075 -0.20168145 -0.2513958 -0.15521295 -0.12624106 -0.16472675 0.14180693
-0.20811556 -0.33633456 -0.0377194 -0.12670912 0.16974169 -0.33344686 0.0034296215 -0.4912009
0.17925519 -0.10339511 -0.3928239 0.09162865 -0.0047319653 0.21176338 -0.06295461 0.018878404
-0.12001865 0.06283733 0.07431499 -0.0909062 0.04199576 0.12394144 -0.14011618 -0.14393686
0.045429867 0.09701239 0.16214496 -0.24033877 -0.06853393 -0.04094314 -0.12956303 -0.10596253
0.62752134 0.112113506 0.47756985 0.4767413 -0.06633892 -0.2229537 -0.47512996 0.055424593
-0.3452803 -0.24642453 0.089768514 -0.31817582 0.0066788425 -0.3997305 -0.06873928 -0.9025127
0.16795513 -0.022885762 0.29098025 -0.4076525 0.23254561 -0.10646295 0.35845247 -0.2539056
-0.06819956 0.21000245 0.41750467 -0.20595868 -1.2017064 0.36185282 0.105356425 0.22837982
-0.10003713 -1.1634258 0.22061291 -0.98188937 -0.13262369 -0.2591328 -0.7353277 -0.33049592
-0.14810915 -0.1977256 -0.25015327 -0.2990647 0.043415993 0.026491227 -0.7958369 -0.1710528
-0.34703788 0.09036882 0.08563327 -0.20741972 -0.12845334 0.028663011 0.10643259 0.04642538
0.081391096 -0.12195648 -0.38720447 0.11727239 -0.15005139 -0.12182401 -0.46819803 0.09075732
0.3106338 0.13721304 0.6872364 -0.024275964 -0.16678266 0.43377012 -0.120720126 0.40083152
-0.19586158 0.35968986 0.006369561 0.8840295 -0.0682501 0.01587064 -0.56435376 0.437689
-0.62460387 -0.1214233 -0.7487391 0.15350232 -0.06640678 0.09560777 0.6093352 0.037187047
0.20395799 0.31325182 -0.17590256 0.14488377 0.11130783 0.41686603 -0.20299752 0.6312313
00000000: 14de cd3c 1abe 2b3e 0558 68be 90c5 553d
00000010: f8f6 b23c 80c5 58bc cb53 54be 4cc3 f23d
00000020: eb6b 4cbe 80e9 01bc 17cc 46be 97e3 68bd
00000030: 0504 07be 0853 63be 5e14 463e e218 6fbe
00000040: acd5 31be 82f8 093e ba1e 4bbe 88b6 07be
00000050: fed7 b8bf 144e ec3a 6bd2 b2bf 0d5f 75be
00000060: 8ecb d63e ddef ebbd 505b 7b3e 3534 363c
00000070: d674 203e d869 683e bcb3 763d 92f6 143f
00000080: 6a8e 9dbd 9cc1 863e 0acf eabd 73c3 ef3e
00000090: 0122 0f3e 592c b9bb fd7e 7fbe 8922 9f3e
000000a0: bac2 51bf b05c 3dbe 02a4 37bf 5b55 e4be
000000b0: 71ed 14bd 003b 053e e20e 5e3b ef07 15bd
000000c0: 5716 14be 2e51 d83d 0191 7d3d 8c7b 20be
000000d0: 503d 42be 9f4f 523d 4a12 8fbd 6025 743e
000000e0: 7dc2 c4bd 62ac a1be 163c aebe d648 24be
000000f0: f188 073f b8c2 923d 5e3a 5d3f 5838 453f
00000100: 0755 b43e 9614 8bbe 21fc 14bf 2b47 a43d
00000110: c944 9cbe 2a1a 983d aa28 e93d 9edc 643a
00000120: 5b77 933e 8e8f b5be c8df 3d3d 778f 43bf
00000130: 601b 0ebd c9a5 4cb9 8941 a03d eaa3 ebbe
00000140: 2dbb aa3d 0cc9 3b3e 99d4 d03c 4c4a 843d
00000150: 4f8a e2bd 0043 52be f542 efbb e02b 893b
00000160: cf6a ebbd 10a8 6a3d 60db 22bd bb9d 813d
00000170: 0247 5c3e dc50 d93d 288e 003e e407 febd
00000180: 29d5 52be 46fe 2c3c 4b24 8bbe fde2 20be
00000190: 5fa4 f7be 5d65 313d 8154 0cbf 8419 203e
000001a0: ff95 d9be f7db 58bb f709 ae3e 2641 463e
000001b0: ac22 cb3c 0d88 f1be eced a1bd 506c 113e
000001c0: e614 efbd 3d0b a8bd 3887 553d f5b1 1d3f
000001d0: 9a18 27bd fea0 04bd a853 f2be 54a0 75be
000001e0: 6682 26be 0a8f c8bd 9585 4ebe f3b6 80be
000001f0: 25f0 1ebe 5645 01be 21ae 28be d635 113e
00000200: 3f1c 55be 0b34 acbe a87f 1abd 09c0 01be
00000210: c4d0 2d3e 8cb9 aabe 80c3 603b af7e fbbe
00000220: ac8e 373e d1c0 d3bd 3720 c9be cda7 bb3d
00000230: 9a0e 9bbb 80d8 583e 59ee 80bd e2a6 9a3c
00000240: 57cc f5bd dcb0 803d 7532 983d 082d babd
00000250: bf03 2c3d 02d5 fd3d 9e7a 0fbe 2f64 13be
00000260: ab14 3a3d 6fae c63d 5409 263e 5e1b 76be
00000270: 845b 8cbd feb3 27bd 2cac 04be e202 d9bd
00000280: 3da5 203f c49b e53d 0984 f43e 7017 f43e
00000290: b3dc 87bd fa4d 64be 3c44 f3be e604 633d
000002a0: 94c8 b0be b656 7cbe 8ed8 b73d f1e7 a2be
000002b0: 31da da3b 7aa9 ccbe 2ec7 8cbd 130b 67bf
000002c0: 6efc 2b3e ec7a bbbc 5dfb 943e d4b7 d0be
000002d0: 7020 6e3e 3f09 dabd 1587 b73e eaff 81be
000002e0: 36ac 8bbd e20a 573e 2cc3 d53e d5e6 52be
000002f0: 84d1 99bf c644 b93e 1cc5 d73d 66dc 693e
00000300: 44e0 ccbd 23eb 94bf 5ae8 613e 1a5d 7bbf
00000310: 81ce 07be 0ead 84be 703e 3cbf c336 a9be
00000320: eda9 17be 9478 4abe 1714 80be 021f 99be
00000330: f8d4 313d 2104 d93c f8bb 4bbf 7728 2fbe
00000340: f3ae b1be 4a13 b93d 7f60 af3d d665 54be
00000350: 4689 03be b1ce ea3c 54f9 d93d 8a28 3e3d
00000360: 60b0 a63d 52c4 f9bd aa3f c6be 822c f03d
00000370: 12a7 19be de7e f9bd a7b7 efbe f9de b93d
00000380: 650b 9f3e 9381 0c3e baee 2f3f 63de c6bc
00000390: 13c9 2abe 1e17 de3e 1d3c f7bd ca39 cd3e
000003a0: f08f 48be 4529 b83e c0b7 d03b c24f 623f
000003b0: b5c6 8bbd 2503 823c 7d79 10bf c618 e03e
000003c0: 0ae6 1fbf c7ac f8bd 5ead 3fbf b62f 1d3e
000003d0: 4700 88bd 02ce c33d 64fd 1b3f 7251 183d
000003e0: 5dda 503e 8b62 a03e cd1f 34be 695c 143e
000003f0: 5cf5 e33d 776f d53e 95de 4fbe 6098 213f

network.6.bias f4 [20]
-0.32100785 0.027443914 -0.12872717 0.52559257 -0.20384301 -0.0024242722 -0.2948258 -0.27959844
0.36732 -0.2879269 -0.24205022 0.12033638 0.022001794 -0.3697016 -0.24740955 -0.073638
-0.77792543 -0.025505582 -0.6212248 0.1724373
00000000: 245b a4be 0fd2 e03c 0ed1 03be 3c8d 063f
00000010: 39bc 50be 8ae0 1ebb 68f3 96be 8727 8fbe
00000020: 5e11 bc3e 286b 93be 03dc 77be ec72 f63d
00000030: 1b3d b43c 8749 bdbe ee58 7dbe 85cf 96bd
00000040: 1f26 47bf 15f1 d0bc 9708 1fbf 6793 303e

network.9.weight f4 [1, 20]
-0.060015563 0.18724027 0.0077108396 -0.32205927 -0.12878634 0.14973575 -0.00012935553 -0.00083905534
-0.2700027 -0.1584379 -0.011752992 0.24174117 0.18206303 0.024522612 -0.17335352 -0.0049027987
0.010808917 -0.00029343425 0.31087732 -0.27044952
00000000: e1d2 75bd eabb 3f3e 36ab fc3b f4e4 a4be
00000010: 91e0 03be 5454 193e 9ca3 07b9 0df4 5bba
00000020: cb3d 8abe 8b3d 22be 9f8f 40bc ff8a 773e
00000030: bb6e 3a3e a5e3 c83c 9683 31be a8a7 a0bb
00000040: e217 313c 14d8 99b9 502b 9f3e 5c78 8abe
