experiments/exp_sim_binary_m2/saved_models/run_0/bootstrapped/m2_3.pt (torch, 6449 bytes, 7 tensors)

network.0.weight f4 [20, 3]
000000 48 bc 99 3f 76 1a 7b bf 34 1e 93 be bd ed 30 3f
       1.2010584 -0.9808725 -0.2873398 0.6911276
000010 07 45 c0 3e cf ed 00 bf c8 28 43 3f 04 5b ff be
       0.37552664 -0.5036287 0.762341 -0.49874127
000020 06 f7 7a bf 52 38 a9 3e 14 e6 22 be a0 46 8d 3c
       -0.9803318 0.3305078 -0.1590808 0.01724559
000030 28 49 95 3f 70 86 2d bf b6 87 2f 3f 45 35 4d 3f
       1.166295 -0.6778326 0.68566453 0.8015941
000040 58 1e 5e be f6 e0 ab bc 3d 91 00 bf eb 4c 5d 3f
       -0.21691263 -0.020981293 -0.50221616 0.8644549
000050 ac e3 87 bf 20 76 27 bf f1 2d 6e be 15 39 99 bd
       -1.0616355 -0.6541462 -0.23259713 -0.07481591
000060 45 d9 8a 3f 98 6b 2c bf d2 3d 1a 3f 94 73 2b 3f
       1.0847555 -0.67351675 0.6025058 0.66973233
000070 85 e8 ff 3e 47 8b 27 bf e3 ef 25 bf a8 03 00 be
       0.49982086 -0.65446895 -0.64819163 -0.12501395
000080 59 39 23 bf 8c cb 48 be 80 34 22 bc 26 31 b3 be
       -0.6375938 -0.19608897 -0.009900212 -0.34998435
000090 ff ab 9e bf 2b 68 50 bf a7 53 4c bf 6b 6b 2b be
       -1.2396239 -0.8140895 -0.79815143 -0.16740195
0000a0 15 9b 15 3e f9 22 06 3e e6 cf d8 be 20 01 bd bd
       0.1460994 0.13099279 -0.42346114 -0.0922873
0000b0 34 ce 30 be ec 08 8c 3f 82 29 7d 3e aa 19 88 bf
       -0.1726616 1.0940223 0.24722865 -1.0632832
0000c0 18 7a 12 bf 52 d0 19 bf 04 e4 8b 3e b3 18 6d be
       -0.5721755 -0.60083497 0.273224 -0.23153953
0000d0 60 a0 e5 3c 49 63 13 be cf f6 7b 3f 1a f1 26 3f
       0.028030574 -0.14393343 0.98423475 0.6521164
0000e0 91 9a 3f 3f 0f bb c0 3f 41 1c 64 bf 5e f3 6e bf
       0.74845225 1.5057086 -0.8910561 -0.933401

network.0.bias f4 [20]
000000 84 5e ba be 77 85 2b 3f 11 35 23 3f de d7 ce be
       -0.36400235 0.67000526 0.6375285 -0.4039907
000010 02 b6 12 bf 0d 1d f0 bd 31 a5 d5 be 4e fc 84 3e
       -0.5730897 -0.11724291 -0.41727594 0.25973743
000020 c0 fa d4 3e 9f 7a 18 bf 37 b6 29 3e c1 41 0c bf
       0.41597557 -0.59562105 0.16573416 -0.5478783
000030 68 e2 0a bf bc eb ec be bc f9 f3 be fd b2 80 bd
       -0.5425172 -0.462736 -0.4765147 -0.06284139
000040 07 2a 09 3f 45 23 88 be 45 96 64 3e 44 0d 21 3e
       0.53579754 -0.2658941 0.22322948 0.15727717

network.3.weight f4 [20, 20]
000000 ec 17 3c 3e 03 a1 a8 3c 0c f2 32 bc 76 e4 0f be
       0.183685 0.020584589 -0.010921966 -0.14051995
000010 58 7b 43 3d 25 6c 00 3e 80 ce fa bc 7a 75 8c 3a
       0.04772505 0.12541254 -0.030616045 0.0010716163
000020 b3 dd 47 bc f9 ec 37 be bc d5 52 be d0 41 73 bc
       -0.012198853 -0.17961492 -0.20589346 -0.014847234
000030 24 52 7f bd bc 27 b9 bd da 11 b4 bd b0 8a e7 3d
       -0.062334195 -0.09040782 -0.087924674 0.113057494
000040 50 b2 f9 3b b4 ac b3 bd 1d 7f 73 be c7 16 41 be
       0.0076201335 -0.08773175 -0.23778959 -0.18856345
000050 5c 84 67 bd b0 eb 12 be 11 0e 9c bd ec 1e 01 be
       -0.056522712 -0.1434772 -0.076198705 -0.12609452
000060 62 df 9a 3e 3e ff 3d be 4f dc e1 3d 4d 48 04 be
       0.30248553 -0.18554398 0.11028349 -0.12918206
000070 56 92 3c bf 6e b2 b1 be 26 5c d1 3d 70 8f 48 3e
       -0.7366079 -0.34706444 0.10222654 0.19585967
000080 cd bd 8b bf cb 6f 21 3e c6 ff 25 be 3f 6e f2 be
       -1.0917298 0.15765302 -0.16210851 -0.47349736
000090 41 76 94 bd 6f 96 6b bd 28 ef 0c bf 19 37 6c bf
       -0.07249118 -0.05751651 -0.55052423 -0.9227157
0000a0 7a 70 02 be 78 50 55 3e e0 1c 6e 3c d0 a5 03 3e
       -0.12738219 0.20831478 0.0145332515 0.12856221
0000b0 61 d6 eb bd c3 d2 10 be 60 39 61 be 3e 7b c9 3c
       -0.11515499 -0.14142899 -0.21994543 0.0245949
0000c0 4c 15 36 be 00 09 bd bd 58 1a ed 3b 72 0b 2a 3e
       -0.17781562 -0.09230232 0.0072358064 0.16605929
0000d0 4b e4 f0 bd 5a 0e 82 bd b0 ab 95 bc 60 4d 2b be
       -0.117622934 -0.063503936 -0.018270344 -0.16728735
0000e0 c0 76 44 bd 97 42 ac be 56 09 1c be 30 9d 37 bc
       -0.04796481 -0.33644554 -0.15237936 -0.01120691
0000f0 bb 23 81 bc f0 f7 d2 3e 1a 81 94 3e 5c b6 61 3e
       -0.015764108 0.41204786 0.29004747 0.22042221
000100 d6 e5 86 be 2d 9f b4 be 53 86 5e 3f 01 ba 8f 3e
       -0.26347226 -0.3527769 0.8692371 0.28071597
000110 9a 28 df bf 6a a4 18 3e 16 55 2a 3e e0 de 14 3e
       -1.7434266 0.14906469 0.1663402 0.14538145
000120 65 ea 04 c0 89 58 b2 bd fc 95 bd 3d a8 f5 05 be
       -2.0768063 -0.08708293 0.09257123 -0.13081992
000130 58 b4 54 ba bf 58 01 3e 7d b7 48 bf 29 01 57 bf
       -0.00081140315 0.1263151 -0.7840498 -0.83986145
000140 13 d5 1f bf 2d 67 de 3a 62 40 fe bf 29 fc 12 be
       -0.624345 0.0016968005 -1.9863398 -0.14354004
000150 92 44 bd 3e 5b e5 17 be 19 83 59 3f 40 fe 7a 38
       0.36966377 -0.14833586 0.84965664 5.9841434e-05
000160 4c 93 2a 3f 3e 81 2d bf 9e 91 4e 3f 98 48 aa bd
       0.6663101 -0.6777533 0.80690944 -0.083146274
000170 a0 be 1d bf 02 d9 07 3d ca 36 04 3e 4d e4 24 bf
       -0.61618996 0.03316594 0.12911525 -0.6441086
000180 6b 88 a8 be 57 c3 1a 3e 82 63 11 3e 76 39 2d c0
       -0.3291658 0.15113579 0.14198115 -2.7066321
000190 b8 93 85 be 78 d5 fe bf 42 c8 38 bf 2e 7a a4 bd
       -0.26089263 -1.9908895 -0.7218057 -0.080311164
0001a0 d2 b2 a6 bf db fd 18 bf e3 57 4b 3f ed e1 81 3e
       -1.3023322 -0.5976235 0.7943098 0.2536768
0001b0 1f ba 84 3f a6 63 2d be b9 cf 23 3d 7c 1c 44 be
       1.03693 -0.16932544 0.03999302 -0.19151491
0001c0 9f 77 21 3f 3b 34 85 3d 40 f1 40 3d 5d 35 51 3e
       0.6307315 0.06504103 0.047105074 0.20430513
0001d0 57 fb d9 3e 9c 57 93 3c d1 5c 01 be 0b 0e 5b bd
       0.4257457 0.017986111 -0.12633063 -0.05348019
0001e0 67 ec 6a bd 94 3e 95 be a3 f0 80 bc c4 46 2d be
       -0.057354357 -0.29149306 -0.015739745 -0.16921526
0001f0 ba 84 3d bd 19 a3 27 be f2 db 35 be 3f 59 92 be
       -0.046269156 -0.1637081 -0.17759684 -0.28583714
000200 2f 02 76 3d 98 29 08 be 63 2c 6a bc 90 00 37 3e
       0.060060676 -0.13297117 -0.014292809 0.17871308
000210 12 cc 15 be 9e 49 00 be d8 34 a6 3d 8f 72 31 3d
       -0.14628628 -0.12528083 0.08115548 0.043322142
000220 3c e0 dd be 62 1c 49 bd bf f6 6b 3d 78 9b 5c 3e
       -0.4333514 -0.049099334 0.057608362 0.21543682
000230 cb a7 2e 3e b6 64 3f be 05 4e ec 3e 56 c1 3b be
       0.17056195 -0.18690762 0.46153274 -0.1833547
000240 ff 59 b3 be b3 1a be be 7a d8 bf bd a4 48 0b 3e
       -0.350296 -0.37129745 -0.093674615 0.13601929
000250 40 27 56 bf 6b 49 b4 be 44 ab 36 bd 06 3f 0d be
       -0.8365364 -0.35212263 -0.044596925 -0.13793573
000260 53 08 b2 bf c2 2d 87 bd d0 7e f0 3d 44 f1 73 be
       -1.390879 -0.066005245 0.117429376 -0.23822504
000270 33 6e dc 3e af 10 8e 3d 6b 35 ce bf 24 77 1e bf
       0.43052825 0.06936776 -1.6110052 -0.61900544
000280 01 e3 d3 3d 12 00 ca 3e ff 97 07 3f 7a 81 00 3e
       0.10346032 0.3945318 0.529663 0.12549391
000290 0a cf 1d 3d c6 ab 20 be 70 88 fa 3e e7 19 b6 3e
       0.038527526 -0.15690526 0.4893222 0.35566637
0002a0 35 57 68 bf 08 a5 ad be c4 e5 a7 3e 34 45 90 bd
       -0.9075807 -0.3391497 0.32792485 -0.070444494
0002b0 92 a9 bd bf 53 18 9a bc 88 be c0 bc 9a ef 1a bf
       -1.4817374 -0.018810427 -0.023528352 -0.6052185
0002c0 3c dd ec 3e 6f 6f e8 bd 12 32 bf bf d4 db 1a bf
       0.46262538 -0.11349379 -1.4937155 -0.6049168
0002d0 eb 03 4a bd 04 bb 42 be e5 2e 0b be f0 d6 9a 3d
       -0.049320143 -0.19016653 -0.13592108 0.07560527
0002e0 f5 50 e1 bd 63 15 73 bd b4 52 70 bd 35 91 47 bd
       -0.110017695 -0.059346568 -0.05867262 -0.048722465
0002f0 bb d5 f7 bd 39 f3 85 3e 6d 75 95 be f8 49 d4 3d
       -0.12101313 0.26162127 -0.2919115 0.10365671
000300 e0 22 f5 3c c6 57 04 3d bc 31 f9 bd 63 8e 3f 3d
       0.029923856 0.03231027 -0.12167689 0.04676665
000310 1f 85 1f 3e 58 be 04 be ee 26 37 3d 4b e6 cd bc
       0.15578125 -0.12963235 0.04471486 -0.025134226
000320 a0 ca 3e be 1d 7a ec 3d fb 92 f0 bc 60 66 34 3c
       -0.18631983 0.11546729 -0.02936696 0.011010736
000330 f2 49 cf 3d e9 1e b2 3d f4 e7 c2 3d 8b 07 74 be
       0.10121526 0.08697302 0.09516898 -0.23831002
000340 bd d2 38 be 02 f3 83 3d 70 4a dd 3c 78 e6 47 be
       -0.1804914 0.064428344 0.027013034 -0.1952151
000350 91 32 e7 bd ae 56 86 3d a0 45 cf 3d d0 0a 57 be
       -0.11288942 0.065595016 0.10120702 -0.21000218
000360 0a 01 94 ba a5 dc c7 3c cb b4 4f bd 94 a7 10 3e
       -0.0011291814 0.024397204 -0.050709527 0.14126426
000370 76 af 5e be ba e4 74 3e 48 ab 82 be 80 4a 1e 3e
       -0.2174662 0.23915377 -0.25521302 0.15458107
000380 a5 15 a7 3e ef d1 60 bc 01 37 08 3e d8 2d dd be
       0.326337 -0.013721927 0.13302232 -0.43199039
000390 33 88 b3 be c4 44 00 be 47 1d ce bd c0 b2 19 3d
       -0.3506485 -0.12526232 -0.10064178 0.037523985
0003a0 0c e0 39 bf 09 80 cf bd 28 99 84 3d 81 50 ca bd
       -0.72607493 -0.10131843 0.06474525 -0.09878636
0003b0 3e de 11 bd 63 86 e6 bd 7c c4 9c be 7b 64 85 bf
       -0.035612337 -0.11256101 -0.30618656 -1.0421289
0003c0 03 9a cc bf ee 28 84 3e 13 c8 0c c0 58 a4 13 bd
       -1.5984501 0.25812477 -2.1997116 -0.036045402
0003d0 d4 a7 2b 3f df 8f 66 3e 03 d3 16 bf a2 6c fb be
       0.6705296 0.2251582 -0.5891573 -0.49106318
0003e0 61 68 0e 3f 8a 5e ca be 48 18 9a bd 8c a4 37 bd
       0.5562802 -0.39525253 -0.075241625 -0.04483466
0003f0 f0 a9 cc 3c ac d2 2a 3d ca b8 0d 3e fb 27 d1 bc
       0.024983376 0.04170482 0.13840023 -0.02553176

network.3.bias f4 [20]
000000 60 5f 5c be 28 fd 0b 3b 4b f1 93 be 3d 85 62 3e
       -0.21520758 0.002136061 -0.2889503 0.22121139
000010 01 d6 77 be 87 19 87 3e d8 d3 46 be 57 45 00 3f
       -0.2420273 0.26386663 -0.1941675 0.50105804
000020 b0 c4 c5 3e 6d cc 75 be c9 c2 7c be 94 59 e2 bc
       0.38626623 -0.24003763 -0.2468368 -0.027630605
000030 46 bf 5a be 3b 7f 83 3e c8 8e ae be d6 0c 91 be
       -0.21362028 0.25683007 -0.34093308 -0.28330106
000040 a7 63 8d bd 06 a5 37 3d d3 3a b5 be 4b 89 0b 3d
       -0.06903773 0.044835113 -0.35396442 0.03406648

network.6.weight f4 [20, 20]
000000 f2 7a 49 3e 78 d8 f6 3d f8 80 1a be 1d 01 81 3d
       0.19675806 0.12053007 -0.1508826 0.062990405
000010 57 93 ef bd b8 01 24 3e 03 ac d3 bc 32 21 5c be
       -0.11698025 0.1601628 -0.025838858 -0.21497038
000020 43 6d 0d 3b 28 dc 19 3d 54 9c a5 3d 6e 1c 30 3e
       0.0021580018 0.037563473 0.08086458 0.17198345
000030 1f 16 38 3d 36 6b af be 09 96 92 bd df 06 76 be
       0.04494297 -0.34261483 -0.07157523 -0.24026059
000040 59 33 21 bd 64 e2 8a 3d 95 1b e9 3d 51 1d f4 3d
       -0.03935561 0.06781462 0.11382214 0.11919654
000050 00 bb 54 bb c0 61 dc 3d d1 c1 f0 bd a4 e4 ae 3d
       -0.0032460093 0.10760832 -0.117557175 0.085397035
000060 70 2b 46 3c de 7c 68 bd c4 37 61 3e c4 31 9d be
       0.012095317 -0.056759708 0.21993929 -0.3070203
000070 cc 3e 9a be d0 d3 bc bc 6c 7f 45 bd 54 56 57 be
       -0.30126035 -0.023050219 -0.048217222 -0.21029025
000080 32 fb ba bd e4 d9 fb bc f0 8a 37 bd 20 aa ab 3b
       -0.09129943 -0.030743547 -0.044810236 0.0052387863
000090 a0 cc c2 be ec f3 00 be 30 70 3f 3d 2c 5a 21 be
       -0.3804674 -0.12593049 0.04673785 -0.15757054
0000a0 2c f8 57 be 23 54 97 bd 6b 8a c3 3d 4b 1f c4 3e
       -0.21090764 -0.07389095 0.095478855 0.38305125
0000b0 5c 91 1a 3e 86 53 09 3b 95 89 c6 bd a8 2c 20 3f
       0.15094513 0.0020954325 -0.096942104 0.6256814
0000c0 46 20 11 3f c4 8c ba bd 86 4e 60 be 0f 21 59 bd
       0.5668987 -0.0910888 -0.21904954 -0.053010043
0000d0 3d 60 1b 3f 0f ed be 3d 05 de 28 3c b0 0d d1 3c
       0.6069372 0.09322559 0.01030684 0.025519222
0000e0 fa e4 5a 3e f1 6d 55 bc 09 df 9c 3e 0b 19 ad 3d
       0.2137641 -0.0130267 0.30638912 0.08452042
0000f0 5e a4 5d 3e 04 ea 8f bc 5d 59 90 be 52 99 9c bf
       0.21644732 -0.017567642 -0.2819318 -1.223429
000100 08 06 0d bf 18 d1 90 3e 94 28 71 3e 59 35 1a bf
       -0.5508733 0.28284526 0.23550636 -0.6023765
000110 f0 46 6c bf 2d dc 6b 3e 50 cb 4c be 59 7d 81 be
       -0.9229574 0.23033209 -0.19999433 -0.25290945
000120 79 c3 eb be 4b 7e d1 3e 1a fb 09 bf 3a 68 a8 bd
       -0.4604757 0.40916666 -0.53898776 -0.08223005
000130 92 fb cb 3e 51 a2 7c 3d 0c db 3b bf d5 11 c0 bd
       0.3984037 0.061678234 -0.73381114 -0.09378401
000140 06 54 d2 3d 8b e6 39 bc 33 be 7b bd 93 3e 4d bf
       0.102699324 -0.01134647 -0.061460685 -0.80173606
000150 eb 74 8d be c9 ef 8e 3e 38 9d 3f 3d 14 59 c7 be
       -0.27628264 0.27917317 0.046780795 -0.3893515
000160 38 33 1d bf 61 df 23 be 82 eb 10 be da d0 c9 bd
       -0.6140628 -0.16003181 -0.14152339 -0.098542884
000170 a2 41 bf be 57 30 8c bc 50 2a 88 3e 7f 6e 3b be
       -0.3735476 -0.017112894 0.26594782 -0.1830387
000180 fb a4 2c bd c4 9c f4 3d bb 5f 3b bd dd 83 a6 be
       -0.042149525 0.11943963 -0.045745593 -0.3252248
000190 70 ab 4a 3d c4 54 64 be 6a 63 50 3e 30 58 62 be
       0.0494799 -0.2229796 0.20350423 -0.22103953
0001a0 3e 80 34 be b5 0c f8 be 77 95 55 be 41 4c b3 bd
       -0.17627046 -0.48447195 -0.20857798 -0.08754779
0001b0 36 57 51 bc 84 0e 0d 3e d6 54 09 be 5c 47 00 3e
       -0.01277714 0.13775069 -0.13411269 0.12527221
0001c0 1b 65 bd 3d 46 aa 9f 3d c3 e1 ed bd a0 52 40 be
       0.092478 0.07796149 -0.11615326 -0.18781519
0001d0 22 0b 97 be 8b 76 22 be 46 c9 50 3e 84 11 a3 be
       -0.2950068 -0.15865533 0.2038928 -0.318493
0001e0 90 bb 3d 3e d4 99 f8 3d 48 05 5d 3e d8 c5 60 3d
       0.1852858 0.121387154 0.21584046 0.05487618
0001f0 cc 1c 06 be ba d3 08 be 38 49 38 3d 38 04 3a bd
       -0.13096923 -0.13362017 0.0449917 -0.04541418
000200 90 a4 fe 3c 20 61 be bb ae 1f 57 3e 5d b3 2d be
       0.031084329 -0.005809918 0.21008179 -0.16962953
000210 18 47 a2 bd 3f 5c 3c be d8 4e aa 3d 9a a5 9c bd
       -0.07923716 -0.18394564 0.083158195 -0.076487735
000220 5c 04 1b bd 64 33 05 be 67 fd 06 be 90 76 b6 3c
       -0.037845954 -0.13007885 -0.13182603 0.022273332
000230 d0 0e 51 3d 49 14 17 3e 00 13 74 3b 48 8d f6 bd
       0.051039517 0.14753832 0.003724277 -0.12038666
000240 c4 ce 19 bd 27 61 32 be d4 36 ee 3d e0 d9 a6 bd
       -0.037550703 -0.17419873 0.116315514 -0.08147025
000250 3a 25 0d 3e bc 86 3b bd 64 e3 32 be 37 e8 e1 bd
       0.13783732 -0.04578279 -0.17469555 -0.110306196
000260 e2 db 89 bd e5 34 91 3d 92 fe e7 bd 6a 75 5e bd
       -0.067313924 0.07090167 -0.11327852 -0.054311194
000270 e5 24 3e be 0c 41 a0 3d 87 12 6a bc 4d 32 08 be
       -0.18568762 0.07824907 -0.014286644 -0.13300438
000280 10 0f 76 3c 85 a9 4b bd 74 e5 2c bd a6 62 52 bd
       0.01501824 -0.049722213 -0.04221101 -0.05136361
000290 16 01 3f be 0b a2 60 be c6 9b a2 bd 2e 49 ab bd
       -0.18652758 -0.21936814 -0.07939868 -0.08363567
0002a0 7f 7b 42 3c 23 c0 63 be 80 c4 8d bb f0 75 1a bd
       0.011870264 -0.22241263 -0.004326403 -0.03771013
0002b0 45 02 c2 bc 74 50 d3 be 1c eb 47 3c e2 7d 17 3e
       -0.023682723 -0.41272318 0.012202051 0.14794114
0002c0 22 1f eb be 6a ef 64 3e 5c ee 05 3d 6e 57 3a be
       -0.4592219 0.22356954 0.03269802 -0.18197414
0002d0 bd ce 0c 3e 5a fc 58 bd e2 e9 a2 bd d9 7f 0c be
       0.1375074 -0.052975036 -0.07954766 -0.13720645
0002e0 c3 4a b4 bc 1e 56 4b be 90 aa a8 bd fd f0 0d be
       -0.022008305 -0.1985707 -0.08235657 -0.13861461
0002f0 ae 8f e6 3d 44 21 c9 3d 71 a5 3a 3e 29 c9 9c be
       0.112578735 0.09820798 0.18227173 -0.30622223
000300 19 cd ab bc c8 4b 8d be e2 c3 0f 3e 48 bc 5b 3d
       -0.020971822 -0.2759688 0.14039567 0.053646356
000310 ea 3c 87 bd be e3 80 3d 24 1f 05 3c 93 37 47 bd
       -0.06603415 0.062934384 0.0081251 -0.048636984
000320 37 ff d8 3b dc a6 12 be 6c ac 06 be 09 bc 0c be
       0.006622221 -0.14321464 -0.13151711 -0.13743605
000330 85 f5 85 be e3 cf 10 be 2f 88 c9 3d 12 fc 29 bc
       -0.2616388 -0.14141802 0.09840428 -0.01037504
000340 eb bf 14 be e0 0c ec 3c 10 4e ea bd b3 4a b5 bd
       -0.14526336 0.028814733 -0.114406705 -0.08852138
000350 e7 b2 fe bc 45 dd e5 bd 0d 6c db bd 2d 90 8a be
       -0.031091167 -0.112238444 -0.107139684 -0.27063122
000360 12 d5 a1 3b 58 41 9f 3b a4 38 6e be e7 ec 09 3b
       0.00493873 0.0048600845 -0.23263794 0.0021045746
000370 4b 03 f1 bd 63 77 18 bc 30 bc d9 3d b1 cb 76 3d
       -0.11768206 -0.009305808 0.10631597 0.06025285
000380 6b dc 81 be 09 c1 1c be ca 27 c1 bd da f2 d6 bd
       -0.25363478 -0.15308012 -0.09431417 -0.10495539
000390 70 87 2b bc 98 01 41 3e 00 15 11 3e 59 1c c5 3d
       -0.010469303 0.18848264 0.14168167 0.096245475
0003a0 f1 13 23 be 1d d6 3a 3c ca 55 57 be 97 37 07 be
       -0.15925576 0.011403588 -0.2102882 -0.132048
0003b0 92 5e eb bd 48 d2 7d 3d 24 e5 d2 3d 74 f1 70 be
       -0.11492647 0.061968118 0.10297611 -0.23529607
0003c0 84 13 1d be f3 05 d0 be e6 59 8b 3d 55 9f 09 bf
       -0.15339476 -0.4062954 0.06804256 -0.53758746
0003d0 c1 d7 24 3d 35 f1 1c 3f e4 ad 12 be dc ba 5e bf
       0.04024482 0.6130555 -0.14324147 -0.87003875
0003e0 bd 02 de be 74 96 36 3d e5 40 89 3d 1a 4f 4a 3e
       -0.43361464 0.044577077 0.06701831 0.19756737
0003f0 38 3f 85 be 6c 0b db 3e b9 01 7b be 9e ca 01 be
       -0.26024795 0.42782152 -0.24512376 -0.12674949

network.6.bias f4 [20]
000000 98 fc 55 be 67 01 a2 be 57 5d 93 be 62 31 0e bd
       -0.20897138 -0.31641695 -0.2878215 -0.034715064
000010 c4 ab 7b bc 73 4c 76 be 4e 3f 36 be ec 36 a9 be
       -0.015360776 -0.240526 -0.17797586 -0.33049715
000020 f1 1a b9 be ec 80 0d be 2c 3b dd bd 5c b0 71 be
       -0.36153367 -0.13818711 -0.10802302 -0.23602432
000030 ad 4b e3 3e 75 4b fa 3e d9 f3 c6 be f0 d8 f9 bd
       0.44393674 0.48885694 -0.38857916 -0.12199581
000040 fe 70 57 be 8f 56 12 be 55 08 03 be 24 a9 86 be
       -0.21039197 -0.14290832 -0.12796147 -0.2630092

network.9.weight f4 [1, 20]
000000 81 45 8b bd 90 41 4a 3d b1 f8 14 3e 5c b8 ad be
       -0.06800366 0.04937893 0.14547993 -0.33929718
000010 f5 61 33 bd 6e 08 ae bc 0c 34 1f be dc 6e 04 be
       -0.04379459 -0.021244254 -0.15547198 -0.12932914
000020 f5 a7 fb bd cb 34 89 bc 61 5d 36 be 7a f8 84 3d
       -0.12287895 -0.016748806 -0.17809059 0.06492706
000030 2a b8 93 be fa 74 ce be cf b5 8c 3d 3c ff 04 bc
       -0.28851444 -0.4032362 0.06870615 -0.008117493
000040 54 b0 23 3c 67 0f 86 bd 19 e3 8e 3e d0 dc 7e bd
       0.00999077 -0.065459065 0.27907637 -0.062222302
