experiments/exp_sim_binary_m2/saved_models/run_0/bootstrapped/y_0.pt (torch, 6839 bytes, 6 tensors)

y_transform.nn.layers.0.weight f4 [20, 4]
000000 f1 e6 0a bc ee cd cf be b8 e0 61 3e 60 8e 2d be
       -0.008477912 -0.405868 0.2205838 -0.16948843
000010 d4 94 b5 3e 62 da da be 6a 2f ce 3e f4 36 cf 3e
       0.3546511 -0.42744738 0.4027055 0.40471613
000020 4d 47 72 3f 1d 45 f9 be d2 82 d5 be 22 58 9c 3e
       0.94640046 -0.48685542 -0.4170137 0.3053599
000030 4b 55 fc 3e 4e 1e fd bc 0b 0d 85 3e f0 5e 1f 3e
       0.49283823 -0.03089824 0.25986513 0.1556356
000040 20 26 7d 3d a8 36 b5 be f0 92 91 bd 44 30 34 be
       0.061803937 -0.35393262 -0.07108104 -0.17596537
000050 ec ed 97 3f 9b 40 ca be f0 c6 a0 3e 68 3a 47 bf
       1.1869483 -0.39502415 0.31401777 -0.77823496
000060 47 f1 63 bf cf 77 c6 3e 42 0a 86 bf 0d d2 13 bf
       -0.89040035 0.38763282 -1.047188 -0.5774239
000070 95 2a c0 be 89 2f 24 3f c2 d4 f8 be 35 fb f4 bd
       -0.37532488 0.6413503 -0.4859982 -0.119619764
000080 04 71 05 3e 2a c5 ff be f8 67 f6 be 3e df c8 be
       0.13031393 -0.49955112 -0.48126197 -0.3923282
000090 3a b8 71 bf 4d 55 d2 3e 53 02 91 be dd e4 3c 3d
       -0.9442173 0.41080704 -0.28322086 0.0461167
0000a0 5c 31 18 3f ee 4e 69 bf 05 89 8c 3b 8c 0d 5c bf
       0.59450316 -0.9113606 0.004288795 -0.8595817
0000b0 78 84 40 3f 43 32 0f 3e 92 df cd 3e 8d df 53 3e
       0.7520213 0.13984017 0.40209633 0.20690747
0000c0 29 46 33 3f fa 87 0f 3e e1 69 c3 be f2 44 b9 be
       0.7002893 0.14016715 -0.38166717 -0.36185414
0000d0 06 84 1e 3f c6 1c 66 be ed ad 2a 3f d0 c6 e0 3c
       0.619202 -0.22471914 0.6667164 0.027438551
0000e0 a8 44 3c bf 0b 70 93 be fd 6e b4 3e e7 5d 00 3e
       -0.7354226 -0.2879642 0.35240927 0.12535821
0000f0 13 57 2f bf 32 25 39 3d 93 ae cd be 32 f5 da be
       -0.6849224 0.045201488 -0.40172252 -0.42765194
000100 ad 6d 6a 3f 55 05 8f 3d f3 4f bd 3e cd 41 51 bf
       0.915736 0.06983439 0.3697506 -0.8174103
000110 a4 1e 47 3e 88 2b eb 3d a0 76 6a 3d 5c 59 05 be
       0.19445282 0.11482912 0.057242036 -0.13022369
000120 8a 32 f6 3e a5 2a 29 bf 46 37 ff 3e c8 06 e3 be
       0.48085433 -0.66080695 0.49846858 -0.4434111
000130 40 f4 8f be 3d b7 c7 3e 63 78 3d 3b 6c a0 f8 be
       -0.28116035 0.39006987 0.0028910867 -0.48559892

y_transform.nn.layers.0.bias f4 [20]
000000 28 f6 75 be 3b 7d 64 3e 93 aa a8 3e c4 74 93 3d
       -0.24019682 0.22313397 0.32942638 0.07200006
000010 fa a4 85 be e5 63 4b be 16 51 8e be a7 b2 8e be
       -0.2610243 -0.19862325 -0.2779624 -0.27870676
000020 42 0e c7 be 0c 75 31 bf 59 cd 0d 3f ac 1c bc be
       -0.38878065 -0.69319224 0.5539146 -0.36740625
000030 f2 25 1d 3f 13 a5 c4 be 9d 6a ce 3d c3 8e f7 be
       0.61386025 -0.38407192 0.100789286 -0.48351106
000040 1e 5c 94 be dc d3 f6 be d3 e4 cf 3e 2c a3 47 3d
       -0.2897653 -0.4820851 0.40604267 0.048739597

y_transform.nn.layers.1.weight f4 [20, 20]
000000 48 54 a6 bd 17 96 5f 3d bd 8c 9f be 04 a9 8f 3e
       -0.08121544 0.054586496 -0.31162062 0.28058636
000010 79 da 40 be 25 6c e2 bf ea 0c 01 c0 4e d9 9e be
       -0.1883334 -1.7689253 -2.0164132 -0.31025165
000020 2e 44 3f be 88 c5 9e 3e 98 60 eb be 4b 98 16 bf
       -0.18678352 0.3101008 -0.45972133 -0.5882613
000030 c0 d4 34 3f 2c 37 8c bf c2 07 10 be 22 50 22 be
       0.7063713 -1.0954337 -0.1406546 -0.1585088
000040 42 26 cf bf cc b9 5f 3e a0 58 bf 3e 62 82 27 3e
       -1.618355 0.2184822 0.37372303 0.16358331
000050 0c 11 53 be 3e 16 00 3e 83 d1 02 bf 33 ec 84 3e
       -0.20611972 0.12508485 -0.5110094 0.25961456
000060 f4 88 4b 3e 88 8c 46 bf 56 57 60 bf 23 47 82 bf
       0.19876462 -0.77558184 -0.87633264 -1.0177959
000070 ac 07 a8 bd d7 1a 98 3f 89 44 85 bf e2 4c 80 be
       -0.08204588 1.1883191 -1.041154 -0.25058657
000080 25 c6 60 be 3c 74 83 be 6e 96 02 3e 48 fc 99 3d
       -0.21950586 -0.25674617 0.12752697 0.07518822
000090 cf f0 0d bf 66 f8 32 be 55 66 59 3e 1e 70 02 3e
       -0.5544557 -0.17477569 0.21230443 0.12738082
0000a0 13 ab ba bd dc b8 ec be 04 0d 2c be f1 ae 51 3e
       -0.09114661 -0.46234787 -0.1680184 0.20476891
0000b0 ee b1 e2 bd f8 44 89 bf 3d 2d 6b bf 76 3b 45 bc
       -0.11069094 -1.0724173 -0.91865903 -0.012038102
0000c0 f0 b1 d9 3c 44 18 29 bf 53 ee 5e be 91 7d 99 be
       0.026574105 -0.6605265 -0.21770601 -0.29978612
0000d0 55 34 10 3e 69 c3 c1 bd 04 29 17 bf 99 40 08 be
       0.14082463 -0.094611 -0.5904696 -0.13305892
0000e0 56 2c fb 3d 62 0d 46 3e fb 40 9d 3b ce 7d c2 3e
       0.12264316 0.19341043 0.004799006 0.37986606
0000f0 13 e0 26 3d f5 7b 1f 3e bb 63 8e bf a7 b0 6c bf
       0.040741038 0.1557463 -1.1124185 -0.9245705
000100 42 c3 5c 3e 82 39 ff be ef c7 9b 3e e2 22 8c be
       0.2155886 -0.49848562 0.30425975 -0.27370363
000110 65 77 63 be ca 07 b4 3d d2 65 69 bf 66 4f 0d bf
       -0.22213514 0.08790548 -0.9117099 -0.5519928
000120 08 03 21 bd 86 4d 59 bc 00 60 00 3c f5 df 63 3e
       -0.03930953 -0.013263112 0.007835388 0.22253402
000130 33 0e 1a 3d a8 27 50 bd 7b c1 94 bf 25 a9 b6 3e
       0.037611198 -0.05081907 -1.1621546 0.35675922
000140 6f f7 01 3d e1 c1 74 be 96 29 1e bd 74 fc a0 be
       0.03173011 -0.23902084 -0.03861388 -0.31442606
000150 55 d3 5f be 92 b3 4b bf 6d 6d 20 bf c6 04 72 3c
       -0.2185796 -0.7957088 -0.6266697 0.014771646
000160 50 83 a6 3d 27 2c af be 65 6e bd bd f1 32 7a be
       0.081305146 -0.34213373 -0.09249572 -0.24433495
000170 b4 6c 1c 3e eb 5e 0c bd 15 9e 99 3d cf af cc be
       0.15275842 -0.03427021 0.07500855 -0.3997788
000180 93 27 a1 3e 0c 8e 4b bd d6 65 81 bb 8e 3c 22 3e
       0.31475505 -0.049696013 -0.0039489074 0.15843412
000190 84 f3 4a bd 11 21 e2 3a 5e 02 04 be 6c dd 40 be
       -0.04954864 0.0017252286 -0.12891528 -0.18834466
0001a0 cf 38 59 be 30 71 44 bc 40 e5 37 bd 95 40 e1 ba
       -0.21213077 -0.011989877 -0.044896364 -0.0017185385
0001b0 d0 61 d0 3c 28 cd 66 bd da c6 20 3d 10 21 3c be
       0.025437266 -0.056347996 0.03925214 -0.18371987
0001c0 cf 9e cf bc c9 b3 20 be 1e f1 16 be d8 d0 a4 3d
       -0.02534428 -0.15693583 -0.14740416 0.08047646
0001d0 00 88 25 ba 22 d2 bd bd b2 82 a3 3d 1f 94 35 be
       -0.0006314516 -0.09268595 0.079839125 -0.17732285
0001e0 31 ed 18 be ee 4f 68 bc 61 38 17 bf 9f 08 8b 3e
       -0.14934231 -0.014179213 -0.590704 0.27155015
0001f0 bf 28 29 be a9 a5 16 3e b5 f3 f3 3e 2b ad 5d be
       -0.1651945 0.14711632 0.4764687 -0.2164809
000200 0c d9 5f be 7a 86 6f be 69 e5 4b bd 07 26 c4 bd
       -0.2186014 -0.23391142 -0.04977933 -0.09577566
000210 19 55 0e be 95 ab 25 be d5 39 9a be a8 3e 9f be
       -0.1389965 -0.16178735 -0.30122247 -0.3110249
000220 20 74 53 3d 00 75 25 bb 2a 10 6d be 68 9e 56 be
       0.051624417 -0.002524674 -0.23150697 -0.20958865
000230 d7 73 91 3d ff dc 33 bc ef 2d ef 3e 11 d8 47 be
       0.07102173 -0.010977983 0.46714732 -0.19516017
000240 ea e1 30 3e 51 82 fa 3e 61 77 0c 3f bc 42 e3 be
       0.1727368 0.4892755 0.5486966 -0.44386852
000250 78 6f af bc 66 a1 ac bd 6e f3 4d be 6d 7c 04 be
       -0.021415457 -0.08429222 -0.20112392 -0.1293809
000260 3b 46 ab 3d 1c e8 45 3d d3 e7 b8 bd 7c b5 5b bf
       0.08363005 0.04831706 -0.09028592 -0.858238
000270 09 15 ef bc b8 f6 cd bd ea 15 64 be 6d a2 b5 3e
       -0.029184835 -0.100568235 -0.22273985 0.35475484
000280 46 dd 30 be f3 16 5e be 04 98 8b 3d 04 0a 11 be
       -0.17271909 -0.21688442 0.06816104 -0.14163977
000290 22 0c b7 bd 11 7b ed bd b9 bb 4f 3e 6e 22 e2 bc
       -0.08937861 -0.11595739 0.20286454 -0.027604308
0002a0 c8 c1 2e 3d 86 9a 87 3d 48 70 7e be 64 f3 2a be
       0.042665273 0.0662127 -0.2484752 -0.16694409
0002b0 7b f7 d8 bd 9c a2 96 bd 57 d2 c6 bd 20 b5 00 be
       -0.10594078 -0.07355234 -0.09708088 -0.12569094
0002c0 68 de 64 3e a4 a4 b9 3d dc 7b e3 bd fd 55 58 be
       0.22350466 0.09064606 -0.11107609 -0.21126552
0002d0 c3 5b 66 3d 43 bb d4 be 78 5c 2d 3e 80 93 d9 bd
       0.056239855 -0.4154912 0.16929805 -0.106238365
0002e0 c7 b4 42 be fe 4b d8 3d cf cc 1d 3e e4 d4 f6 be
       -0.19014274 0.10561369 0.1541016 -0.48209298
0002f0 00 13 38 3e 2c d9 12 be ba 58 db bd 44 0a 23 3e
       0.17975998 -0.14340657 -0.107102826 0.15921885
000300 9e f2 d6 3d f9 4c 78 be 80 ba e5 3c b1 5f 18 be
       0.10495494 -0.24248113 0.028043032 -0.14880253
000310 b3 83 d8 3d 80 39 10 bc 8c 4e 1f be 96 16 c9 bd
       0.10571995 -0.008802772 -0.15557307 -0.09818761
000320 a6 54 4a be 0e 75 f3 3d c7 f4 bd bf 7e 42 df 3d
       -0.19758853 0.11887561 -1.4840325 0.10901354
000330 78 a9 b0 3d fd 46 1e 3e 8b 7f c9 bf 4a 34 30 be
       0.086260736 0.15456767 -1.5742048 -0.17207447
000340 8e bd 1e 3e 8e a7 7f 3e f1 a0 a6 bf 08 85 da be
       0.15501997 0.24966261 -1.3017865 -0.4267962
000350 55 09 89 3e a6 b8 18 3e 56 d7 74 3d 23 6a 68 bc
       0.26764932 0.14914188 0.059775673 -0.014185461
000360 81 1d 94 be 28 46 0b bd 36 b1 28 3f 47 b1 70 3e
       -0.2892876 -0.034002453 0.658954 0.23505126
000370 ff ff 45 3b 73 aa 19 bd b4 50 7b 3e 1e 01 36 bc
       0.00302124 -0.03751607 0.24542505 -0.011108665
000380 c7 10 5e be 20 c4 b6 bf 42 e2 95 3d 58 5c 7a be
       -0.21686088 -1.4278603 0.07318546 -0.24449289
000390 8a 35 60 be da 01 e0 bf 6d 8f 49 be 7e ad 89 bc
       -0.21895424 -1.7500565 -0.19683619 -0.01680636
0003a0 d5 2e 5f 3e ad 51 ec 3c 9e 31 8a 3d 47 71 14 bd
       0.21795209 0.02884754 0.06747745 -0.036240842
0003b0 f2 34 1c bd 56 86 8c bd 7a 21 0a 3d 67 54 b9 3e
       -0.03813643 -0.0686156 0.033723332 0.36197206
0003c0 97 19 d8 bd f9 a5 ae 3d 11 94 a8 3e 2e 6b c6 3c
       -0.10551756 0.085277505 0.32925466 0.02422103
0003d0 9c a2 20 be da 4d 15 3f b8 80 08 3f 6f ed 80 be
       -0.1568703 0.5832192 0.5332141 -0.25181147
0003e0 40 76 1d 3e 40 e8 00 bd 62 11 83 3e 22 4d 96 be
       0.1537714 -0.03147149 0.255992 -0.29355723
0003f0 66 16 67 3e 4f 5a 6f be 7a 5f 38 bc 30 24 0e bf
       0.22567138 -0.23374294 -0.011253232 -0.5552397

y_transform.nn.layers.1.bias f4 [20]
000000 72 38 e0 3d 7b 86 4e 3c 35 59 cc 3e a4 7b 19 3d
       0.10948266 0.012605305 0.3991181 0.03747143
000010 13 82 72 3e 33 12 c6 3c c5 1c 95 3e bc e2 53 3d
       0.23682432 0.0241786 0.29123512 0.051729903
000020 b1 31 da bc 6b 9e ef 3c 4e 99 5d 3d 9a e7 44 3e
       -0.026635023 0.029250344 0.05410128 0.19228974
000030 9c 00 44 bd 6a 17 7f bd 87 20 82 3d 31 c1 cd 3d
       -0.047852144 -0.06227819 0.0635386 0.10046614
000040 e3 e2 7e be a0 63 a9 bd 9c 3f cd bd 03 5e 10 be
       -0.24891238 -0.08270955 -0.10021898 -0.14098363

y_transform.nn.layers.2.weight f4 [31, 20]
000000 96 cf af 3f 18 f0 38 3f 7b 30 83 bf b0 28 37 3e
       1.3735225 0.72241354 -1.024917 0.17886615
000010 94 46 8a be 16 c8 1d 3e a9 7d f8 3d 4d b5 f7 3e
       -0.27006972 0.15408358 0.12133343 0.4838051
000020 21 cd c7 3d 7b d2 9f 3e 5e 2e 87 3f 54 cb 41 bf
       0.09755922 0.3121527 1.0561025 -0.7570088
000030 12 87 42 3e 9f e1 49 3e 96 62 a2 be a0 1a 03 bf
       0.18996838 0.19714974 -0.3171584 -0.512125
000040 ee 1f 03 3e 98 09 6c bf 8e d5 da 3e c2 9b 17 3f
       0.12805149 -0.9220214 0.42741054 0.5922204
000050 7e e3 b6 3c 51 ce 94 3e 69 d6 f6 bd eb 2d 78 be
       0.022325274 0.29063657 -0.12052614 -0.24236266
000060 b6 23 b6 39 78 aa 2b 3e 4d 58 46 be 5d d2 a4 be
       0.00034740352 0.16764247 -0.19369622 -0.32191744
000070 14 c1 38 bd a2 7b 9b 3d 1f 29 d5 bd 94 95 41 bd
       -0.04510601 0.075919405 -0.10408234 -0.04726179
000080 7b e1 21 be 7c 3a 03 3e 47 d4 ad bd 21 5b 6a 3e
       -0.1580867 0.12815279 -0.08487754 0.22886325
000090 d1 04 47 be dc 98 f0 bd 1a 0a fa be 64 69 58 bd
       -0.19435431 -0.117479056 -0.48835832 -0.052834883
0000a0 77 71 3c be 98 8b a7 3d da 50 0e 3d e8 f0 1d 3d
       -0.18402658 0.08180922 0.034745075 0.038559824
0000b0 af d5 b5 3c e5 a2 a0 bd 7c 1c 4d 39 32 0d f2 bd
       0.022196619 -0.0784357 0.00019560935 -0.11818923
0000c0 65 4c e0 bc 5e ef 1a 3d ac dd 6e be 52 d4 4d 3e
       -0.027380178 0.037825935 -0.23326749 0.20100525
0000d0 52 ac 7b bc 9d f1 1c 3e ab 82 8f 3e ef 50 80 3e
       -0.015360909 0.15326543 0.2802938 0.25061747
0000e0 d8 40 1a be 2d ad ad bc 32 0b 83 be 6b 27 cb bd
       -0.15063798 -0.02120074 -0.2559448 -0.09919628
0000f0 7b 67 4d be bc 84 3f 3c 1b 29 d1 3d e0 ff b7 be
       -0.20059006 0.011689361 0.10212918 -0.35937405
000100 2e ee 21 bd cf b5 9f bb ed 73 e2 3d d6 d4 7b 3d
       -0.039533786 -0.004873968 0.11057267 0.061482273
000110 a5 5b 42 be 5c d9 4f be f6 5c 29 bd cc 4d 2b 3e
       -0.18980272 -0.2029776 -0.04134842 0.16728896
000120 3c 74 b2 3c 3f bc 7e bd f7 12 52 3e 2a d0 98 3e
       0.02178394 -0.062191244 0.20515047 0.29846317
000130 02 81 7c be d0 2f fc 3d 5b 59 84 be 51 bc 8f be
       -0.24658588 0.12313807 -0.25849423 -0.28073362
000140 eb 82 7b 3d 31 cb 65 be 82 1f 1e bd 4c f6 31 3d
       0.06140415 -0.22440793 -0.038604267 0.043447778
000150 e7 e6 16 bd 41 83 13 be 98 29 2a bd c8 84 c0 bd
       -0.0368413 -0.14405538 -0.041543573 -0.09400326
000160 f2 56 e5 bd 9e 15 9a 3d 4a 84 a3 3d 18 51 28 bd
       -0.11198224 0.075236544 0.079842165 -0.041092962
000170 ce 12 9c bd bd 73 1e bd ea 22 08 3e 59 98 6d bc
       -0.07620774 -0.038684595 0.13294569 -0.014501655
000180 b8 15 2f be b8 65 48 3e dd 42 1a be 82 53 6b 3d
       -0.17098129 0.19570053 -0.15064569 0.057452686
000190 2e 24 ea bd fb cd 62 bd c5 06 f7 bd 77 f3 dc bc
       -0.11432682 -0.05537222 -0.12061838 -0.026971562
0001a0 ad b7 f7 bc a9 f6 39 be 4b 7a 5f 3e a5 10 78 be
       -0.03023895 -0.181605 0.21823995 -0.242251
0001b0 24 3f 63 bd 33 8f 8f bd 11 7b 14 3c cd 53 b6 3d
       -0.055480137 -0.07009735 0.009062544 0.089027025
0001c0 34 98 16 3d e6 32 83 3d f3 57 ac 3e 1a c7 49 3e
       0.036766246 0.064061925 0.3366085 0.19704857
0001d0 71 40 52 bd b2 cb 8b 3e 76 84 87 be b4 c1 3d bd
       -0.051330987 0.27303845 -0.26468247 -0.046327308
0001e0 16 38 0b bf 89 37 c4 be e9 17 58 3e 21 f2 1a be
       -0.54382455 -0.3832362 0.21102871 -0.15131427
0001f0 1f 38 1e bd 4a d8 33 be b7 a0 cc 3e 5e 72 5a bd
       -0.03862774 -0.17562976 0.39966366 -0.053331725
000200 c6 de 51 be 97 55 7d 3d 70 af f1 be 7e 35 33 3e
       -0.20495138 0.061849203 -0.4720416 0.17500874
000210 b4 b0 18 be 10 20 d2 3d a4 ec bf 3d b2 c0 6c bd
       -0.14911157 0.10260022 0.093713075 -0.057800956
000220 dc 74 58 be 3f 8a 06 3e 9f 04 60 3e cd f5 8d be
       -0.21138328 0.13138674 0.21876763 -0.27726594
000230 3e 8c 18 c0 ba 74 65 bf e4 0e ab 3f cb ef e7 3e
       -2.3835597 -0.89631236 1.3363919 0.45300135
000240 f9 7d 1d 3f e5 20 b1 3b c3 93 08 bf 37 da 94 3e
       0.61520344 0.0054055327 -0.53350466 0.29072735
000250 77 41 67 3d 99 2c 33 3d fc 6d 92 bf ce be 19 3f
       0.056458917 0.043743704 -1.1439815 0.6005677
000260 42 8d 35 bf 57 d3 d5 3c 48 b6 47 bf 2c 02 2f 3e
       -0.7091867 0.026101751 -0.78012514 0.17090672
000270 f5 2e 49 be e6 46 04 3f e7 66 00 3f 96 c4 5c bf
       -0.19646819 0.5167068 0.50157017 -0.86237466
000280 a1 de 98 bf 10 d7 56 bf 0d 07 73 3f ff eb e7 3e
       -1.1942941 -0.8392191 0.94932634 0.45297238
000290 28 63 f3 3e 55 0b 02 3e 21 b7 ab bc e8 06 a0 3e
       0.47536588 0.12699635 -0.020961346 0.3125527
0002a0 8a a3 22 3e e2 fb 94 3d 6c 77 42 bf 75 c8 c6 3e
       0.15882698 0.07274605 -0.75963473 0.38824812
0002b0 de 20 ee be 65 84 0d bc 19 c9 0b 3d 99 f5 84 3e
       -0.4650945 -0.008637522 0.03412733 0.25968626
0002c0 1c 6d 03 bd a7 c0 bd 3e 12 fc e1 3e d5 a3 c6 be
       -0.032086477 0.37061045 0.44137627 -0.3879687
0002d0 a9 b0 da bd e3 6b 29 bf 3a 81 e5 3d 9b a7 4b be
       -0.106782265 -0.6618025 0.11206289 -0.19888155
0002e0 7a 72 e4 bd e3 0d 50 3e 3e a5 2f be c2 31 e3 be
       -0.11154647 0.20317797 -0.17152879 -0.443739
0002f0 c3 bd d2 bd 20 a0 24 be 70 d4 75 be 56 1a 83 3d
       -0.102901004 -0.16076708 -0.2400682 0.064015076
000300 b7 d7 79 bd 75 0b ee bc 46 b0 8b 3d 1b 3d ed bd
       -0.060996737 -0.029058198 0.06820731 -0.115839206
000310 45 c2 23 3e 95 a4 b8 3d 5f bb 2d bd 63 ff 28 bd
       0.15992077 0.090157665 -0.04241502 -0.04125918
000320 c1 c5 ce 3c b3 34 ba 3d cf 5f b4 3d 02 38 b2 bd
       0.02524078 0.09092083 0.088073365 -0.08702089
000330 8b be 46 bd 0d 32 e1 bc d0 cf a3 3d 43 7a 19 be
       -0.04852156 -0.027489686 0.079986215 -0.14988045
000340 4c df 20 3e dd 14 de 3c ed 6a a9 bd e4 db 13 bd
       0.15710181 0.027109558 -0.082723476 -0.036098376
000350 5f d4 8f 3d b2 21 de 3d 6c c9 ce 3d 17 09 7c 3d
       0.070229284 0.108462706 0.10097012 0.061532106
000360 2a 6e 3e be ca 92 44 3e 06 46 25 be 11 4b 5a 3e
       -0.18596712 0.1919662 -0.16139993 0.21317698
000370 b2 cd db 3d 29 b9 50 3d b2 70 4a bd 05 8c 04 be
       0.10732593 0.050957832 -0.04942388 -0.12944038
000380 85 05 95 bd 76 e8 00 3d a4 69 4b 3e 08 05 44 bc
       -0.072764434 0.031471692 0.19864517 -0.01196409
000390 da 95 33 be 63 d8 87 bd f1 48 da bc aa 47 40 3e
       -0.17537633 -0.06633069 -0.02664611 0.18777338
0003a0 e4 9e 36 3a 94 24 ad bd c1 aa 9d 3d 72 61 a9 3d
       0.00069664256 -0.08454242 0.07698584 0.08270539
0003b0 57 1c 13 be f4 ed 02 3e b5 61 0d 3d f2 b3 1b 3c
       -0.1436628 0.12786084 0.03451701 0.0095033515
0003c0 dc d3 39 3e 97 58 48 bd f9 9e d9 bc b9 2c 33 be
       0.18147224 -0.04891261 -0.026565062 -0.17497529
0003d0 2b 94 d5 3c 0a 11 67 be db c6 47 be 22 b4 06 bb
       0.026071629 -0.22565094 -0.19509451 -0.0020554145
0003e0 e8 8b fa 3d 2b 79 82 3d 77 24 d9 3b fc 40 2c be
       0.12233716 0.06370767 0.0066266614 -0.16821665
0003f0 1e 77 c2 3b c5 c8 0f be ab be 69 3e 7d b7 6a 3d
       0.00593461 -0.14041431 0.2282664 0.057303894

y_transform.nn.layers.2.bias f4 [31]
000000 33 c9 0d be d6 99 b2 bc 56 90 2b bd 23 22 50 bb
       -0.13846283 -0.02180187 -0.041885696 -0.0031758628
000010 a3 0f 05 be 1e 53 23 3e 9b b7 e7 bd 15 e6 d2 be
       -0.12994246 0.15949675 -0.11314317 -0.41191164
000020 41 00 ce 3d fe dd 0e 3d eb 73 54 bc ce 22 60 3c
       0.10058642 0.034879677 -0.01296709 0.013680173
000030 3f b1 a9 bd 75 75 20 3e 2a ba 42 3e 27 7b 2e 3e
       -0.0828576 0.15669806 0.19016328 0.17039166
000040 f4 50 74 bc f0 e2 75 3e 81 4a b7 3e 47 c7 62 3e
       -0.014911879 0.24012351 0.3579903 0.22146331
000050 31 75 c4 3e 33 19 be 3d 51 58 35 3d 5d 2c ef bf
       0.3837066 0.0928215 0.04427368 -1.8685414
000060 93 9d 68 bf 42 20 2c bd 55 ef 98 3e 2e 5e a2 bb
       -0.9086544 -0.04202295 0.29870096 -0.0049550747
000070 0d 85 4d 3e 68 73 e3 3f 72 22 a1 3e
       0.20070286 1.7769594 0.31471592
