experiments/exp_sim_binary_m1/saved_models/run_0/full_data/m1.pt (torch, 6301 bytes, 7 tensors)

network.0.weight f4 [20, 2]
00000000: 405f 76bd 0069 32bd 3e18 44bf 1e82 55be
00000010: 3a44 eb3e 1f2d 91be 26d7 e03e 558f 8fbe
00000020: 03ad 193f 8aac 49bf 0d2f 41bf 2ad7 16be
00000030: ea43 55bf ad66 43bf 64d7 ed3e 3397 f13e
00000040: ee44 803f a854 23bf 0ba2 4d3f 08fd 0dbf
00000050: d1cc 35bf 081e 523f 0e41 2d3f 3b32 4ebf
00000060: 0598 2ebf 8228 8cbe bb01 773f 408d 27bf
00000070: b65a 51bf 0e73 453e cce3 d4be 6496 1ebf
00000080: 0f7d 8bbe 7827 e9bd fd54 c2bf 406b 3dbf
00000090: a0e7 3d3d 34b2 2abf 2820 c83e c1ca 5bbf
-0.06014943 -0.043557167 -0.7659949 -0.20850417 0.4595049 -0.28354737 0.43914145 -0.2803904
0.6002962 -0.787789 -0.7546242 -0.14730516 -0.83306754 -0.76328546 0.46453393 0.47185668
1.0021036 -0.6380105 0.8032538 -0.5546422 -0.7101565 0.82077074 0.6767739 -0.80545396
-0.68200713 -0.27374655 0.96487015 -0.65449905 -0.8177904 0.19282171 -0.41580045 -0.6194823
-0.2724385 -0.11384481 -1.5182186 -0.73991776 0.046363473 -0.66678166 0.39087033 -0.8585625

network.0.bias f4 [20]
00000000: 8cfa fabe e9fe 333e 2654 0bbf c22e 09bf
00000010: 5717 eb3e 501e 5f3e 9764 d5bc eb27 04bf
00000020: b0fb 17bf 7c78 1fbf 1bcd bcbe 2b1c 183f
00000030: 4a4f 34bf 562d 03bf b18b 603e d596 f6be
00000040: 74f7 b7be 023f 063e 3673 2dbf 0532 a43e
-0.49019277 0.1757771 -0.54425275 -0.5358697 0.45916244 0.21788907 -0.026048942 -0.5162341
-0.5936842 -0.6229322 -0.36875233 0.5941798 -0.70433486 -0.5124105 0.21928288 -0.4816195
-0.3593098 0.13109973 -0.6775392 0.32069412

network.3.weight f4 [20, 20]
00000000: a144 31be 238b 963c 0fc8 43be 1ec6 0c3e
00000010: 3af9 96be a777 40be 22e8 efbd 2639 843d
00000020: 7f17 44be 8645 ccbd c063 b83d 1009 a1bd
00000030: 64b8 bd3d 9f45 5cbe a9ff 41be 618f e8bd
00000040: de09 413e b505 523c 8713 27be c38e b63d
00000050: c06d 28bb 1028 bcbd e7c2 02be e2f6 97bd
00000060: 37a3 b43d dc23 24be 2beb 4cbe b1ce 39be
00000070: 27d3 343d 0edb 2d3e a0df db3b caee 6abe
00000080: 8ad6 0abe b940 1d3c 1459 b8bd 82fe 383e
00000090: 86e2 5ebe 7e0d 12be 5c4a 3abe 1241 cbbd
000000a0: ce6e 323e 2f81 3e3f 7f55 47be 30bb 1ebc
000000b0: 690a 6fbd 31ae b13e 70d5 5d3f 20e0 72be
000000c0: 026a ad3f 592c cd3f 862d a8be 73df 9abd
000000d0: a4b5 61bd 4142 ca3f 071d 8c3e b170 303e
000000e0: 7261 50be 9987 a3bf 8458 bdbd e7dd 71bd
000000f0: 30b3 5b3e f229 47bd 27e3 17be 0dc8 cbbd
00000100: 99a3 5abe 40b9 a9bc e7b8 47be d77e 55be
00000110: 8ab6 61be 3828 c53d 9c7a 82bb f3c3 2bbe
00000120: 381f 633d 4e06 293e a9cc 6b3b 44c9 41bd
00000130: 3056 873c 52c5 f1bd 6893 e63d bb79 1bbe
00000140: d439 e83d b95d 40bd aaba 0abe a8f8 3a3e
00000150: a2c4 4e3f 1234 87bd 1fbe cf3c d5fa bcbe
00000160: 065d 8bbf d112 9bbf 8838 88bf fb83 6c3f
00000170: 48e3 46be b0c6 9bbf fd63 82be 3e01 713c
00000180: e41e 55be 39a6 0fbe 7681 51be b606 eb3e
00000190: 1aa0 cebd 6cf5 fb3c 344f 36bd d882 033e
000001a0: 05c5 0a3f e297 533d dc73 383e 27c5 76bf
000001b0: 694a 62bf 5f3e 92bf aace a0bf e8da 0d3f
000001c0: 966c 3b3e 3231 aebf 5a56 c2bd 79a3 263e
000001d0: c188 26be ced5 12bc 345b ca3d 06af ff3e
000001e0: a4a9 633e 944a d03d e472 443e 8853 e4bc
000001f0: e17b 9d3b 141f bdbe fd06 c4bd f620 0abf
00000200: 698b e83e 5fe3 0b3f 2282 1e3e 25e4 1cbd
00000210: f4bf 1b3e b53e 063f 4ca8 3dbe 3f73 b2bb
00000220: 9037 6e3d 4ffa 503f 5838 b6bd 63b4 913e
00000230: 6a97 3f3e be7e 1c3d ea0d 1fbe c840 1b3e
00000240: 4d3b 543e c03e d83d 2575 fa3d 2b2f dfbe
00000250: 22a0 0a3f c0dc b83e 69dd 863e 9de2 5c3d
00000260: 8c57 37be 76c8 f93e 598c 233e 3e52 683d
00000270: ae50 393e 1593 503f 1896 c93d f593 043e
00000280: 5385 23be 1889 24bf f0ba 353c a413 5e3e
00000290: 2662 0a3f 44df 09bf f549 8dbf b1d1 bd3e
000002a0: 4a05 15bf f74b 2fbf c5bb e4bd 28ef 153f
000002b0: e0d9 583d 1de5 0cbf 3dac 93be 1441 0bbd
000002c0: 5a0b 20be 951d c4be fc98 163e 0d49 013f
000002d0: 5813 aabd da64 8c3e 52c6 f9bd dea2 87bd
000002e0: 1247 23bc 4081 5e3e 7e3a d53e 2b1d 9bbe
000002f0: 4f0e 353f 6990 dc3e e14c 14c0 b1bf ae3d
00000300: f82e 7c3d 77c2 a83e f510 40bd 972b b2bc
00000310: 4cfb 473e 9d30 9d3d 8872 6bbd e964 fb3e
00000320: edfa 3abe 19c0 043e ca9d 5c3e 2154 cdbd
00000330: 147d cf3e 7e53 483e d3a7 f1bd 912f b8be
00000340: 600e a93f 9021 823f 5494 993d 2ac1 db3e
00000350: e07a 413d 4718 943f f4c8 653e 3b60 28be
00000360: 680b f33d 731e fa3c 1c99 f13d 937f 443e
00000370: da4d abbd e65b 24be 4c44 373e 9a91 02be
00000380: cc0b 2dbf 96f3 f5bc bebf d7bd 60d9 0dbf
00000390: 1e8e f43e 0d90 843e bf3a e7bd d026 69bf
000003a0: 684e 603d f961 213f 9a1e 9cbd f004 48bc
000003b0: 0ecf aebd 33a8 823f a402 443e 8c69 adbe
000003c0: 40bd 9ebd 3d4c ebbf ead6 233e 7049 7cbc
000003d0: 82d7 a63e 601f 0ac0 bd22 51bf 3e85 0a3e
000003e0: bf13 8cbf ec06 42bf e972 bbbf 0d89 403e
000003f0: 10b2 a4bc a74e 8dbf b349 f1bf e6d0 1fbe
-0.17311336 0.018376892 -0.19119285 0.1374745 -0.2948702 -0.18795644 -0.11714198 0.06456213
-0.19149588 -0.09974198 0.09003401 -0.07863057 0.09263685 -0.21510933 -0.18945183 -0.11355472
0.1885142 0.0128187435 -0.16316043 0.089139484 -0.0025700182 -0.09187329 -0.12769662 -0.07420136
0.08820193 -0.16029304 -0.20011584 -0.18145253 0.044146683 0.16978094 0.006710008 -0.22942653
-0.13558403 0.009597951 -0.09001365 0.18065837 -0.217661 -0.1426296 -0.18192428 -0.099245206
0.17425081 0.7441587 -0.19466208 -0.009688184 -0.058359537 0.3470321 0.86653805 -0.2371831
1.3547976 1.6029159 -0.32847232 -0.07562151 -0.055104867 1.5801469 0.27365896 0.17230488
-0.20349672 -1.2775756 -0.09245399 -0.059049513 0.21455073 -0.048623987 -0.14832745 -0.09950266
-0.2135147 -0.020718217 -0.19504128 -0.20849167 -0.2204229 0.09626812 -0.0039819013 -0.16773967
0.055449694 0.16506311 0.0035980141 -0.047311082 0.01652059 -0.11805214 0.11258584 -0.15183155
0.11339155 -0.04696438 -0.13547769 0.18258917 0.8076879 -0.066017285 0.025359211 -0.3691012
-1.0887764 -1.2115117 -1.0642252 0.92388886 -0.19422638 -1.217001 -0.2546691 0.014709769
-0.20812565 -0.14028253 -0.20459542 0.45903558 -0.10089131 0.030756675 -0.044509128 0.12842882
0.5420688 0.05165852 0.18012947 -0.9639458 -0.8839479 -1.1425284 -1.2563069 0.5541215
0.18303141 -1.3608763 -0.094891265 0.16273297 -0.16263105 -0.008962108 0.09880677 0.4993822
0.22232682 0.10170475 0.19184452 -0.027871862 0.0048060273 -0.36937773 -0.095716454 -0.53956544
0.45418862 0.54643816 0.15479329 -0.038303513 0.15209943 0.52439433 -0.18521231 -0.0054458673
0.058158457 0.8163194 -0.088974655 0.28457937 0.18710104 0.03820681 -0.15532652 0.15161431
0.20725746 0.105588436 0.12229375 -0.43590674 0.54150593 0.3610592 0.26340798 0.053927053
-0.1790449 0.48785752 0.15971507 0.056719057 0.18097183 0.8147443 0.09843081 0.12947066
-0.15968828 -0.6427169 0.011091933 0.2168718 0.5405601 -0.538563 -1.1038195 0.37074044
-0.58211195 -0.6847529 -0.11168627 0.5856805 0.052942157 -0.550371 -0.28842345 -0.03399761
-0.1562933 -0.3830382 0.14706796 0.5050209 -0.08304471 0.27420694 -0.1219603 -0.06622861
-0.009965675 0.21728992 0.41646188 -0.3029569 0.7072496 0.43078926 -2.3171923 0.08532656
0.06156823 0.32960865 -0.04689117 -0.0217493 0.19529456 0.07675288 -0.057482272 0.49100426
-0.18259783 0.12963904 0.21544567 -0.10025812 0.40525115 0.195631 -0.11799588 -0.3597379
1.3207512 1.0166492 0.074989945 0.4292081 0.047236323 1.1569909 0.22439939 -0.16442959
0.1186741 0.030532097 0.117967814 0.1918929 -0.083644584 -0.16050681 0.17897147 -0.12750855
-0.67596126 -0.030023377 -0.10534619 -0.5540981 0.47764677 0.25891152 -0.11290502 -0.9107485
0.054762274 0.6304012 -0.07623024 -0.012208208 -0.08535586 1.020758 0.19141632 -0.33869588
-0.0775094 -1.8382641 0.15999952 -0.015398368 0.32586294 -2.158165 -0.8169363 0.1352739
-1.0943526 -0.7579181 -1.4644443 0.1880228 -0.020104438 -1.1039628 -1.8850616 -0.15607032

network.3.bias f4 [20]
00000000: 4480 88be f5e2 82be 28b1 6fbe 81dd 4bbe
00000010: b05d 8f3e a9d8 d03e c4b4 d4bd c42e 06be
00000020: 3449 d73e 3165 84bd bc9a aebe 9739 67bf
00000030: 9b51 183e 7c4b 523e ebdf eabd d84b 3dbf
00000040: ba57 96be e508 a93e 4b89 77be ba98 f2bd
-0.2666036 -0.2556378 -0.23407423 -0.19908716 0.28001165 0.407903 -0.10386041 -0.13103777
0.42048037 -0.06464613 -0.34102428 -0.9032225 0.1487488 0.20536608 -0.1146849 -0.73943853
-0.29363805 0.33014598 -0.24173467 -0.118455365

network.6.weight f4 [20, 20]
00000000: 397d 72be ce50 00be 2d65 3f3e d927 ebbd
00000010: b15e 4b3e b6ae 813e 5c80 fe3c 9269 ac3d
00000020: e813 1fbe 2e82 f93e d463 83bc 9a2f 99bf
00000030: 1505 b9bf 6e10 67bf 8031 783d bdc7 39bf
00000040: 745d 003e dc73 c5be d1b8 86bd de7f 2cbe
00000050: b321 ac3d 246a 153e 5cfb 55be edc4 3c3c
00000060: 895d 40be a95c 3dbe 23c1 373e 9e61 373f
00000070: 236f 05bf 9b3d 37bc 0310 d43b 18e5 d53d
00000080: 9970 fdbd 63a6 d7be 0332 693e 475b 71be
00000090: ad7a 28bd 2d26 61be 488d b9bc bdb2 f6bd
000000a0: c6ff 98bd 4e8f 0abe 7c03 83bf 6621 b4bd
000000b0: d30f f0be 547a 96be 58ae a63e 281e 90bd
000000c0: 5c4d 143f 05e9 663e d23c 8dbe d80e 3d3f
000000d0: d498 483e ff82 b33d 7e25 44bd 8bc4 00bf
000000e0: 51dc d93e 4c42 813f f324 433e 3b05 64be
000000f0: e04a b03d 7b50 f23d 8d93 603f b0f5 55bd
00000100: 2eec 95bf 6b2b 97bf c966 c93b f55a 8dbe
00000110: 59b0 3ebf f5d1 96be 601a 0b3e 9fa0 143f
00000120: 614f 5cbe 81df b7be b873 1f3e bd47 963f
00000130: 0ec5 bcbe 91c4 993c fdab 5abd a00d 583e
00000140: 5555 f53c dc45 a9be d14a 82be a0a7 eb3d
00000150: 08f6 de3e b354 bb3e 2872 773d 30fa 653e
00000160: 2cc4 ffbe a432 8b3e 9af4 e5bd 7246 63bf
00000170: c0fd 17c0 9178 12c0 b090 22be ea36 c4be
00000180: 9e10 003e 178c 22bf 2e28 db3c 630c 19be
00000190: 4fd0 253e 4ee1 51bb bcd1 66bf 1da9 903d
000001a0: e770 163e 5c8d 4bbe 00e9 72bf 900f 33bf
000001b0: fff7 88bd 4268 41bf 5d3a 14bf a202 6cbf
000001c0: a1a0 8f3e 79d4 c63d 521c a13e 1a83 86be
000001d0: c988 7ebf ecba 59bb 1a10 15be c57f 0fbf
000001e0: 89dd 843d 9d1e 95be 03e2 aa3d e5a6 883e
000001f0: dae5 b03e ee04 bb3e 75e2 a03e 80f3 973e
00000200: 834f 2bbe 032b c73e 5241 753e 7b74 93bf
00000210: 6755 cbbf d057 78bf cb91 5a3c 46f0 f2be
00000220: 7c0f 833e cfca fdbe a75e 54be fdbf 883e
00000230: a94d d9bd c718 13be 7164 f2bd f683 863e
00000240: bed4 c53e d09e a23e c229 903d 58c4 2b3e
00000250: e042 bfbf 78d9 963e ad7a 8b3d cdeb 81bf
00000260: 1bfb e9bf 5c1a 02c0 df13 92bd acb8 0fbf
00000270: bada e43c b0f2 1ec0 45af 11bc 82f1 22ba
00000280: 77b7 54bd 94bd ad3e de40 65bf 38cf 0f3d
00000290: b9bc b33e 63a5 a83e af96 2abf 6785 99be
000002a0: 7275 993d d487 c33d 83f6 1ebf 39da 073e
000002b0: d240 153f 533e 943e 9781 753e 1492 82bf
000002c0: 361c d4be d912 46bd 58f0 e1bc 4378 59bf
000002d0: 7b5f 23be ed16 2bbc fb06 85bf a042 36bd
000002e0: 34c8 b43e 59c0 a63e c069 88bf 8e6e 09bf
000002f0: 8a10 28be b4da 55be cf9a c8bd 0595 84bf
00000300: 35d5 003f 189f 833e 79ed 23bd 424c dd3e
00000310: a5b3 c0be bf99 5a3d 2f28 e6bd 3ebf bbbe
00000320: a0b9 263e daf9 c1bd 0e27 a9bd f079 09be
00000330: d15a 0abd d9c4 9ebe 7315 d5be 6164 20bf
00000340: b3e2 093e 419a 55bf 5fd0 8ebe c46b 2ebf
00000350: 4ac3 8c3e 1c0b c23e 7e9a 2d3d 9faf 77bd
00000360: 9b45 29bf 7f97 c4bd de82 04be 710c c1be
00000370: 687c 26be 8745 88be 1b3d 503e b677 ee3d
00000380: c90a ef3e e977 923e b2cd f33d 3e0f 543e
00000390: db90 97be 7a69 dd3e 7df5 703e 9307 b8bf
000003a0: 9f9e eabf c95b 9fbf a30f 403d f5dd 0abf
000003b0: a713 9abc 9194 ffbe 121b a63d cb1e a13c
000003c0: f9da b1bd c42e d9bd 1a23 933d 503f 21be
000003d0: 83d6 2abe 07fc 62be 6564 ebbb 099d edbd
000003e0: 6388 ea3d 7286 473e cb85 38bd 5f3b 923d
000003f0: 09de 8cbe 78c5 c8bd 7017 a63c 4b8c b93d
-0.23680581 -0.12530825 0.18690939 -0.1148221 0.1986034 0.25328606 0.031067066 0.084185734
-0.15534937 0.48732132 -0.016038813 -1.1967652 -1.4454676 -0.90259445 0.060594082 -0.725704
0.1253565 -0.38564956 -0.0657822 -0.16845652 0.08404865 0.1459127 -0.20896667 0.01152156
-0.18785681 -0.18492378 0.1794477 0.71633327 -0.52122706 -0.0111841215 0.0064716353 0.10444087
-0.12374992 -0.4211913 0.22772984 -0.23569976 -0.041132618 -0.21987219 -0.022650376 -0.1204581
-0.0747066 -0.13531229 -1.0235438 -0.08795433 -0.46887073 -0.29390204 0.3255489 -0.07037002
0.5793054 0.22549827 -0.27585465 0.73850775 0.1958955 0.0876522 -0.047887318 -0.502999
0.425509 1.0098357 0.19057064 -0.2226762 0.08608031 0.11831757 0.87725145 -0.05223626
-1.1712701 -1.1810125 0.006146286 -0.27608457 -0.74487835 -0.2945706 0.1358428 0.5805759
-0.21514656 -0.35912707 0.15571487 1.1740643 -0.3686909 0.018770488 -0.053386677 0.21098948
0.029947916 -0.3306111 -0.25447705 0.11506581 0.43547082 0.36588058 0.060411602 0.2245872
-0.49954355 0.27187073 -0.11228295 -0.88779366 -2.3748627 -2.2886088 -0.15875506 -0.38323146
0.12506339 -0.6349501 0.026752558 -0.14946131 0.16192745 -0.0032025161 -0.9016378 0.07063506
0.14691506 -0.19878143 -0.9488678 -0.6994562 -0.066879265 -0.7554971 -0.57901555 -0.9219152
0.28052238 0.09708495 0.3146692 -0.26271898 -0.9942747 -0.0033222986 -0.14556924 -0.56054336
0.06487567 -0.2912492 0.083438896 0.2668983 0.34550363 0.365272 0.31422773 0.29677963
-0.1672955 0.38900003 0.23950699 -1.1519922 -1.5885438 -0.9700899 0.013340424 -0.4744894
0.2559775 -0.49568793 -0.20739232 0.26708975 -0.106105156 -0.1436492 -0.11835564 0.26272553
0.38638872 0.3176179 0.07039215 0.16774118 -1.4942284 0.2946279 0.06810508 -1.0150086
-1.8279756 -2.0328588 -0.07132696 -0.5614116 0.027936328 -2.4835625 -0.008891885 -0.0006215797
-0.05193278 0.339337 -0.89552104 0.03510973 0.3510492 0.3293868 -0.66636175 -0.2998459
0.07493104 0.095473915 -0.620949 0.13266839 0.5830203 0.289538 0.23975216 -1.020083
-0.41427773 -0.04835782 -0.027580425 -0.8494913 -0.15954392 -0.010442478 -1.0392755 -0.044497132
0.35308993 0.32568625 -1.0657272 -0.5368432 -0.16412559 -0.2088421 -0.097951524 -1.0357977
0.5032533 0.25707316 -0.040021393 0.43222243 -0.37637058 0.05336928 -0.11238133 -0.36669344
0.16281748 -0.094714835 -0.08259402 -0.13425422 -0.033778016 -0.31009558 -0.41617927 -0.62653166
0.13465385 -0.834385 -0.2789335 -0.6813319 0.27492744 0.378991 0.042383663 -0.06047022
-0.66121835 -0.09599208 -0.12940547 -0.37704805 -0.16258395 -0.26615545 0.2033581 0.11643927
0.46687916 0.2860711 0.11904468 0.2070894 -0.29602703 0.43244535 0.23531146 -1.4377311
-1.8329657 -1.2449886 0.046889912 -0.5424493 -0.0188082 -0.49918035 0.08110632 0.019668004
-0.08684344 -0.10604623 0.071844295 -0.15746808 -0.16683392 -0.22166453 -0.007183599 -0.11602218
0.11451795 0.1948488 -0.04504947 0.071402304 -0.2751315 -0.09803289 0.020274848 0.09059962

network.6.bias f4 [20]
00000000: d750 8c3e 874e 80bf aee0 c8be b593 8abe
00000010: 2b66 cf3e 8041 dd3e b352 833e 692b 793e
00000020: 1ecb 5e3e b6bd b83e 12a2 ef3e c34a b23e
00000030: 4951 b5be 5993 71bf 8de4 82bf cc33 a23e
00000040: 31ad 933e cb80 d73e 2dba f23d e0b9 e73e
0.27405426 -1.0023965 -0.39233917 -0.27065817 0.40507635 0.43214035 0.25649032 0.24332966
0.2175717 0.36082238 0.46803337 0.34822664 -0.35413578 -0.9436546 -1.0225998 0.31680143
0.28843072 0.4209045 0.118519165 0.45259

network.9.weight f4 [1, 20]
00000000: fcaa 16be 818e 433e cc7e 1e3e c444 833e
00000010: a714 54be 0649 7e3e b817 31be ab22 62be
00000020: 2117 273e bff8 303e 5d5b 3e3e 5a25 3fbe
00000030: b533 7a3c fc5c f93e 95e7 623e 60fd 703e
00000040: afc0 4d3e 5d5c 2d3e 3a8a b0be 39b6 3abe
-0.14713663 0.1909733 0.15478057 0.25638402 -0.20711003 0.24832544 -0.17294204 -0.22083537
0.16317417 0.17282389 0.1858954 -0.18666592 0.015271117 0.48703754 0.22158654 0.23534155
0.20093034 0.16929765 -0.34480458 -0.18233575
