experiments/exp_sim_binary_m1/saved_models/run_0/full_data/propensity.pt (torch, 6509 bytes, 7 tensors)

network.0.weight f4 [20, 1]
0.5342763 1.0261455 -1.0163193 -1.0642931 -0.36579382 0.23348096 0.92584544 0.7928895
-0.088744044 0.2057726 -0.30221307 0.108026356 -1.4200934 -1.0894216 -0.4122231 0.03704357
0.3953352 0.94494987 -1.0527865 -0.86427253
00000000: 55c6 083f bc58 833f c016 82bf c23a 88bf
00000010: 5449 bbbe a215 6f3e 3504 6d3f cefa 4a3f
00000020: 70bf b5bd 0db6 523e acbb 9abe ec3c dd3d
00000030: 9fc5 b5bf 2b72 8bbf e80e d3be 00bb 173d
00000040: 6069 ca3e 3ce8 713f b5c1 86bf f740 5dbf

network.0.bias f4 [20]
0.19100653 0.91019464 -0.3062524 0.34729183 -0.3668739 -0.19381526 0.46372703 -0.92767036
-0.62953794 -0.20640215 -0.38979995 -0.108459644 -0.53436065 -0.39837736 -0.69864047 -0.936561
-0.5837405 0.84312946 0.42146584 0.3106636
00000000: 3797 433e 8402 693f 1dcd 9cbe 3cd0 b13e
00000010: e5d6 bbbe 8277 46be a16d ed3e ce7b 6dbf
00000020: 6629 21bf 165b 53be dc93 c7be 1720 debd
00000030: dccb 08bf 1ef8 cbbe 1ada 32bf 76c2 6fbf
00000040: 0470 15bf 55d7 573f 5fca d73e 4d0f 9f3e

network.3.weight f4 [20, 20]
0.0117598325 -0.11463951 0.03783086 -0.20878048 -0.16157073 -0.11527601 0.14108202 0.13110542
-0.0991685 -0.0080682635 0.14301011 0.22229493 0.088745564 0.030207694 0.14992529 -0.1316602
0.04166779 -0.17336358 -0.15497878 -0.115511596 0.10117605 0.089925796 -0.13245404 0.06755319
0.12275386 -0.028223068 0.00853765 0.05181074 0.13872042 0.21470591 -0.17231667 -0.08194512
0.08787969 0.18526927 0.19458428 0.19730097 0.044501007 -0.1944446 0.020570144 -0.1398896
-0.2716152 0.13577475 0.17002162 -0.27942413 0.04185295 -0.099682964 -0.09924352 -0.10235755
0.085989386 -0.19358265 0.0819723 0.050949257 0.16007376 0.083609074 -0.22131152 -0.14505303
0.11165023 -0.015705574 -0.21171509 -0.18149078 0.029384827 0.13126056 -0.22585995 -0.45367783
-0.31355965 -0.081577115 -0.3037223 -0.1724806 -0.012320653 -0.021670528 -0.09157376 0.0021915429
-0.32565105 0.036667887 0.1532377 -0.1885638 -0.05565223 0.013826561 -0.55743337 -0.45348457
0.0070941164 -0.574992 0.1940551 0.22273031 -0.16272207 -0.3377923 -0.37715596 -0.108921856
-0.07822512 -0.29063344 -0.04756455 0.11157494 0.6220962 0.4985178 0.16006911 -0.02298683
0.0062145293 -0.57110256 0.23447861 0.2691909 0.33319536 0.53092045 0.021744037 -0.33715895
-0.38877296 0.03272353 0.37141365 -0.0014495254 -0.11114294 -0.11242731 -0.20926288 -0.16838044
-0.31846097 -0.14188181 0.120891005 -0.21565352 0.1394819 0.24564092 -0.56690586 -0.45810822
-0.043070078 -0.04390356 -0.20065355 -0.19307058 -0.03498988 0.0028917193 -0.10157895 0.08423251
-0.20125917 -0.0150906 0.19664416 -0.091207415 0.20191762 0.08098003 -0.2017964 0.14147544
-0.025802985 -0.0998196 0.17880791 -0.18069558 0.045850985 0.20763588 -0.035507817 -0.26075813
-0.064750604 0.1437173 0.0498478 -0.047025725 -0.1842702 0.14385116 0.1775389 0.13635935
-0.44008783 -0.24546745 -0.15762806 -0.123092 -0.13029692 0.36020294 -0.67086774 -0.36113337
-0.022622121 0.11255602 -0.16902886 -0.19262844 -0.12983987 0.12552844 -0.11260333 0.18860981
0.0808579 -0.0011694845 -0.0016645342 -0.07675592 0.028055131 -0.051059425 -0.0015711635 0.028530657
-0.17490637 -0.14865944 0.18056086 -0.23215206 -0.016056359 0.2212005 0.08077505 0.006330982
-0.19377987 0.11076987 -0.15927082 -0.063473985 -0.075023726 -0.033113346 0.0024458766 0.18443257
0.027914822 0.20028299 0.13678306 -0.14136735 0.10028857 -0.15806676 -0.09477018 0.065767825
0.2831789 0.64124686 -0.37331107 -0.32922778 0.024297707 -0.04238334 0.44347048 -0.18490547
0.0030818582 0.05613359 -0.117767654 0.087283924 -0.47604847 -0.524046 -0.13275403 -0.08269848
-0.2216275 0.5942241 -0.5775522 -0.49095333 -0.29595116 -0.43946514 0.5455944 0.38356817
0.13821955 -0.30057043 -0.38010755 0.066060156 0.18381256 -0.19672082 -0.10579852 -0.02885857
0.6013059 0.6134804 -0.12548423 -0.19936241 0.19607553 -0.7017748 0.26284665 0.279201
-0.13537626 -0.6957783 -0.1413986 0.09125683 -0.007603994 0.16044083 -0.2855514 0.06586459
-0.05113356 -0.1237441 -0.13618642 0.014919268 0.44258052 0.15741612 -0.050289646 -0.13783789
00000000: 50ac 403c 1fc8 eabd 88f4 1a3d 8dca 55be
00000010: cc72 25be d415 ecbd ce77 103e 8040 063e
00000020: db18 cbbd c030 04bc 3e71 123e 48a1 633e
00000030: 3cc0 b53d 2076 f73c 0486 193e eed1 06be
00000040: d8ab 2a3d 3986 31be c2b2 1ebe 5891 ecbd
00000050: 6435 cf3d 042b b83d 08a2 07be 5459 8a3d
00000060: 6066 fb3d 1034 e7bc 80e1 0b3c 8037 543d
00000070: ba0c 0e3e dedb 5b3e c873 30be d8d2 a7bd
00000080: 44fa b33d 3ab7 3d3e 1a41 473e 4409 4a3e
00000090: b046 363d 7c1c 47be b882 a83c 383f 0fbe
000000a0: 2611 8bbe 8908 0b3e 261a 2e3e ae10 8fbe
000000b0: 006e 2b3d 9526 ccbd 3040 cbbd d6a0 d1bd
000000c0: 341b b03d 883a 46be 18e1 a73d 2bb0 503d
000000d0: 60ea 233e 3c3b ab3d 7d9f 62be c888 14be
000000e0: e0a8 e43d faa8 80bc d7cb 58be b8d8 39be
000000f0: 73b8 f03c 2b69 063e d547 67be 7648 e8be
00000100: e48a a0be e711 a7bd 7d81 9bbe c19e 30be
00000110: 90dc 49bc 6486 b1bc 068b bbbd fd9f 0f3b
00000120: bcbb a6be 1131 163d 58ea 1c3e de16 41be
00000130: 98f3 63bd cd88 623c f4b3 0ebf 212f e8be
00000140: c375 e83b ad32 13bf 61b6 463e 6a13 643e
00000150: 9da0 26be 1df3 acbe 961a c1be 6c12 dfbd
00000160: 7e34 a0bd e8cd 94be 0cd3 42bd 6781 e43d
00000170: b241 1f3f ba3d ff3e 28e9 233e e04e bcbc
00000180: 40a3 cb3b c733 12bf 291b 703e 64d3 893e
00000190: 9598 aa3e 67ea 073f 8d20 b23c 19a0 acbe
000001a0: 400d c7be 1c09 063d ee29 be3e 00fe bdba
000001b0: e99e e3bd 4a40 e6bd 0249 56be ec6b 2cbe
000001c0: 510d a3be 7749 11be b495 f73d 47d4 5cbe
000001d0: 58d4 0e3e 4b89 7b3e be20 11bf 298d eabe
000001e0: 406a 30bd 38d4 33bd 2078 4dbe 4bb4 45be
000001f0: 8c51 0fbd 0083 3d3b a008 d0bd 1882 ac3d
00000200: e216 4ebe 903e 77bc 165d 493e f4ca babd
00000210: 7ec3 4e3e dcd8 a53d b7a3 4ebe f0de 103e
00000220: c860 d3bc 386e ccbd 6c19 373e 4308 39be
00000230: 3ece 3b3d 809e 543e a570 11bd 1782 85be
00000240: f79b 84bd a12a 133e 352d 4c3d 0c9e 40bd
00000250: 54b1 3cbe b84d 133e c2cc 353e c9a1 0b3e
00000260: 3153 e1be d25b 7bbe 4069 21be a917 fcbd
00000270: 8e6c 05be 856c b83e fdbd 2bbf 79e6 b8be
00000280: 0752 b9bc c583 e63d e715 2dbe 6440 45be
00000290: bef4 04be 878a 003e 939c e6bd ee22 413e
000002a0: d498 a53d 6349 99ba 802c daba 3532 9dbd
000002b0: e0d3 e53c b023 51bd 80ef cdba 20b9 e93c
000002c0: a81a 33be 2e3a 18be f2e4 383e 45b9 6dbe
000002d0: a088 83bc 6282 623e 646d a53d 2074 cf3b
000002e0: 3b6e 46be 50db e23d e417 23be a6fe 81bd
000002f0: 0aa6 99bd dca1 07bd 004b 203b e4db 3c3e
00000300: a0ad e43c fc16 4d3e dc10 0c3e 9ac2 10be
00000310: 1864 cd3d 41dc 21be de16 c2bd 48b1 863d
00000320: d3fc 903e c128 243f a122 bfbe 8b90 a8be
00000330: fc0b c73c 279a 2dbd 900e e33e dc57 3dbe
00000340: 00f9 493b 56ec 653d 2b30 f1bd eac1 b23d
00000350: a0bc f3be e127 06bf acf0 07be d25d a9bd
00000360: 52f2 62be 121f 183f 76da 13bf 3c5e fbbe
00000370: e986 97be 9301 e1be 13ac 0b3f 0c63 c43e
00000380: 6d89 0d3e 5ee4 99be 759d c2be 8c4a 873d
00000390: 5c39 3c3e 2f71 49be e5ac d8bd cf68 ecbc
000003a0: 2fef 193f 0d0d 1d3f f07e 00be a925 4cbe
000003b0: 06c8 483e 83a7 33bf d693 863e 6ff3 8e3e
000003c0: 13a0 0abe 871e 32bf cbca 10be dce4 ba3d
000003d0: ed2a f9bb 9a4a 243e cb33 92be 04e4 863d
000003e0: 6c71 51bd 8c6d fdbd 7474 0bbe f26f 743c
000003f0: ea99 e23e b131 213e 84fc 4dbd 6025 0dbe

network.3.bias f4 [20]
-0.21495172 -0.21726991 -0.10730358 0.052286886 -0.30207232 0.4355902 -0.089447826 0.21944338
-0.022239046 -0.20163052 0.4121127 0.025039304 0.0028755646 0.0016183661 -0.39719564 -0.12523796
-0.025964905 0.0150963105 -0.21331635 -0.10115603
00000000: 4e1c 5cbe 017c 5ebe fbc1 dbbd c62a 563d
00000010: 39a9 9abe ae05 df3e 6c30 b7bd c4b5 603e
00000020: a92e b6bc 3b78 4ebe 7000 d33e 3a1f cd3c
00000030: f873 3c3b 5b1f d43a 3a5d cbbe 613e 00be
00000040: 5ab4 d4bc 8456 773c 9a6f 5abe e52a cfbd

network.6.weight f4 [20, 20]
-0.2195545 -0.087093174 0.018212367 -0.1906804 -0.047748078 0.006890231 0.03115049 -0.17831947
-0.1417024 -0.068986416 -0.14290118 0.06882118 0.0424017 0.004848663 0.016958062 -0.2924552
-0.28679675 0.09007245 -0.19281355 0.10757625 -0.15785122 -0.110754885 -0.24565949 0.041918185
0.06222788 -0.32401535 0.13838401 -0.021702394 0.007190332 -0.069134295 -0.4493667 0.24003278
0.10211971 -0.18496126 0.04339435 -0.11109733 -0.2690971 -0.15750296 0.395055 0.25857335
-0.20712243 0.15770948 0.06362121 0.045758553 0.40060747 -0.6424115 0.0706096 -0.019927017
-0.06607433 0.07483071 -0.3710102 0.47807416 0.019458417 -0.07345537 -0.056680117 0.06618439
-0.14532252 0.01999886 0.45891923 0.031833332 0.06805113 -0.053931043 0.07837409 -0.34556025
-0.23392065 -0.266205 0.20549709 -0.22369218 -0.0006105304 -0.10833649 0.08491996 0.1170638
-0.2651133 -0.35091326 0.022730049 -0.031462204 -0.1995115 -0.3294922 -0.17175627 0.042246222
-0.11683248 0.049547374 0.013885374 -0.1795841 -0.13903639 0.091764934 -0.15117592 -0.06045941
-0.108909085 0.21942675 -0.2868546 -0.42914385 0.09479372 -0.12125893 0.0854336 0.040234655
-0.13037984 -0.04173865 0.026319403 -0.043901917 -0.21770683 -0.13200855 -0.0108127855 -0.01141306
-0.42058316 0.3554211 -0.049803793 -0.05223048 0.14887135 0.112386495 0.46708977 -0.08740979
-0.20455033 -0.08316187 0.053091493 0.26017198 -0.15535176 -0.1892584 -0.4466807 0.17040306
-0.063657105 -0.1851517 -0.13747017 -0.010214953 -0.42300555 -0.13171907 0.045198053 0.07211524
0.15151744 0.17360434 0.016672036 -0.53642076 -0.44973648 0.21775933 0.048785217 0.09166468
-0.25306138 0.16964017 -0.02088992 0.14727491 -0.18863134 -0.08437207 -0.19545095 0.10656721
-0.06307143 -0.24286975 0.117150486 -0.236331 -0.11013129 -0.01955922 -0.25582433 -0.07375574
0.13993844 -0.1708726 -0.036548097 0.058868762 0.02371319 -0.04308404 0.14733991 0.08414257
-0.10345317 0.2115319 0.05292338 -0.21816887 -0.19696636 -0.23765059 0.19604793 -0.07854288
-0.20382316 -0.014056668 0.007704061 -0.07588554 -0.062139772 0.020767078 0.083364785 -0.054482237
-0.22073749 -0.20900717 -0.29993093 0.09691176 -0.13240057 0.032080084 0.13602126 0.005243137
-0.39759475 0.5590197 -0.13002723 0.35508907 -0.20403345 -0.053788275 0.60819525 -0.3724948
-0.009043945 -0.046778515 -0.12311913 -0.0020017785 0.03368929 0.25251698 -0.92868245 0.025477078
-0.056059793 -0.048491895 0.123398185 -0.26942483 -0.050132487 0.08940381 -0.030726299 0.055452447
-0.06886123 0.179995 -0.5458202 0.024116695 -0.14794937 0.011600552 -0.013588143 0.08707444
-0.12965967 -0.054369226 0.08583398 -0.0060113384 0.19602123 -0.14888012 0.021051822 -0.17519574
-0.023959823 0.05875836 -0.035442516 -0.3408086 0.08456574 0.066887885 0.11980754 -0.40551835
-0.050623063 0.22517414 -0.011937461 -0.20850967 0.02946966 -0.20462023 -0.11504228 -0.005239729
-0.10465615 0.077858895 -0.20000122 -0.07625739 -0.14175573 -0.15126887 0.028762281 0.06349377
-0.10668734 0.14325058 -0.15537019 -0.10619708 -0.19471672 -0.33275247 0.21837679 -0.05576743
00000000: e5d2 60be e85d b2bd 1a32 953c b941 43be
00000010: 7d93 43bd 72c7 e13b 502f ff3c 6199 36be
00000020: 6f1a 11be c048 8dbd b054 12be 1ef2 8c3d
00000030: 68ad 2d3d 89e1 9e3b a2eb 8a3c b0bc 95be
00000040: 06d7 92be e877 b83d ea70 45be f050 dc3d
00000050: c0a3 21be 75d3 e2bd 298e 7bbe 67b2 2b3d
00000060: a9e2 7e3d 57e5 a5be 8ab4 0d3e 38c9 b1bc
00000070: e09c eb3b 4896 8dbd 6413 e6be 27cb 753e
00000080: 2324 d13d 7c66 3dbe 46be 313d ff86 e3bd
00000090: 18c7 89be 7548 21be a644 ca3e ba63 843e
000000a0: e717 54be 987e 213e d64b 823d 526d 3b3d
000000b0: 6c1c cd3e 1475 24bf c49b 903d fc3d a3bc
000000c0: fa51 87bd d840 993d 0df5 bdbe 23c6 f43e
000000d0: 4267 9f3c c56f 96bd 6929 68bd ae8b 873d
000000e0: 6dcf 14be a6d4 a33c 76f7 ea3e ab63 023d
000000f0: 645e 8b3d cce6 5cbd 9882 a03d 46ed b0be
00000100: e588 6fbe 064c 88be d46d 523e 900f 65be
00000110: 000c 20ba 86df ddbd 84ea ad3d 25bf ef3d
00000120: eebc 87be e7aa b3be 5e34 ba3c 83de 00bd
00000130: be4c 4cbe 34b3 a8be e0e0 2fbe 600a 2d3d
00000140: de45 efbd 30f2 4a3d 7b7f 633c e5e4 37be
00000150: 8e5f 0ebe 41ef bb3d dccd 1abe 49a4 77bd
00000160: ba0b dfbd 68b1 603e 9bde 92be beb8 dbbe
00000170: 3623 c23d 9a56 f8bd d0f7 ae3d 18cd 243d
00000180: 4b82 05be 26f6 2abd ca9b d73c 7fd2 33bd
00000190: 8aee 5ebe 402d 07be 1c28 31bc d8fd 3abc
000001a0: ad56 d7be c1f9 b53e 10ff 4bbd a1ef 55bd
000001b0: bb71 183e e42a e63d 6426 ef3e e703 b3bd
000001c0: a475 51be c550 aabd 7776 593d 4335 853e
000001d0: 8814 1fbe f4cc 41be 55b3 e4be 247e 2e3e
000001e0: a85e 82bd 6898 3dbe fbc4 0cbe 9e5c 27bc
000001f0: 2f94 d8be 5de1 06be 9821 393d 28b1 933d
00000200: 6327 1b3e 56c5 313e cb93 883c df52 09bf
00000210: dc43 e6be 4dfc 5e3e 02d3 473d b1ba bb3d
00000220: 4391 81be 27b6 2d3e 5621 abbc 3ccf 163e
00000230: 9328 41be 44cb acbd 4b24 48be e93f da3d
00000240: 982b 81bd d9b2 78be 98ec ef3d c100 72be
00000250: 848c e1bd a83a a0bc 68fb 82be 400d 97bd
00000260: 064c 0f3e 3af9 2ebe 75b3 15bd 5f20 713d
00000270: 2a42 c23c e478 30bd 46e0 163e f152 ac3d
00000280: 41df d3bd d29b 583e 30c6 583d a967 5fbe
00000290: 8db1 49be ad5a 73be cac0 483e 17db a0bd
000002a0: 05b7 50be f04d 66bc 5972 fc3b e169 9bbd
000002b0: 4686 7ebd b81f aa3c 28bb aa3d c428 5fbd
000002c0: 0209 62be fa05 56be 8c90 99be ac79 c63d
000002d0: 0494 07be 6866 033d 2849 0b3e 9fce ab3b
000002e0: 8a91 cbbe ea1b 0f3f dc25 05be 3cce b53e
000002f0: 25ee 50be 1851 5cbd afb2 1b3f a3b7 bebe
00000300: 0e2d 14bc d49a 3fbd e225 fcbd 4530 03bb
00000310: c8fd 093d e849 813e 22be 6dbf 4eb5 d03c
00000320: f49e 65bd 709f 46bd 30b8 fc3d 0df2 89be
00000330: b957 4dbd 5819 b73d b8b5 fbbc 1b22 633d
00000340: 1e07 8dbd 9c50 383e dfba 0bbf 6090 c53c
00000350: 0a80 17be 3e10 3e3c cda0 5ebc 1654 b23d
00000360: 81c5 04be 44b2 5ebd bac9 af3d c3fa c4bb
00000370: cab9 483e 0874 18be df74 ac3c 8366 33be
00000380: 6447 c4bc 9bac 703d 2c2c 11bd 777e aebe
00000390: cd30 ad3d 84fc 883d a85d f53d 1aa0 cfbe
000003a0: 215a 4fbd 0d94 663e 5795 43bc 8f83 55be
000003b0: 5b6a f13c f787 51be 499b ebbd 08b2 abbb
000003c0: f755 d6bd 7c74 9f3d 1fcd 4cbe d62c 9cbd
000003d0: 6a28 11be 3ae6 1abe e09e eb3c 0609 823d
000003e0: e47e dabd 48b0 123e 5d19 1fbe db7d d9bd
000003f0: d263 47be 885e aabe 2a9e 5f3e 646c 64bd

network.6.bias f4 [20]
-0.103018105 0.0581859 0.043714818 -0.1347425 0.058320645 0.0909884 -0.011562699 -0.21690635
-0.164949 0.38097084 -0.13948327 -0.092786446 -0.35073084 -0.1878834 -0.17193063 0.0146730235
-0.06743036 0.040660575 -0.24047785 -0.22752716
00000000: 28fb d2bd 5754 6e3d 4f0e 333d f0f9 09be
00000010: a1e1 6e3d 2058 ba3d 7a71 3dbc b31c 5ebe
00000020: 64e8 28be 9c0e c33e b4d4 0ebe d206 bebd
00000030: fe92 b3be 8264 40be 950e 30be 1f67 703c
00000040: ee18 8abd b48b 263d d33f 76be e1fc 68be

network.9.weight f4 [1, 20]
0.016002098 -0.20142609 -0.3446699 0.07779957 3.8339804e-05 0.25996196 -0.006826884 0.0032914728
0.13731128 0.48409304 0.0011066138 0.005652069 -0.086059384 0.048213113 -0.0011201936 0.059812967
-0.17094542 -0.10550738 0.06270204 0.03145372
00000000: d516 833c a442 4ebe 9378 b0be 6255 9f3d
00000010: 0dcf 2038 bc19 853e 0eb4 dfbb c0b5 573b
00000020: 549b 0c3e 0bdb f73e cc0b 913a fe34 b93b
00000030: e73f b0bd 1d7b 453d 76d3 92ba 71fe 743d
00000040: 510c 2fbe 4114 d8bd ed69 803d 9ed5 003d
