experiments/exp_sim_continuous_weight/saved_models/run_2/full_data/y_regression.pt (torch, 10625 bytes, 7 tensors)

network.0.weight f4 [30, 2]
00000000: 674f 41be d605 94be 92bb 42be 921f abbe
00000010: 9b5e bc3d b6be 463f 5493 5e3f 850e c2be
00000020: 6a7d 3fbe 8ec0 ccbf 1d32 2d3f 6614 69bd
00000030: 5892 3e3e a9e2 583f 8e7c 823f f168 153d
00000040: d83b 933e 14b0 953e c915 673f 0756 5abe
00000050: dd74 163e 8df0 1f3f fe9e 353f 7b60 5c3e
00000060: b04f fbbe 291d 0d3e bc7e 813f 2539 abbe
00000070: da57 edbe 5ea4 32bf 1880 873e bfaa e3be
00000080: a886 e1bd d00f 4f3d 6dd6 3c3f 11ca a1be
00000090: a78c e03e 82ff 2b3f 383c 85bf be8f 373d
000000a0: 2bf1 183f 0c01 27be 263b 833f fc0b afbe
000000b0: 2280 47bd b0c2 88bf f6cb da3e 06e4 48bf
000000c0: c84b b3be a84b b2be 4405 203e 9e3c d93e
000000d0: 69af 903e 65c8 0e3e 0fe9 0a3f a515 813e
000000e0: d2c7 653f 8f24 95be bd03 d5bd 4209 27bf
-0.18877946 -0.28910702 -0.19016865 -0.33422524 0.09197732 0.7763475 0.86943555 -0.37901703
-0.18700185 -1.5996263 0.6765459 -0.05690422 0.18610513 0.84720856 1.0194261 0.036477033
0.28756595 0.292359 0.90267617 -0.2132188 0.14693017 0.62476426 0.7094573 0.2152118
-0.49084234 0.13780655 1.0116801 -0.33442035 -0.46356088 -0.69782054 0.26464915 -0.44466206
-0.11012012 0.05055219 0.7376469 -0.31599477 0.4385731 0.6718675 -1.0409002 0.044814818
0.59742993 -0.16308993 1.0252426 -0.3418883 -0.04870618 -1.0684414 0.42733735 -0.78472936
-0.35018754 -0.34823346 0.15627009 0.4242906 0.28258827 0.13943632 0.5426187 0.25211826
0.89758027 -0.29129454 -0.10401104 -0.652485

network.0.bias f4 [30]
00000000: b357 833d f86e 3d3e 0c90 04bf d86e 2dbd
00000010: 3a60 733d fd05 d2be 230a 0ebf 66a1 213e
00000020: a033 b73d 6100 eebe 9dbc 39be d05f 363d
00000030: a949 61bd ea6e 53bd d9b1 1bbf 8058 00bf
00000040: ebba 9cbe f5b2 c9be 1814 88be 7dec f93d
00000050: 1512 98be ce21 5fbd 00ed 2d3e ba95 963e
00000060: ac2a 87bb 3a2e 1fbf 4efb 463e 4e62 b63e
00000070: 603b 0bbf c5e3 7b3e
0.06413212 0.18499362 -0.517823 -0.042342037 0.05941794 -0.41020194 -0.5548422 0.15784225
0.089453936 -0.46484664 -0.18138357 0.044524968 -0.05500189 -0.051619448 -0.6081825 -0.5013504
-0.30611357 -0.39394346 -0.2657783 0.1220331 -0.29701295 -0.054475598 0.1698494 0.29411107
-0.00412496 -0.6217991 0.19431803 0.35621876 -0.54387474 0.24598606

network.3.weight f4 [30, 30]
00000000: 49f0 09be b79e b9bc 0846 d9be 6a1a 8abf
00000010: a72d fbbe 9a24 a5be 719b 27bf 0077 bbbf
00000020: 6492 fd3b c9e6 49be 479f 1d3d 0af8 a5bf
00000030: 13cc 033d cb0c 85be c0b3 cc3d 20c7 8abc
00000040: 3077 84bc a2b9 e1bd f09d 3ebe cbb6 05be
00000050: a398 84bc bea4 95bd 7d72 85be d14b 99be
00000060: 9fc4 bfbe 2445 4abd 25c4 cc3d 606f f83d
00000070: ad1f 88be 6c25 f5bd b68d 22be a58e 08bd
00000080: 5659 6abf cd4b 8abf ac2e 61bf 2056 c9ba
00000090: 470e 8cbf 5bd2 97bf a37e 063e 76ae 85bd
000000a0: b7bb 193e 7c85 4cbf 99ad 41bd 2060 d53c
000000b0: 8833 28be 003e 0f3e 48f3 debd 3ef9 5b3d
000000c0: c599 abbe fcbb d73c 1f4a 443d 5140 fbbd
000000d0: 3e8a 0bbf 3c45 13bf 6b06 8dbe 18be e53c
000000e0: c3d6 e53d 38f8 463e 56bd 7abd 4957 77be
000000f0: 2e23 bfbd 7799 d9bd e461 8c3f cf8d a1bd
00000100: df89 65be 3b14 0ebf 3f03 a83f 10b4 61bc
00000110: 0eda 413d 5f37 09bf e847 6a3e a06b 553c
00000120: a5e2 f13c 3473 c03b 005a e83d 10f9 55bc
00000130: 964e 74bd 2727 3cbf f95a b0bd 14c7 cbbe
00000140: 6f2a ebbe d3f1 8fbd 5444 623e 9439 39bd
00000150: 5f90 0dbd 0c93 063e 69b0 9c3d 9b96 31bc
00000160: 47b9 91bf 5ef5 c7bd 635c d6bc b4d5 f8bd
00000170: 7af1 b03e d29b 623e bce0 bb3e 78df b83e
00000180: 5850 27bd 8be4 273e 548f 813c c729 783e
00000190: e2a7 3c3d 651a 503e a5d2 123e 3500 bc3d
000001a0: 7693 013e a4a3 e53d 44a1 9b3d 26e6 793e
000001b0: a261 2e3e cc9c c53e c15f 283f 3099 6e3e
000001c0: ce24 d6bd a9b1 a63d 2285 af3d 5217 88bd
000001d0: c82e 24bd d506 8fbc e4f1 0a3f 5323 44be
000001e0: 9d81 d3bd ed96 e3bd 5736 843d 14e5 1fbe
000001f0: 92b7 77bd c786 5fbe fc40 d63b 46e8 013e
00000200: 1dfa 1ebe d295 b4bd 402c a7bc e467 f5bc
00000210: 1edf 783d 8f8d 1dbe ecf2 02bd 043a 95bd
00000220: fc6c 0abd db3e 01be 0a7c e83d ebde e6bd
00000230: aa5d 40be c412 263c 7c0f 45be f307 dcbd
00000240: b755 243d 2054 933b 9f11 863d 876d f2bd
00000250: dc3a 3ebe 6aa8 44bd cb0d d9bd cc08 413d
00000260: d8a2 b43d 69cd e8be 1425 a33e 7876 17bf
00000270: f0ce a33d 24c9 0e3e 652b 8dbd 038e 1abf
00000280: 1d37 073d d04a d3bd d384 08bf a208 52bf
00000290: 6246 263e 78cc 923d 2545 08be 35db 97be
000002a0: 6a4c aebd 885b e8bd 27c7 20bf a405 1bbf
000002b0: 0d57 b23d 1790 873e f7b0 a5be db0e ccbd
000002c0: 9b83 0b3e a054 bc3e d952 87be aae5 29bb
000002d0: a0d3 5cbe 4fce 3abf 48f2 2f3f e8ee 6bbd
000002e0: ab58 c8be 8409 bb3e 99d5 bcbe 4b15 1e3b
000002f0: d0a8 353e a27a 343f 4345 7f3d 719f 1e3e
00000300: fd83 debd 36b8 1dbd abbb 2bbe d389 38be
00000310: 80e8 743d 0daf de3e 3199 0b3e 502c 4d3d
00000320: da93 e23e f227 903d 0021 7abe 3754 96bd
00000330: e952 dfbd 86e0 03be 8a6b 48bc de1a a23d
00000340: be01 d13e 5596 11bf 3deb 2dbe 9f30 d6bd
00000350: 5751 923f eecd dcbe cd05 c63d 332c e7be
00000360: 26b3 9c3f ed58 b53e 44ab d33d 53ec fdbe
00000370: 2ee1 093e ab34 513e 7dd7 0dbe 4b94 31bf
00000380: 5e4e 1ebe a607 03be 04df ac3d e3aa 42bf
00000390: 2dcf e63e 54aa 17be 5cb4 1cbf 0ea2 0dbf
000003a0: ac75 2f3e ed6b 7c3e 494e 05bf c2a3 1a3e
000003b0: d57e 183e 976d 2e3e 412c 52bf 8906 d1bd
000003c0: 8e55 8f3e 06a5 593e 23b9 283f 5978 dfbe
000003d0: 8a2e 473f bb97 d2be df56 003f 17eb c0bd
000003e0: 0e34 113c 28ea f3bd 5e21 1b3e 0188 b9bd
000003f0: 0649 7cbe 7ab3 f5be 2245 72bd c71d ebbd
-0.13470568 -0.022658689 -0.42436242 -1.0789311 -0.49058267 -0.32254487 -0.6547156 -1.4645691
0.0077383984 -0.19716944 0.038481977 -1.296632 0.032177042 -0.25986323 0.09995222 -0.016940653
-0.016170114 -0.11021735 -0.18614936 -0.13058011 -0.016186064 -0.07306813 -0.2606391 -0.29940656
-0.37454697 -0.049382344 0.09998349 0.12130618 -0.26586667 -0.11970028 -0.15874371 -0.03333916
-0.91542566 -1.0804383 -0.8796184 -0.001536075 -1.0941857 -1.186107 0.13134246 -0.065274164
0.15013014 -0.7989118 -0.047284696 0.026046813 -0.16425908 0.13988495 -0.10886246 0.053704493
-0.33515754 0.026334755 0.04792225 -0.12268127 -0.54507816 -0.5752752 -0.2754396 0.028044745
0.11222603 0.19430625 -0.06121572 -0.2415439 -0.09332882 -0.10624974 1.0967374 -0.07888376
-0.22415875 -0.5549962 1.3125991 -0.01377584 0.047327094 -0.53600115 0.22878993 0.013026148
0.029527018 0.0058731083 0.11345291 -0.013059869 -0.059645258 -0.7349724 -0.08611102 -0.39800322
-0.45930812 -0.07028546 0.22096378 -0.045220926 -0.03456151 0.13142031 0.07650835 -0.01083913
-1.1384667 -0.09763597 -0.0261671 -0.12150136 0.34559232 0.22129753 0.36694896 0.36107993
-0.040848106 0.16395776 0.015815414 0.24234687 0.046058543 0.20322569 0.14338167 0.09179727
0.12653908 0.112128526 0.07599118 0.24404201 0.17029431 0.3859619 0.6577111 0.23300624
-0.10456239 0.08139355 0.08570315 -0.06645073 -0.040083677 -0.017459312 0.54275346 -0.191541
-0.10327456 -0.11112771 0.06455677 -0.1561473 -0.0604778 -0.21828757 0.0065385085 0.12686262
-0.15525098 -0.088176385 -0.020406842 -0.029956765 0.060759656 -0.15386032 -0.03196995 -0.07286456
-0.03379534 -0.12621634 0.113517836 -0.11272987 -0.1878573 0.01013631 -0.19244188 -0.10743704
0.040120807 0.0044961125 0.0654633 -0.11837297 -0.1857714 -0.048012175 -0.10598334 0.04712753
0.088201225 -0.45469216 0.31864226 -0.59165144 0.079984546 0.13943917 -0.068930425 -0.6037294
0.033011544 -0.10317004 -0.53327674 -0.8204442 0.16237786 0.071679056 -0.13307627 -0.2965943
-0.085106686 -0.11345583 -0.6280388 -0.6055548 0.0870801 0.2647712 -0.32361576 -0.09963771
0.13624422 0.36783314 -0.26430395 -0.0025924244 -0.21565104 -0.7297105 0.68729067 -0.057600886
-0.39130148 0.36530697 -0.36881712 0.0024121578 0.17740178 0.7049962 0.062321912 0.1549051
-0.108650185 -0.038505755 -0.16770808 -0.18021326 0.05979204 0.43492928 0.13632657 0.050091088
0.44253427 0.07038869 -0.24426651 -0.073402815 -0.10904486 -0.12878618 -0.012232671 0.07915281
0.40821642 -0.56870013 -0.16984268 -0.104584925 1.1431073 -0.43125862 0.09669075 -0.4515091
1.2242172 0.35419407 0.10335401 -0.49594364 0.13464805 0.20430247 -0.13851734 -0.693669
-0.15459582 -0.12795886 0.08440974 -0.76042 0.45079938 -0.14811069 -0.61212707 -0.553254
0.17134732 0.24650545 -0.5207258 0.15101531 0.14892133 0.17033993 -0.82098776 -0.102063246
0.2799496 0.21254358 0.65907496 -0.43646505 0.7780539 -0.41131386 0.50132555 -0.0941984
0.008862508 -0.11909896 0.15149447 -0.09059144 -0.24637231 -0.47988492 -0.05914796 -0.11480289

network.3.bias f4 [30]
00000000: 4ee0 843e 9fd5 3f3e 047e 753e 6a4b b6be
00000010: df37 39be 29f0 0c3c e184 b0bd 36b7 81bc
00000020: dec6 0d3e dfe5 793e 3a7a 5dbe 078f 67bd
00000030: a5c1 f63d a7f9 77bd 84cb bcbc 1ecc 563e
00000040: e8c8 8bbe a90e 5e3e 4279 423e 5210 23be
00000050: 9965 b0bb 8e03 90bc 9a09 6cbe 7b54 14be
00000060: 873a 873e d0ba d23d d490 a7be 2cfb 10be
00000070: 15e7 dfbc 3ed9 4e3e
0.2595238 0.18733834 0.23973852 -0.3560441 -0.1808772 0.0086021805 -0.08619095 -0.015834432
0.13845393 0.24404095 -0.21628657 -0.056532886 0.120486535 -0.06054082 -0.023046263 0.20976302
-0.27301717 0.2168528 0.18991569 -0.15924194 -0.005383205 -0.01757982 -0.23050538 -0.14485352
0.2641184 0.10289538 -0.32727683 -0.14158314 -0.027331868 0.20200059

network.6.weight f4 [30, 30]
00000000: 7e32 d33d 0e20 223e c81a afbd d35a debd
00000010: 0c4e 26bb 9382 1cbf 4050 7bbe d679 cdbe
00000020: 828d 70bc c9ef c13d a59c dabe 5aef 8bbd
00000030: be7a 3dbf b3dc a0be ed0b 28bf 647b 373e
00000040: 6aeb b3bd 7360 603d 14d9 a9bc 8346 f33c
00000050: e01c 4bbf 03d6 5cbe 3695 22be 446d 11bf
00000060: 017c b2bd f61c cc3d ca6f f8be 8495 c1bc
00000070: cb1f febe c458 ea3d 3af4 77be bd2b e2bd
00000080: e1f4 103e 73ef 1bbe ee53 dfbd 4cb9 983e
00000090: a328 6dbd ee29 493e 739a 0fbf 9fb7 64bf
000000a0: 7b82 403e c6f2 d23b 4e8e 983e 023d 213e
000000b0: 7d90 d33e e96b ddbe 195b 4bbe a7ec 3db9
000000c0: ebaf 1ebf 700a 903c 6c0a d23c e0d8 783e
000000d0: dc84 0fbe fec2 1a3e 87ce 10bf fa24 0d3e
000000e0: 0a6e 08bd 30dc 133e 8ad3 8c3e b128 843e
000000f0: b30f 07bf 350d e1be 2599 10bf b84e 89bb
00000100: f41d 603c ad95 8bbe f257 10be 2e9d 7ebe
00000110: 3092 bbbd dd18 17bf b9cf 23bd 4eff 113e
00000120: 2e4f 0dbd 6311 56be 05f6 babd fb79 90bc
00000130: dc92 8b3d 9ca5 38bf 7999 1bbf d1d1 7fbe
00000140: bf54 1bbf fb5a b8bd 59db 9abd 042e 8fbd
00000150: e8e0 34bf 9c7b d2be bec2 b3be 7d9d f03c
00000160: ccae c1bd d569 4abf e9b4 923e 3516 29be
00000170: 3385 9fbd 7b72 1abf 3451 be3b 9eef fabe
00000180: dbd0 bbbe 249e 1fbf e7fc 203d 70fd fcbd
00000190: 453c f7be 24f9 043d fcd6 9fbe d890 17be
000001a0: f23d abbe 0b96 6d3e 6c46 10bf eff5 f5bc
000001b0: f243 833d 1444 50be 70dc 22bf f3c7 17bf
000001c0: 19eb 96be 707a 75be fdb1 863d c11d 7f3e
000001d0: 1bd6 b1be fbb6 223e 0a02 3bbe ef61 a7bd
000001e0: ba6e 1dbf 4e5d adbe 3231 803e 4797 31be
000001f0: 04e8 343c 54cb 9d3e 9146 013e 1741 1bbc
00000200: 8435 ea3d 1b69 493e e76c 203e c725 3ebf
00000210: 1dee 383e 4e4f 403e 326e 593e 48af a93e
00000220: e9cf 21be d24e ed3c a77e d93d 0324 24bf
00000230: 4313 343e bea7 893e e1dc 013e 3a47 2a3d
00000240: 320a 403e 9e99 f8be b1cd 2fbe 74d8 e93d
00000250: 867f 1e3d 9ab7 32bc 4515 11bf 4bf6 06bf
00000260: 5157 34bf 247e bfbd fe25 f2bd c176 ba3b
00000270: 1613 d5bc b7e5 73be 8bc5 a8be 2429 24bf
00000280: d5a0 e93d d522 e3bc db8e b63e 9dfa 413d
00000290: 37c5 09bd 8e49 af3e c58c af3d 18df 64bf
000002a0: 01c1 a8be 86a4 09bf e603 9a3e 3253 1bbe
000002b0: cff5 633e ee33 b53d 5407 d2be 8aad 1cbf
000002c0: 5124 64be f6bd ab3c b9f7 f8bd 4b70 e4be
000002d0: 54cd 0fbf e3e6 b4be b249 8d3d 326c 20bd
000002e0: cf18 e53d 67f5 b83e 93e1 ed3c 0de0 343e
000002f0: 6f14 4e3d 9cbf 7b3e e70c 103e 5cc1 34bf
00000300: 5241 993e 9af5 9f3e dd01 863e 8764 c23e
00000310: a3e5 9cbe d9ea b2bc 0f3f 663d f5d5 1bbf
00000320: f59e 523e 5052 9439 d541 b3be dbfe 363e
00000330: 74a9 303e bc5a a6be 1431 c9bd 7b61 b2bd
00000340: aa71 c63d 393d c63d 12bd 0e3e 7a3b 24bd
00000350: 8bc5 41be 763f 853c 24de 143d 1b6d 293d
00000360: 85c3 dcbc 97c6 c2bc 3602 0ebd 9573 f83d
00000370: 8c21 c7bd e807 d03d ff1f 153e 0bb3 c63b
00000380: cc58 c63d 8032 b3ba 4bdd ffbd 0dcc c33c
00000390: dfd8 83bd edb3 dabd 7491 06bd 959b ec3d
000003a0: 08a7 cd3d dcbf 32be 6076 33be 2bb8 23bc
000003b0: 9ece 2a3c a775 5e3d 7a38 b93c efcb 0abd
000003c0: a2ad 3abf d9a2 04bf c4fa 04be ac60 82bd
000003d0: 369a 003d 10de 5b3b 4d49 903d 45f9 ccbd
000003e0: 083b 37be 47ee 80be 50e3 253d f5b4 91be
000003f0: 5a78 febd 3047 123e 059b 4c3e 5cb0 8b3e
0.10312365 0.1583254 -0.0855003 -0.10857167 -0.002537611 -0.6113674 -0.24542332 -0.40132016
-0.014682176 0.094695635 -0.42697635 -0.06832762 -0.74015415 -0.3141838 -0.656432 0.17918164
-0.08785136 0.05477948 -0.020733394 0.029696709 -0.79340935 -0.21566014 -0.15877232 -0.5680735
-0.08715058 0.09966461 -0.48522788 -0.023630865 -0.4963363 0.11442712 -0.24214259 -0.11043499
0.14155914 -0.15228061 -0.1090468 0.2982887 -0.057900082 0.19644901 -0.56095046 -0.89342684
0.18799774 0.0064376323 0.2979607 0.15745929 0.41321173 -0.4324639 -0.1985897 -0.00018112604
-0.6198718 0.017583102 0.025639735 0.24301481 -0.14015526 0.15113446 -0.56565136 0.13783637
-0.033308066 0.14439464 0.27505141 0.25812295 -0.5275833 -0.4395539 -0.5648368 -0.004190292
0.013679016 -0.2726263 -0.14096048 -0.24864647 -0.091587424 -0.59022313 -0.03999302 0.14257547
-0.03449934 -0.2090507 -0.09128956 -0.01763629 0.068151206 -0.721277 -0.60781056 -0.24982382
-0.6067619 -0.09001728 -0.075613685 -0.06991199 -0.7065568 -0.4110993 -0.35109514 0.029371971
-0.09457168 -0.79067737 0.28653648 -0.16512378 -0.077890776 -0.60330933 0.00580802 -0.49010938
-0.36682782 -0.6235068 0.039303686 -0.12353027 -0.4828817 0.03246416 -0.31218708 -0.14801347
-0.33445698 0.23201768 -0.56357455 -0.030024497 0.06409444 -0.2033847 -0.6361761 -0.59289473
-0.2947624 -0.23972487 0.06576917 0.24913694 -0.34733662 0.15890114 -0.18262497 -0.08172976
-0.6149708 -0.33860248 0.25037533 -0.17342864 0.011041645 0.3081919 0.12624575 -0.009475968
0.114359885 0.19669001 0.15666543 -0.74276394 0.18059583 0.18780252 0.21233442 0.3314154
-0.15801968 0.028968249 0.1061986 -0.6411745 0.17585473 0.2688579 0.12681915 0.041571833
0.18753889 -0.485547 -0.17168309 0.11418238 0.038695835 -0.010908032 -0.5667308 -0.52719563
-0.70445734 -0.09350231 -0.11823653 0.005690426 -0.026010077 -0.23818098 -0.32963213 -0.64125276
0.114076294 -0.02772657 0.35655865 0.047358144 -0.033635344 0.34235805 0.085717715 -0.89402914
-0.3295975 -0.5376667 0.300811 -0.15168455 0.22261737 0.088477954 -0.41021216 -0.612023
-0.22279479 0.020964604 -0.12156624 -0.44616923 -0.5617268 -0.35332403 0.06898822 -0.039165683
0.111863725 0.36124727 0.029038226 0.17663594 0.050312456 0.24584812 0.14067422 -0.70607543
0.29932648 0.31242067 0.26173297 0.3796732 -0.3064395 -0.0218405 0.05621248 -0.6087335
0.2056845 0.00028290087 -0.35011163 0.17870657 0.17252141 -0.324911 -0.09823814 -0.08709999
0.096896484 0.09679646 0.13939312 -0.040095784 -0.18923013 0.016265612 0.036344662 0.041363817
-0.0269487 -0.023776336 -0.034670077 0.121314205 -0.097231954 0.10157758 0.14562987 0.006063824
0.096849054 -0.0013671666 -0.1249338 0.02390101 -0.06437849 -0.10678849 -0.03285356 0.115531124
0.10041624 -0.17456001 -0.17525625 -0.0099926395 0.010425238 0.05431142 0.022609938 -0.033885892
-0.7292119 -0.51810986 -0.12986284 -0.06366095 0.031397067 0.0033549108 0.07045231 -0.10008482
-0.17893612 -0.2518179 0.040499985 -0.28458372 -0.12425299 0.14284968 0.1998101 0.2728299

network.6.bias f4 [30]
00000000: b3b9 893e 25cb 153e d0ce 583e 55ec 7c3e
00000010: 5f2f 59bd 5499 7c3e 0e98 7cbd 1eed 71be
00000020: 2dac b33d 1778 0f3e f68c 59bd 8150 13be
00000030: 525c b83c 8e5d 2d3e ab52 443e ad34 52bd
00000040: a95d 7ebe b8f2 43be efeb 853e 48c7 003e
00000050: 777a babe c8c2 243e 09b8 f93d fead 37be
00000060: 8224 5abe 4321 ffba 41d8 8f3e d983 36ba
00000070: edab 3a3e 6327 76be
0.2689949 0.14628275 0.21172643 0.24699529 -0.053023692 0.24667865 -0.06166845 -0.2362561
0.08773074 0.14010654 -0.053112946 -0.14386179 0.02250496 0.1693022 0.1917216 -0.051319767
-0.24840416 -0.19135559 0.26156566 0.1257602 -0.36421558 0.16089928 0.12193305 -0.17937467
-0.21302989 -0.0019464869 0.28094676 -0.0006962396 0.18229647 -0.24038462

network.9.weight f4 [1, 30]
00000000: f325 343e e6c5 3d3e e650 86be c35e 7f3e
00000010: c2ef fabd 9326 91be de8a 02be 74a6 fdbd
00000020: 8fa7 ffbd 17cf 24be 4d64 7c3c 9811 98ba
00000030: 98d9 44be 8708 b23e b7d4 483e 1c35 c2bd
00000040: 908d f83c 1d5b 9ebd 7691 103e 488b e33d
00000050: 3d92 a23e 2ba7 10be 6f17 c83e 3e35 f4bc
00000060: 4d6e bfbc 7ec7 15be 9b80 133e 8997 243e
00000070: 7d8b 5e3e 120a 82bd
0.17592601 0.18532524 -0.26233596 0.24938492 -0.122527614 -0.28349742 -0.12748286 -0.12385264
-0.12483131 -0.16094624 0.015404773 -0.0011601923 -0.1922363 0.3477213 0.19612394 -0.09482786
0.03034094 -0.07732222 0.14117989 0.1111055 0.31752196 -0.1412627 0.39080378 -0.029810544
-0.023368025 -0.14626881 0.14404528 0.16073431 0.21732898 -0.06349577
