experiments/exp_real/saved_models/run_0/bootstrapped/m1_1.pt (torch, 6449 bytes, 7 tensors)

network.0.weight f4 [15, 29]
-0.1318955 0.2564781 -0.51017946 -0.07101155 -0.049102716 -0.4026829 0.006749098 0.1437395
-0.05613128 0.29658347 -0.14308672 0.04654738 -0.19937414 -0.10894199 0.00508203 -0.09051489
-0.0388489 -0.33444095 -0.035278123 -0.15877493 -0.13762218 0.19663854 -0.030226529 -0.09221258
-0.114349626 -0.022157852 -0.07018403 -0.18923883 0.6135286 -0.11072044 -0.061714444 -0.06844064
0.05355929 -0.11599333 0.03214127 -0.053534716 0.1082512 -0.027708486 -0.13560458 -0.057690755
0.09483287 0.011985073 0.039758697 0.04756108 -0.00042068007 -0.052500583 -0.09835134 -0.1777026
0.14494178 0.08135786 -0.07097309 -0.08346259 -0.021409282 -0.017157137 0.14143567 -0.0032146126
-0.0055933297 -0.17263865 0.33827737 -0.112001404 0.30569154 -0.040160608 -0.058982555 0.38214874
0.21132722 -0.1953467 0.108563446 0.21067233 -0.069771744 0.035702482 -0.030630983 0.41470528
-0.12424193 -0.011911221 -0.10191626 0.40321848 -0.023048889 0.3680208 -0.10087189 -0.16622788
-0.091315925 0.006260077 0.27950257 0.09570504 -0.07373491 0.24021502 -0.20037611 0.4589964
0.30208865 0.08998161 -0.17259291 -0.21750835 0.4098412 0.3458406 -0.12987287 -0.011334203
0.019888671 -0.18651643 -0.2779323 -0.12988931 0.22521934 -0.24190667 -0.068793006 -0.062771454
0.3531646 -0.13961947 0.18610573 -0.24063854 0.05103218 -0.16651174 -0.07559106 0.00093495636
-0.123018175 -0.18210423 0.19790724 -0.15084144 0.46704882 0.44324312 0.28007737 0.10564224
-0.108243346 0.4738594 0.20203698 -0.14736319 0.15966436 0.27360547 -0.15889117 -0.19355586
0.020239927 0.042339996 -0.10568529 -0.00971104 -0.10141002 0.46771276 -0.11089297 0.32757786
-0.15912896 0.24280794 -0.16940737 -0.11294563 0.07473382 0.12619618 -0.026857937 0.25757247
-0.6909714 0.351117 -0.22283098 0.10993304 -0.0036495375 -0.03726346 0.47090268 0.26959178
-0.089746945 0.05487061 0.1713336 -0.08079626 0.08992153 -0.005231566 0.3527432 -0.09386324
0.026764873 -0.002621051 0.3050377 -0.00044333862 0.37756133 -0.07405829 -0.19389506 -0.1407523
-0.009422531 0.1931426 -0.16194865 -0.04074064 0.105179094 -0.19142273 0.3485384 0.21421765
0.108203016 -0.12322796 -0.1279979 0.5705036 0.04553643 0.11596336 0.027307961 0.14780042
-0.12118929 -0.24969238 -0.11951768 0.09101734 -0.1927185 -0.12683202 -0.12079963 0.6101264
-0.142984 0.39606792 -0.21048902 0.114531994 -0.004951119 -0.10981886 -0.04057405 0.14877628
-0.15688597 0.20330164 -0.4813516 -0.36689818 -0.027766626 -0.13273716 0.4316656 0.2905133
0.05048677 -0.32848588 -0.23810314 -0.012961167 -0.09983259 0.25834253 -0.24113873 0.2609812
-0.18035452 0.43179157 0.28469464 0.25358617 -0.32384375 0.3384057 -0.3266063 -0.02968812
-0.19826978 -0.21355921 0.3790599 -0.101665944 -0.21924916 0.4144525 0.11582191 -0.72914207
-0.20476072 0.028337408 0.05447023 0.3006712 0.30978006 -0.044180594 -0.33158547 -0.27751464
-0.23453972 0.014467386 0.3032551 -0.26345286 0.24545473 -0.31415984 0.3494865 0.31066793
0.30704656 -0.025997892 0.36942872 -0.124573335 -0.06062298 -0.13155137 -0.15545297 0.33232042
00000000: 9d0f 07be 1951 833e 1f9b 02bf 816e 91bd
00000010: ee1f 49bd 742c cebe 8a27 dd3b 7330 133e
00000020: eae9 65bd cad9 973e 5385 12be 77a8 3e3d
00000030: bc28 4cbe fa1c dfbd 2887 a63b df5f b9bd
00000040: 0620 1fbd d83b abbe cb7f 10bd e595 22be
00000050: d4ec 0cbe 9d5b 493e a09d f7bc f3d9 bcbd
00000060: 2330 eabd 6284 b5bc a5bc 8fbd d3c7 41be
00000070: 3610 1d3f 66c1 e2bd 49c8 7cbd 9b2a 8cbd
00000080: fc60 5b3d e98d edbd 90a6 033d 3847 5bbd
00000090: ceb2 dd3d e8fc e2bc eddb 0abe 244d 6cbd
000000a0: bc37 c23d 0a5d 443c 04da 223d 68cf 423d
000000b0: b98e dcb9 da0a 57bd 6d6c c9bd acf7 35be
000000c0: 9e6b 143e f39e a63d 575a 91bd 6fee aabd
000000d0: 8562 afbc 208d 8cbc 83d4 103e 40ac 52bb
000000e0: 4048 b7bb 30c8 30be b132 ad3e fe60 e5bd
000000f0: 9a83 9c3e 737f 24bd b197 71bd 00a9 c33e
00000100: 2a66 583e f708 48be 8356 de3d 7dba 573e
00000110: 7de4 8ebd c43c 123d d4ed fabc 4054 d43e
00000120: 8e72 febd 4827 43bc 79b9 d0bd a772 ce3e
00000130: 06d1 bcbc 396d bc3e ec95 cebd a437 2abe
00000140: d803 bbbd 5521 cd3b f61a 8f3e 0101 c43d
00000150: 5402 97bd edfa 753e 652f 4dbe 9301 eb3e
00000160: 5dab 9a3e 4748 b83d 32bc 30be 82ba 5ebe
00000170: b5d6 d13e 0512 b13e 65fd 04be 18b3 39bc
00000180: 91ed a23c 2afe 3ebe 244d 8ebe b401 05be
00000190: e69f 663e 62b6 77be 59e3 8cbd 528e 80bd
000001a0: fed1 b43e 68f8 0ebe 8092 3e3e f369 76be
000001b0: 1f07 513d 0e82 2abe 7ccf 9abd dc17 753a
000001c0: f4f0 fbbd 8879 3abe 32a8 4a3e 2e76 1abe
000001d0: 0621 ef3e c3f0 e23e 4d66 8f3e f55a d83d
000001e0: b0ae ddbd b39d f23e c8e2 4e3e 60e6 16be
000001f0: 0e7f 233e 0416 8c3e 5eb4 22be 8233 46be
00000200: 34ce a53c b46c 2d3d 8871 d8bd 0e1b 1fbc
00000210: 0eb0 cfbd 0c78 ef3e da1b e3bd 49b8 a73e
00000220: b4f2 22be a5a2 783e 2079 2dbe 0a50 e7bd
00000230: 0c0e 993d 9239 013e 2d05 dcbc 8ae0 833e
00000240: 80e3 30bf 9cc5 b33e ce2d 64be 9324 e13d
00000250: 142d 6fbb 92a1 18bd 281a f13e ef07 8a3e
00000260: 3fcd b7bd 01c0 603d 1372 2f3e 8278 a5bd
00000270: c728 b83d 8e6d abbb c29a b43e 5f3b c0bd
00000280: 0242 db3c f0c5 2bbb e72d 9c3e e76f e8b9
00000290: b84f c13e dfab 97bd 6d8c 46be 5f21 10be
000002a0: f660 1abc 2cc7 453e ded5 25be a8df 26bd
000002b0: 2368 d73d 5204 44be a073 b23e df5b 5b3e
000002c0: 8b99 dd3d f15e fcbd e211 03be 860c 123f
000002d0: 6884 3a3d 337e ed3d f2b4 df3c fe58 173e
000002e0: 1732 f8bd 5caf 7fbe afc5 f4bd 4d67 ba3d
000002f0: 0058 45be 41e0 01be cc65 f7bd 3e31 1c3f
00000300: 666a 12be 6ac9 ca3e 6f8a 57be c08f ea3d
00000310: ff3c a2bb b6e8 e0bd fa30 26bd cf58 183e
00000320: b7a6 20be 4e2e 503e b873 f6be 14da bbbe
00000330: d676 e3bc 40ec 07be 4603 dd3e 29be 943e
00000340: 37cb 4e3d 4d2f a8be 4fd1 73be 135b 54bc
00000350: 0775 ccbd 7945 843e 12ed 76be 549f 853e
00000360: dbae 38be c913 dd3e 7fc3 913e 0cd6 813e
00000370: d9ce a5be 8343 ad3e f138 a7be 8034 f3bc
00000380: 3c07 4bbe 44af 5abe 2414 c23e 3c36 d0bd
00000390: da82 60be 1e33 d43e 0a34 ed3d 0ea9 3abf
000003a0: cbac 51be da23 e83c 2d1c 5f3d 93f1 993e
000003b0: 7e9b 9e3e b6f6 34bd 92c5 a9be 6616 8ebe
000003c0: 2e2b 70be 9d08 6d3c 4144 9b3e 4be3 86be
000003d0: 7c58 7b3e 8fd9 a0be e5ef b23e de0f 9f3e
000003e0: 3535 9d3e 88f9 d4bc c325 bd3e 4e20 ffbd
000003f0: cd4f 78bd 67b5 06be 102f 1fbe e725 aa3e

network.0.bias f4 [15]
-0.27009895 -0.19996442 0.16830084 0.009325434 -0.14992408 0.19147621 0.08247936 0.09179996
0.09542467 0.22922108 0.2469041 0.15681328 0.12299585 0.19181424 -0.07748814
00000000: 694a 8abe 79c3 4cbe 0e57 2c3e b5c9 183c
00000010: b385 19be 5712 443e f0ea a83d 9e01 bc3d
00000020: 026e c33d eeb8 6a3e 6ed4 7c3e a993 203e
00000030: 40e5 fb3d f46a 443e 1ab2 9ebd

network.3.weight f4 [15, 15]
-0.23583604 0.109862745 -0.16343427 -0.15478565 0.07783348 -0.15961078 0.05035395 -0.0142878145
0.05327916 -0.16578272 0.14093015 -0.21118805 -0.2871506 0.15067816 -0.17443871 -0.2531184
0.043722775 0.0128649715 -0.102020286 0.0647698 -0.17751436 -0.5788114 0.6473718 0.60238236
-0.2551949 -0.3754499 -0.19841728 -0.50650996 -0.3492949 -0.4258942 -0.5807927 -0.14659142
0.36027423 0.4488799 0.6516416 -0.05848163 0.50978017 -0.20843625 -0.19406725 0.4650095
0.43118262 0.31486142 0.32524335 0.2898325 -0.2828915 0.33389384 -0.17130627 0.06824723
0.46597987 0.67969704 0.49579263 0.62405354 0.015378899 0.06897522 0.36106688 0.539676
0.49872354 0.36707062 0.18157335 0.23602018 -0.34968078 0.11119554 0.027291274 0.0862623
1.0119281 0.05117921 0.5633809 -0.013014008 -0.049877968 0.42504862 -0.0023556154 0.37054256
0.29286915 0.5913474 -0.32861444 -0.21065632 0.15305504 0.09293162 0.30052415 1.264387
0.11785756 0.3202047 0.08030695 0.016113058 0.36608365 0.31207883 0.45174024 0.39771584
0.16020355 -0.5001099 -0.72975683 -0.19293337 -0.53455114 -0.26868835 0.13173282 -0.5560371
-0.242457 0.42046842 0.64710885 -0.26492867 -0.22811472 -0.10363009 -0.48287457 -0.654133
-0.4984296 -0.16273236 0.22826096 0.15665911 0.33049196 1.3231995 -0.16755013 0.6393264
-0.16763026 0.14182712 0.18963161 0.23303576 -0.01028906 0.36196896 0.07668441 -0.25043145
-0.41503865 0.31809857 0.07080908 -0.3155546 0.082228035 -0.3791903 -0.57257843 0.516529
0.29966015 -0.1474352 -0.38615766 -0.4331477 -0.67398125 -0.19219962 -0.07731548 -0.23836155
-0.08016093 0.18111616 0.37497145 1.1363057 0.24473248 0.2243057 -0.33996114 -0.22381444
0.13766062 0.11210208 0.07618864 0.46817285 0.47107735 -0.25963646 -0.28175554 0.027172891
0.42260543 0.3341758 0.8662084 0.48162183 0.51146144 -0.3124585 -0.38910747 0.44295672
0.29854065 0.14689262 0.5386168 0.2799276 -0.2783701 -0.42701513 -0.053476594 -0.1989519
-0.32058078 0.20879991 -0.03594526 -0.459353 0.67612547 0.53423035 -0.33593288 -0.2827878
-0.16665372 -0.24229714 -0.08161823 -0.13463084 0.17124104 0.28726095 -0.161869 0.06271484
-0.42175597 0.1255948 0.086559445 -0.39150816 -0.21692726 -0.06313093 -0.12927113 -0.1489761
-0.25268322 -0.16070025 0.58404905 -0.3312051 0.051817525 0.32614157 0.18975227 1.0156227
0.3887904 0.442085 -0.15378481 -0.09796796 0.35017255 0.38085037 0.582956 0.18798324
0.50487566 -0.19795428 -0.50003856 -0.17448254 0.106301256 -0.19782689 -0.07978762 -0.097539976
-0.2909546 0.6020953 0.7990479 -0.32988483 -0.31392625 -0.2685023 -0.06959743 -0.20331924
-0.40589064
00000000: 017f 71be b8ff e03d 505b 27be 2180 1ebe
00000010: 2967 9f3d 0271 23be f23f 4e3d 7017 6abc
00000020: 403b 5a3d f2c2 29be fe4f 103e ae41 58be
00000030: 6705 93be 604b 1a3e 10a0 32be bc98 81be
00000040: a716 333d 9ac7 523c 03f0 d0bd 07a6 843d
00000050: 53c6 35be fc2c 14bf 29ba 253f bb35 1a3f
00000060: e8a8 82be f83a c0be e62d 4bbe a3aa 01bf
00000070: c8d6 b2be ce0e dabe d5ae 14bf 101c 16be
00000080: dd75 b83e 96d3 e53e fcd1 263f 6f8a 6fbd
00000090: f480 023f 5070 55be 91b9 46be ba15 ee3e
000000a0: f8c3 dc3e 8435 a13e 4c86 a63e ed64 943e
000000b0: 28d7 90be 22f4 aa3e e96a 2fbe 34c5 8b3d
000000c0: ea94 ee3e a000 2e3f 88d8 fd3e f9c1 1f3f
000000d0: c7f7 7b3c e142 8d3d c2dd b83e 3528 0a3f
000000e0: b158 ff3e aef0 bb3e 5dee 393e 46af 713e
000000f0: 5c09 b3be 7dba e33d f391 df3c 4aaa b03d
00000100: dc86 813f 4ba1 513d bb39 103f b538 55bc
00000110: d74c 4cbd f99f d93e ab60 1abb c1b7 bd3e
00000120: f2f2 953e 8b62 173f 2740 a8be 4ab6 57be
00000130: 76ba 1c3e ef52 be3d 4dde 993e 6fd7 a13f
00000140: 4e5f f13d dff1 a33e f877 a43d 88ff 833c
00000150: 516f bb3e ccc8 9f3e 7f4a e73e 69a1 cb3e
00000160: 660c 243e 3407 00bf 58d1 3abf 5390 45be
00000170: 58d8 08bf 8591 89be f8e4 063e 7358 0ebf
00000180: a646 78be a347 d73e eda8 253f bba4 87be
00000190: e896 69be 033c d4bd 563b f7be 4375 27bf
000001a0: 2a32 ffbe 50a3 26be 3ebd 693e 3f6b 203e
000001b0: 3e36 a93e 9a5e a93f 4392 2bbe e5aa 233f
000001c0: 44a7 2bbe 213b 113e ca2e 423e eda0 6e3e
000001d0: 7293 28bc ff53 b93e b70c 9d3d 8d38 80be
000001e0: f27f d4be d1dd a23e 5a04 913d 5f90 a1be
000001f0: 2c67 a83d 3b25 c2be 8094 12bf 3f3b 043f
00000200: 0e6d 993e 41f9 16be 75b6 c5be 89c5 ddbe
00000210: 098a 2cbf facf 44be 9457 9ebd 0d15 74be
00000220: 6a2b a4bd 8476 393e 42fc bf3e 7772 913f
00000230: 279b 7a3e 65b0 653e 630f aebe 9d2f 65be
00000240: e8f6 0c3e c695 e53d ca08 9c3d 5ab4 ef3e
00000250: 0d31 f13e 12ef 84be 4342 90be af99 de3c
00000260: bd5f d83e 1719 ab3e d5bf 5d3f 2397 f63e
00000270: 23ef 023f 8ffa 9fbe 1839 c7be 39cb e23e
00000280: 52da 983e 056b 163e cae2 093f ac52 8f3e
00000290: 8786 8ebe baa1 dabe 460a 5bbd 0cba 4bbe
000002a0: 2a23 a4be a5cf 553e 563b 13bd 5130 ebbe
000002b0: 8f16 2d3f 52c3 083f 65ff abbe 90c9 90be
000002c0: 46a7 2abe be1c 78be 7527 a7bd abdc 09be
000002d0: d059 2f3e de13 933e fdc0 25be a370 803d
000002e0: 66f0 d7be ec9b 003e 1446 b13d c273 c8be
000002f0: 2e22 5ebe ca4a 81bd a75f 04be 318d 18be
00000300: b25f 81be 9b8e 24be 3d84 153f b793 a9be
00000310: 9d3e 543d 07fc a63e 6b4e 423e edff 813f
00000320: 890f c73e f758 e23e c479 1dbe 6da3 c8bd
00000330: d149 b33e d2fe c23e 9b3c 153f ae7e 403e
00000340: 883f 013f 87b4 4abe 8702 00bf 8dab 32be
00000350: 79b4 d93d 2293 4abe b167 a3bd 0ac3 c7bd
00000360: 00f8 94be eb22 1a3f 678e 4c3f aae6 a8be
00000370: f1ba a0be 2279 89be 1989 8ebd eb32 50be
00000380: e6d0 cfbe

network.3.bias f4 [15]
-0.26682207 0.28901476 0.12445186 -0.110818386 0.041690942 -0.06156742 0.23755433 -0.27754334
0.354744 0.22723755 0.2148254 0.07201337 0.1876538 0.13493681 0.12614477
00000000: e79c 88be bef9 933e 9ee0 fe3d c0f4 e2bd
00000010: 1fc4 2a3d 1e2e 7cbd 7141 733e 291a 8ebe
00000020: 01a1 b53e f6b0 683e 31fb 5b3e bf7b 933d
00000030: 5128 403e e02c 0a3e 182c 013e

network.6.weight f4 [15, 15]
-0.12028752 -0.31391004 0.04668901 -0.19047688 0.100564316 -0.102196306 -0.14027432 0.007541145
-0.06875154 -0.2497473 -0.13408743 -0.1441068 -0.2953943 -0.23290925 0.34153455 0.04352034
-0.20354821 0.30024096 0.11921093 0.23127119 0.42244437 -0.12845841 0.8155531 0.022009205
0.31879684 -0.0058895596 0.048798308 0.045681674 -0.03493341 -0.42711174 -0.20155872 0.36270458
-0.2193384 -0.28082252 -0.3187606 -0.29973075 0.43548793 0.09554387 0.49621528 -0.26446778
-0.32337424 0.2806389 -0.15178737 -0.37096807 1.0309905 -0.20626873 0.23716646 0.43777618
0.13721733 0.123989865 0.29574525 -0.2673418 0.4549957 -0.16287062 0.31199303 0.09624556
-0.28646138 -0.29938978 0.46190962 -0.09709982 0.1479994 0.3341032 -0.5422855 -0.36999834
-0.34802237 -0.21221283 0.40022776 -0.24669367 0.3768664 -0.46940777 -0.4382967 0.38386926
0.054728292 -0.33166417 0.7537719 -0.12473667 0.5024039 -0.16698962 -0.4142886 -0.3353496
-0.0028136782 0.6162765 0.06603547 0.17742063 -0.47633594 -0.4509682 0.1944309 0.0016307355
-0.3434207 0.44806072 0.18942598 0.15204495 -0.23630168 -0.08520117 0.009855216 -0.04567869
-0.14679183 -0.20807013 -0.23904526 0.028870478 -0.17260942 -0.23477377 0.19928667 0.062093385
-0.07703237 0.041201115 -0.1766781 -0.21229601 -0.35165042 0.3041115 0.1599283 -0.25431177
1.0527558 -0.24411361 -0.06353552 0.11332533 -0.36311188 -0.33826086 -0.33267826 -0.17740017
-0.093446106 0.8460098 -0.10923865 0.09223299 -0.4374555 -0.14978793 0.93934786 -0.019167513
0.24998946 -0.11958901 -0.24908887 0.81882054 0.06288935 -0.1359921 0.8534824 -0.22349092
0.06625129 -0.13722137 -0.07048851 -0.14851263 -0.10773045 -0.06608218 0.1157701 -0.064786434
0.100336805 0.026034735 -0.0015253425 0.103514284 -0.11576121 -0.19896676 -0.17007414 0.19168116
-0.45049214 -0.493479 -0.37997055 -0.3862004 0.52906966 0.15409274 0.48087898 -0.30148575
-0.38727304 0.43209445 -0.71355724 -0.25594723 0.66701114 0.17868808 0.52682483 -0.49924287
0.075223826 -0.38605675 -0.3950719 0.83782774 0.099415384 -0.005612277 -0.36549073 -0.569215
0.38989618 0.20360364 -0.5062291 1.0358148 -0.014410499 -0.15322617 0.18766336 0.43853977
0.52129143 0.070874564 0.046195194 0.66619813 0.0530192 0.38414246 0.17636034 0.040450897
-0.2308217 0.3467266 -0.094341904 0.021768471 -0.026651796 -0.10130645 0.3250005 0.60133415
0.5455542 -0.0842753 0.907138 0.014885655 0.123394735 -0.04163821 -0.03469644 -0.2760525
0.24755985 -0.04351345 0.1807611 -0.028066752 0.4041883 0.16761485 0.185864 0.23092926
-0.09245096 0.38432515 0.11690789 0.34147608 0.3646856 -0.17025188 -0.4546096 0.46527037
-0.19633155
00000000: 4e59 f6bd d1b8 a0be fa3c 3f3d 5f0c 43be
00000010: aaf4 cd3d 4c4c d1bd 12a4 0fbe b61b f73b
00000020: 9bcd 8cbd c2bd 7fbe 374e 09be bc90 13be
00000030: ec3d 97be c37f 6ebe 9edd ae3e 6242 323d
00000040: f16e 50be 2fb9 993e dc24 f43d 5bd2 6c3e
00000050: a14a d83e 9a8a 03be 17c8 503f a64c b43c
00000060: 5739 a33e 35fd c0bb bce0 473d b51c 3b3d
00000070: 5616 0fbd 64ae dabe 6965 4ebe 6ab4 b93e
00000080: 3f9a 60be f8c7 8fbe 9734 a3be 4f76 99be
00000090: 46f8 de3e 81ac c33d ee0f fe3e 5268 87be
000000a0: 4f91 a5be e7af 8f3e 266e 1bbe 87ef bdbe
000000b0: 7ff7 833f 1c38 53be c4db 723e 3324 e03e
000000c0: b382 0c3e 66ee fd3d ec6b 973e 06e1 88be
000000d0: 32f5 e83e 8ec7 26be 8dbd 9f3e 641c c53d
000000e0: 11ab 92be 9e49 99be 6b7f ec3e 45dc c6bd
000000f0: 288d 173e 930f ab3e 39d3 0abf 6c70 bdbe
00000100: fd2f b2be 524e 59be a7ea cc3e 449d 7cbe
00000110: a2f4 c03e 3756 f0be 6d68 e0be 838a c43e
00000120: c62a 603d e3cf a9be 32f7 403f f075 ffbd
00000130: 8b9d 003f 54ff 2abe a31d d4be f1b2 abbe
00000140: b065 38bb 4cc4 1d3f 9b3d 873d c1ad 353e
00000150: 4ee2 f3be 4ee5 e6be e518 473e 67be d53a
00000160: d7d4 afbe 3768 e53e e2f8 413e acb1 1b3e
00000170: 11f9 71be f37d aebd c677 213c 9419 3bbd
00000180: 9950 16be 5610 55be 48c8 74be c881 ec3c
00000190: 86c0 30be 8968 70be ce11 4c3e a255 7e3d
000001a0: 26c3 9dbd 80c2 283d 1beb 34be 2064 59be
000001b0: 860b b4be 81b4 9b3e 3fc4 233e 2735 82be
000001c0: b4c0 863f ebf8 79be e91e 82bd 1c17 e83d
000001d0: cde9 b9be 8730 adbe ce54 aabe 64a8 35be
000001e0: ac60 bfbd 1994 583f 83b8 dfbd a6e4 bc3d
000001f0: 2bfa dfbe 0262 19be 1a79 703f 3005 9dbc
00000200: 3dfd 7f3e 15eb f4bd 2711 7fbe 399e 513f
00000210: 22cc 803d 8341 0bbe d37d 5a3f ceda 64be
00000220: c2ae 873d c283 0cbe 485c 90bd b213 18be
00000230: c8a1 dcbd 1856 87bd e018 ed3d c0ae 84bd
00000240: 627d cd3d cc46 d53c 00ee c7ba 4cff d33d
00000250: 3714 edbd f1bd 4bbe ea27 2ebe 1148 443e
00000260: e8a6 e6be 48a9 fcbe 808b c2be 0fbc c5be
00000270: 1c71 073f 7dca 1d3e c535 f63e 575c 9abe
00000280: a748 c6be 7c3b dd3e b0ab 36bf 840b 83be
00000290: 3ec1 2a3f 02fa 363e fedd 063f c39c ffbe
000002a0: f30e 9a3d 3ba9 c5be dd46 cabe e17b 563f
000002b0: 4b9a cb3d 31e7 b7bb 9a21 bbbe 13b8 11bf
000002c0: 79a0 c73e 797d 503e 3b98 01bf 9495 843f
000002d0: 031a 6cbc 52e7 1cbe d32a 403e 4988 e03e
000002e0: 5b73 053f af26 913d 2c37 3d3d f68b 2a3f
000002f0: a92a 593d 52ae c43e ce97 343e d7af 253d
00000300: 865c 6cbe 2686 b13e 5436 c1bd cb53 b23c
00000310: de54 dabc c279 cfbd 7766 a63e 09f1 193f
00000320: 71a9 0b3f 8798 acbd 323a 683f f6e2 733c
00000330: 61b6 fc3d d48c 2abd db1d 0ebd c156 8dbe
00000340: 5480 7d3e 293b 32bd 7019 393e 3fec e5bc
00000350: c5f1 ce3e 3aa3 2b3e 2253 3e3e b878 6c3e
00000360: ee56 bdbd 44c6 c43e 676d ef3d f4d5 ae3e
00000370: 12b8 ba3e 8256 2ebe 97c2 e8be eb37 ee3e
00000380: 230b 49be

network.6.bias f4 [15]
-0.026847463 -0.20410416 0.40246612 0.14535439 0.41771042 0.3845789 -0.30093107 0.17183529
-0.12277231 -0.19380222 0.32385126 0.124455824 0.017407397 0.07980713 0.071804896
00000000: 36ef dbbc ae00 51be 0a10 ce3e c8d7 143e
00000010: 24de d53e 87e7 c43e a313 9abe 97f5 2f3e
00000020: 0d70 fbbd 1774 46be d5cf a53e b2e2 fe3d
00000030: f599 8e3c ec71 a33d 720e 933d

network.9.weight f4 [1, 15]
-0.089580886 0.4103806 -0.44899267 0.27042145 -0.36574474 -0.53908443 -0.045034435 0.21125725
-0.83492935 -0.020230511 -0.6581274 -0.69929016 0.21104786 0.33620206 0.26962763
00000000: 2f76 b7bd 681d d23e 5ee2 e5be ae74 8a3e
00000010: e542 bbbe 7001 0abf 0776 38bd d253 583e
00000020: eebd 55bf 75ba a5bc 0a7b 28bf ae04 33bf
00000030: ee1c 583e ad22 ac3e a20c 8a3e
