experiments/exp_real/saved_models/run_0/bootstrapped/m1_7.pt (torch, 6449 bytes, 7 tensors)

network.0.weight f4 [15, 29]
-0.25139934 -0.017011829 -0.1777899 0.06654244 -0.06253464 -0.15518588 -0.35319963 -0.0731783
-0.015457036 -0.028248811 0.05999348 -0.10803236 -0.13582672 -0.21978612 0.119556926 -0.023247998
0.23939955 -0.2680751 0.035966646 -0.36091438 0.20817107 -0.102378815 0.034909487 0.032090712
-0.12201953 -0.009451411 0.058367718 -0.06726848 0.15541331 0.3811002 0.21467909 0.1213581
-0.13079895 -0.11005562 0.5649045 0.004387635 0.03000986 -0.07281631 0.2142759 -0.2952066
0.09288852 -0.24528576 0.25631744 -0.2868457 -0.18711394 -0.2656815 0.33493719 -0.2565991
0.074439436 -0.27021405 -0.030561203 -0.03951281 -0.16639778 0.23140535 -0.01947055 -0.2661234
0.1148308 -0.36407524 -0.24468376 -0.16049811 -0.16301835 0.060743175 0.08387596 -0.14338298
-0.05062839 0.01393046 0.00406789 -0.008243458 0.071489304 -0.007044421 0.18105714 -0.11350754
0.25677747 0.07797636 0.13988054 -0.06844115 0.2612565 -0.32790217 0.1498322 -0.021586355
0.16745439 0.10520712 0.07698438 -0.057157934 0.10463363 0.11961113 -0.18847963 0.29157826
0.04224483 0.41970134 -0.21608658 -0.1518414 0.9784069 0.120160095 0.011492433 0.053735733
0.055668782 -0.12678795 0.11044035 -0.1434522 0.29623258 -0.17673029 -0.14600264 -0.19943987
0.4653083 -0.14256999 0.40755057 -0.15595783 0.056523066 0.05881468 -0.21890989 0.06306806
0.07431363 -0.178683 0.67681205 -0.40993285 -0.499254 0.21583179 -0.14646854 0.29491267
0.2992071 -0.16382512 -0.19493632 -0.15249652 -0.22210929 -0.04723239 0.28534147 -0.05573765
0.36226347 -0.036730554 0.51142776 0.32378393 0.32049003 -0.045421228 0.36040977 -0.25577337
-0.057643976 -0.27532318 -0.17491044 0.32024407 0.13625093 -0.23284969 0.41372454 -0.035915747
-0.9171804 0.26759118 0.26817718 0.30492213 -0.21889925 0.16147986 0.4667548 -0.10758332
0.027189579 -0.14338006 0.38787758 0.1872816 -0.25423202 0.1402423 -0.11993469 0.076423265
-0.23129311 0.17592078 0.29503945 0.14365312 0.090192646 -0.08463252 -0.110108316 -0.2028293
0.22368799 0.2517831 -0.11924867 0.09474844 0.20766342 -0.41225445 -0.28418985 -0.14956695
-0.08352404 0.20331076 0.22218822 -0.037467405 -0.21020305 -0.036286976 -0.18426381 -0.034055173
0.083161466 -0.028810535 0.102805346 -0.1126493 0.31448966 0.10183155 0.112038 -0.29508525
0.1443254 -0.28060654 0.025658386 -0.016476134 -0.06002995 0.021744646 0.004220341 0.027246581
0.28306746 -0.17750975 -0.009681283 -0.046770003 0.16902196 -0.37614927 -0.111847885 0.069651335
-0.34659997 -0.11735949 0.13608144 0.04450529 0.16976759 -0.024228686 0.48443374 -0.035187382
-0.15899296 -0.26723957 -0.24380611 -0.24491602 -0.37026075 -0.027954657 -0.107364506 0.23196228
0.048131127 0.14092974 -0.27689797 0.053775508 0.052076902 0.11671479 -0.1736795 0.3481249
0.25470856 0.054500114 0.29221815 -0.17494029 -0.2454317 0.80160207 -0.024988223 0.041921254
0.14517078 0.12403815 -0.2082612 0.038538378 -0.1453673 0.069482766 -0.19859777 -0.24293019
-0.21868691 0.5445839 -0.23170274 0.2057498 -0.24906419 0.12620781 -0.061387163 -0.19730464
00000000: 6ab7 80be 645c 8bbc 8e0e 36be 6747 883d
00000010: 2912 80bd 0ce9 1ebe 95d6 b4be 81de 95bd
00000020: 823f 7dbc 0d6a e7bc b9bb 753d 1240 ddbd
00000030: 2916 0bbe 9d0f 61be 43da f43d 9672 bebc
00000040: 2825 753e 2441 89be c351 133d c5c9 b8be
00000050: cc2a 553e fcab d1bd 40fd 0e3d 8d71 033d
00000060: 60e5 f9bd 17da 1abc fd12 6f3d 0fc4 89bd
00000070: ab24 1f3e 911f c33e d6d4 5b3e 988a f83d
00000080: 29f0 05be d764 e1bd 959d 103f 26c6 8f3b
00000090: 3dd7 f53c b820 95bd 246b 5b3e 5225 97be
000000a0: 563c be3d 312c 7bbe 0a3c 833e 71dd 92be
000000b0: cc9a 3fbe 6807 88be e37c ab3e f560 83be
000000c0: b473 983d 7f59 8abe 7d5b fabc 2fd8 21bd
000000d0: 2e64 2abe 86f5 6c3e b480 9fbc 5441 88be
000000e0: 692c eb3d 1268 babe 618e 7abe 9e59 24be
000000f0: 48ee 26be d6cd 783d 29c7 ab3d fdd2 12be
00000100: b75f 4fbd 963c 643c ef4b 853b 920f 07bc
00000110: fc68 923d e3d4 e6bb 0b67 393e a476 e8bd
00000120: 5678 833e 12b2 9f3d d83c 0f3e e02a 8cbd
00000130: 69c3 853e cbe2 a7be 9d6d 193e ded5 b0bc
00000140: 2a79 2b3e d576 d73d fda9 9d3d 701e 6abd
00000150: 284a d63d aef6 f43d ce00 41be bf49 953e
00000160: ea08 2d3d 18e3 d63e cd45 5dbe 507c 1bbe
00000170: e078 7a3f 7f16 f63d c24a 3c3c 001a 5c3d
00000180: f304 643d b3d4 01be 8d2e e23d 22e5 12be
00000190: ccab 973e c9f8 34be b781 15be f739 4cbe
000001a0: e43c ee3e defd 11be 78aa d03e 69b3 1fbe
000001b0: bb84 673d a9e7 703d ea29 60be d429 813d
000001c0: bf31 983d adf8 36be 8e43 2d3f b8e2 d1be
000001d0: 389e ffbe 0203 5d3e d9fb 15be cbfe 963e
000001e0: ac31 993e c6c1 27be 639d 47be 0c28 1cbe
000001f0: 9e70 63be c076 41bd 4718 923e 294d 64bd
00000200: 997a b93e c772 16bd eeec 023f 02c7 a53e
00000210: 4517 a43e 9c0b 3abd a187 b83e baf4 82be
00000220: 171c 6cbd 29f7 8cbe b91b 33be 08f7 a33e
00000230: 5d85 0b3e 2670 6ebe b4d3 d33e 641c 13bd
00000240: 56cc 6abf b601 893e 854e 893e c11e 9c3e
00000250: 2027 60be fa5a 253e 7cfa ee3e a554 dcbd
00000260: aebc de3c 39d2 12be e497 c63e bfc6 3f3e
00000270: b32a 82be ad9b 0f3e 52a0 f5bd cd83 9c3d
00000280: 1ad8 6cbe 9424 343e 690f 973e ce19 133e
00000290: ecb6 b83d d153 adbd 7880 e1bd 7cb2 4fbe
000002a0: 770e 653e b7e9 803e a638 f4bd 780b c23d
000002b0: b8a5 543e 0413 d3be 5581 91be 1428 19be
000002c0: a70e abbd b230 503e 4f85 633e 6c77 19bd
000002d0: 783f 57be a7a1 14bd a7af 3cbe 707d 0bbd
000002e0: 8f50 aa3d 1204 ecbc 9c8b d23d adb4 e6bd
000002f0: ca04 a13e 0f8d d03d 2e74 e53d 6a15 97be
00000300: 0aca 133e a9ab 8fbe 8931 d23c f5f8 86bc
00000310: f7e1 75bd d421 b23c c94a 8a3b 3934 df3c
00000320: 38ee 903e 1ec5 35be 3e9e 1ebc e791 3fbd
00000330: 1814 2d3e a396 c0be 8110 e5bd 5ca5 8e3d
00000340: 8d75 b1be 2c5a f0bd ef58 0b3e 2e4b 363d
00000350: 8ed7 2d3e 3d7b c6bc b307 f83e a520 10bd
00000360: 0dcf 22be a0d3 88be 4fa8 79be 44cb 7abe
00000370: d192 bdbe 2a01 e5bc ece1 dbbd 8587 6d3e
00000380: 2525 453d e34f 103e 92c5 8dbe b543 5c3d
00000390: 974e 553d 2a08 ef3d 0ad9 31be 6d3d b23e
000003a0: 2969 823e 833b 5f3d 9e9d 953e 8c23 33be
000003b0: 7352 7bbe cb35 4d3f 1ab4 ccbc 9fb5 2b3d
000003c0: a6a7 143e b707 fe3d 6d42 55be 6bda 1d3d
000003d0: 2adb 14be fb4c 8e3d 375d 4bbe b1c2 78be
000003e0: 76ef 5fbe da69 0b3f 7c43 6dbe 13b0 523e
000003f0: af0a 7fbe 9f3c 013e 1b71 7bbd 3a0a 4abe

network.0.bias f4 [15]
0.1208272 0.13273086 0.13149032 0.16071466 -0.050928913 0.12576538 0.1615483 -0.16388981
0.15251385 0.2812856 0.20223719 0.06450607 0.026450781 0.16800183 -0.082620546
00000000: 4074 f73d 99ea 073e 66a5 063e 6292 243e
00000010: d69a 50bd a4c8 003e eb6c 253e bbd2 27be
00000020: 972c 1c3e ab04 903e 4417 4f3e c21b 843d
00000030: 4faf d83c ac08 2c3e f634 a9bd

network.3.weight f4 [15, 15]
-0.1993403 -0.096552156 0.12773044 -0.22798075 0.7140651 -0.03718472 0.075279206 -0.1539189
-0.22093733 0.12060585 -0.24454384 0.118444204 -0.06927993 -0.23023403 0.33535126 -0.0779114
0.2995517 -0.15539874 0.24217224 -0.16192178 0.22394696 -0.15068294 -0.53692055 0.31783858
0.41598356 0.26855537 -0.17118563 0.36208922 0.40489936 -0.33809757 0.06069152 -0.31356975
-0.044935156 -0.17991233 -0.061944123 0.18245038 0.059313472 0.092426114 0.12945013 -0.012019603
0.07393571 -0.028953819 -0.30746698 -0.089973636 -0.20112237 0.021245938 -0.09976332 -0.053353194
-0.31017762 1.2707756 0.20437005 0.15385705 -0.18536282 -0.13742821 0.9702346 -0.5155883
-0.07455747 -0.36927435 -0.12773734 0.9852514 -0.03537691 -0.36631516 0.23096548 -0.38335222
1.0030175 0.571214 0.044719152 -0.26395243 -0.42109236 1.2084188 -0.4056052 -0.041279756
0.1402161 -0.09230944 0.93482774 -0.32102606 0.31657022 -0.350781 0.42054316 -0.4610932
0.4395725 -0.5381335 -0.38639393 0.39796472 0.18323097 0.05620773 -0.5431494 0.3414971
-0.050161555 0.07963831 -0.11892375 -0.1085405 0.15911752 -0.4170283 1.0861795 0.39592576
0.18531078 0.18750535 -0.40990672 0.11597219 -0.43923533 0.06327282 -0.14187282 -0.4262506
0.530561 -0.37955198 0.18889765 -0.18076918 0.06589611 -0.20418921 0.24703304 -0.2985037
-0.36303556 0.10722603 0.52306336 0.13678132 -0.15760359 0.17733164 0.29328132 -0.38849652
0.15363099 -0.045092363 0.19574699 -0.02435527 0.5262351 -0.06970093 -0.15296637 0.34032813
-0.22087422 0.02592423 -0.13125317 0.31201786 -0.07207429 -0.23457608 0.57775795 0.14699854
0.034677494 0.018034704 -0.43633205 0.93067545 0.12944718 -0.047552943 0.052821446 -0.5897538
0.18157884 -0.40546247 -0.20125587 -0.055642128 -0.4703508 0.5709842 -0.42663252 0.18822093
-0.13612536 0.39918542 -0.059020694 0.38911375 -0.26432008 0.023875253 0.36634645 0.32456386
0.55606806 -0.24118334 0.3594961 0.049058124 -0.2605421 0.07631006 -0.16589376 0.19580318
-0.29994962 0.691156 0.097564556 -0.022424495 -0.25029686 -0.22587427 0.4368626 -0.16776949
-0.3205063 -0.020361723 -0.34299275 0.44996446 0.18250637 -0.51337415 -0.1592456 0.06808284
-0.1953149 -0.14166966 -0.1981101 -0.10238443 0.07675245 -0.6078969 0.11266592 0.23518823
-0.319466 -0.26606202 -0.05086791 0.15891635 0.20138144 0.14258118 -0.19449131 0.9712685
0.23758303 0.037042763 0.29191303 -0.12914176 0.17248997 -0.25598645 0.3039226 0.035449915
-0.2978213 0.37468454 -0.17035961 0.3841228 0.01446286 0.26283666 -0.050954483 0.36973983
-0.2230798 -0.03975434 0.27094182 0.09690457 0.53253406 -0.15404785 0.04940529 0.42344734
-0.18205003
00000000: dd1f 4cbe 23bd c5bd c5cb 023e c973 69be
00000010: f8cc 363f 014f 18bd fc2b 9a3d eb9c 1dbe
00000020: 653d 62be 3300 f73d b369 7abe e092 f23d
00000030: a3e2 8dbd 78c2 6bbe 29b3 ab3e 0390 9fbd
00000040: d75e 993e d920 1fbe 00fc 773e d3ce 25be
00000050: 5a52 653e a14c 1abe a073 09bf bdbb a23e
00000060: ccfb d43e 1780 893e 494b 2fbe c263 b93e
00000070: f84e cf3e 201b adbe ac97 783d 378c a0be
00000080: ed0d 38bd f03a 38be 1fb9 7dbd 46d4 3a3e
00000090: aff2 723d e749 bd3d 938e 043e deed 44bc
000000a0: 9b6b 973d 8f30 edbc 506c 9dbe 1944 b8bd
000000b0: 06f3 4dbe f60b ae3c b650 ccbd e188 5abd
000000c0: 9acf 9ebe c6a8 a23f 6246 513e b48c 1d3e
000000d0: c0cf 3dbe fbb9 0cbe 4b61 783f 98fd 03bf
000000e0: 96b1 98bd 8711 bdbe 94cd 02be 7039 7c3f
000000f0: 61e7 10bd a98d bbbe 3782 6c3e be46 c4be
00000100: e162 803f 153b 123f 6e2b 373d c624 87be
00000110: 6b99 d7be 78ad 9a3f 7cab cfbe f614 29bd
00000120: cf94 0f3e bb0c bdbd df50 6f3f 875d a4be
00000130: 7e15 a23e 9199 b3be 6f51 d73e 6814 ecbe
00000140: a60f e13e 1ec3 09bf 6dd5 c5be 08c2 cb3e
00000150: e6a0 3b3e 143a 663d d70b 0bbf b5d8 ae3e
00000160: 3476 4dbd 6919 a33d 4c8e f3bd 7b4a debd
00000170: b4ef 223e bc84 d5be ee07 8b3f c8b6 ca3e
00000180: 1cc2 3d3e 6701 403e 4bdf d1be d482 ed3d
00000190: 74e3 e0be 2e95 813d 1c47 11be 853d dabe
000001a0: d8d2 073f a354 c2be 636e 413e 8e1b 39be
000001b0: 8af4 863d fa16 51be 3bf6 7c3e 7ad5 98be
000001c0: ccdf b9be 5299 db3d 7be7 053f 6710 0c3e
000001d0: d662 21be 6d96 353e f828 963e 04e9 c6be
000001e0: 7151 1d3e c5b2 38bd e671 483e b484 c7bc
000001f0: 58b7 063f 5cbf 8ebd 37a3 1cbe 7d3f ae3e
00000200: da2c 62be 0d5f d43c 3b67 06be cec0 9f3e
00000210: af9b 93bd b634 70be f2e7 133f c986 163e
00000220: fd09 0e3d 84bd 933c ea66 dfbe bf40 6e3f
00000230: cd8d 043e e0c6 42bd 4d5b 583d 1bfa 16bf
00000240: ceef 393e c798 cfbe 0516 4ebe 00e9 63bd
00000250: d2d1 f0be 052c 123f 946f dabe fdbc 403e
00000260: 7264 0bbe 0862 cc3e afbf 71bd eb39 c73e
00000270: f654 87be 0996 c33c c391 bb3e 3c2d a63e
00000280: 7a5a 0e3f c4f8 76be df0f b83e 2cf1 483d
00000290: c665 85be 7348 9c3d 0ee0 29be a180 483e
000002a0: ff92 99be 9aef 303f edcf c73d 93b3 b7bc
000002b0: e926 80be 964b 67be 74ac df3e c4cb 2bbe
000002c0: 6719 a4be a1cd a6bc bf9c afbe be61 e63e
000002d0: f3e2 3a3e 7d6c 03bf 4711 23be 046f 8b3d
000002e0: a100 48be da11 11be 60dd 4abe eeae d1bd
000002f0: 6330 9d3d 229f 1bbf 64bd e63d 2fd5 703e
00000300: 0c91 a3be 4839 88be df5a 50bd f8ba 223e
00000310: f036 4e3e cd00 123e bb28 47be 0da5 783f
00000320: f748 733e 27ba 173d a075 953e bd3d 04be
00000330: 36a1 303e a810 83be be9b 9b3e ee33 113d
00000340: 097c 98be a7d6 bf3e c072 2ebe beab c43e
00000350: a2f5 6c3c 8792 863e a6b5 50bd 8a4e bd3e
00000360: 086f 64be 72d5 22bd e3b8 8a3e e775 c63d
00000370: 2754 083f b8be 1dbe 345d 4a3d 17ce d83e
00000380: 536b 3abe

network.3.bias f4 [15]
0.18560171 0.019092277 -0.14184083 -0.109536655 -0.08506698 -0.23494102 0.17680915 0.14449604
0.086108364 0.16388437 0.17316288 0.004234724 0.12570725 -0.0574595 0.0838539
00000000: 600e 3e3e 6867 9c3c b93e 11be c154 e0bd
00000010: 9937 aebd 6194 70be 750d 353e c5f6 133e
00000020: 9559 b03d 4ed1 273e 9c51 313e 71c3 8a3b
00000030: 67b9 003e a75a 6bbd 98bb ab3d

network.6.weight f4 [15, 15]
-0.1574436 0.23469184 0.09187954 0.08373684 0.026555095 0.3282186 -0.38187405 0.37978956
-0.21025883 -0.45599917 0.11629613 -0.13810807 -0.3893546 -0.42445162 0.25533944 -0.15728146
0.25518858 0.016225806 0.122748345 0.18255822 0.36621946 -0.22551383 0.43135947 -0.16861403
-0.2877013 0.29589403 -0.11345455 -0.11945652 -0.26132116 0.5042515 0.12443166 -0.49376297
-0.0025456874 0.93892753 0.89691865 -0.32530594 -0.04350626 -0.32862887 0.14115123 0.41033354
-0.64028513 0.09789121 -0.039005682 -0.07891625 -0.49721453 -0.047450766 0.43010625 -0.03995085
-0.03992966 0.25339136 0.7529375 -0.28785276 0.2969708 -0.07179736 -0.4660458 0.12644592
0.056912854 0.0762697 -0.48818576 0.10866007 0.2862795 -0.40743324 -0.049317267 0.6602003
0.8430088 -0.061158244 0.2346075 -0.3708144 -0.17886564 0.2791926 -0.4595941 0.41633075
0.12093555 0.30106267 -0.45995578 -0.27764618 0.15773867 -0.114788055 0.050240565 0.21597807
0.5406885 -0.29705948 0.31308764 -0.41028005 -0.50025237 -0.053902104 0.004059041 -0.51368886
-0.24843639 0.18395437 -0.011340921 -0.24811427 -0.11066215 0.5041958 1.0031635 -0.011528522
0.23898551 -0.37292668 -0.12274346 0.27738923 -0.613055 0.44420573 -0.036656506 0.14740178
-0.53591114 0.16103597 -0.12933482 -0.04325142 0.83459294 0.70933944 -0.10776023 0.3560146
-0.2369339 0.20890537 0.108955495 -0.2983124 0.46568316 0.181702 -0.0951937 -0.43387386
-0.22605911 0.16462038 -0.05277631 -0.29673135 0.30872384 0.8048427 -0.2712699 0.33628947
-0.46699092 -0.5818636 -0.013262274 -0.1865258 -0.6068807 -0.15176865 0.2495049 0.12537535
-0.27741385 0.25033128 0.43154174 0.6461782 -0.20334826 0.17965871 -0.35707998 -0.2453149
0.470496 -0.27346045 0.46239308 -0.18113358 0.24893367 -0.1368551 0.28212416 -0.49363708
-0.2090779 1.1582638 1.0333211 -0.0020008413 0.08912873 -0.5070181 0.1926061 0.2777211
-0.3228564 0.16746463 0.2589991 0.043229096 -0.52452064 0.055469774 0.26743507 0.24010932
0.14499383 0.11846859 0.56518084 -0.16484477 0.19317243 -0.23132649 -0.21234201 0.3464545
-0.22282138 -0.22566468 -0.32244083 0.3800784 0.20205471 -0.21601146 -0.020229079 0.008847891
0.18165444 -0.24547087 0.2761804 -0.18924975 0.21581447 0.43004054 -0.025889661 0.1538164
0.1811218 0.15271123 0.073886454 -0.07762193 0.27686632 -0.07735533 -0.35764748 0.34949332
0.7338866 -0.48702487 0.4202742 -0.40238982 -0.19820821 0.1252312 -0.2844197 0.09382308
-0.46121743 -0.020822523 -0.22545275 0.3610299 0.10347527 -0.18066815 0.10516107 0.3883546
0.05658115 0.32178918 0.006829981 -0.22684309 0.42447153 0.081755616 0.06301636 -0.231712
0.061348584
00000000: e538 21be 0f53 703e 572b bc3d 387e ab3d
00000010: 128a d93c 450c a83e ff84 c3be c773 c23e
00000020: 174e 57be b978 e9be aa2c ee3d 346c 0dbe
00000030: 7c59 c7be b951 d9be dabb 823e 640e 21be
00000040: 14a8 823e fbeb 843c 7c63 fb3d 8bf0 3a3e
00000050: 1e81 bb3e 19ed 66be 26db dc3e 28a9 2cbe
00000060: 964d 93be 6c7f 973e dc5a e8bd 9fa5 f4bd
00000070: e3cb 85be a016 013f 07d6 fe3d 80ce fcbe
00000080: 8cd5 26bb 8e5d 703f 769c 653f 808e a6be
00000090: 9f33 32bd 0b42 a8be f389 103e 3d17 d23e
000000a0: bae9 23bf 307b c83d 6cc4 1fbd d89e a1bd
000000b0: e792 febe bc5b 42bd e336 dc3e 81a3 23bd
000000c0: 488d 23bd 83bc 813e 83c0 403f 7061 93be
000000d0: 8f0c 983e 7f0a 93bd 8e9d eebe 0a7b 013e
000000e0: 741d 693d 4a33 9c3d 7cf3 f9be 2c89 de3d
000000f0: 3a93 923e 179b d0be e700 4abd e302 293f
00000100: 6dcf 573f 1181 7abd f33c 703e 63db bdbe
00000110: 8e28 37be 55f2 8e3e eb4f ebbe 4e29 d53e
00000120: 0fad f73d e324 9a3e 537f ebbe a427 8ebe
00000130: 3f86 213e 0016 ebbd 0dc9 4d3d 5b29 5d3e
00000140: 906a 0a3f 2e18 98be 064d a03e 3a10 d2be
00000150: 8a10 00bf 74c8 5cbd b401 853b 1d81 03bf
00000160: 1c66 7ebe 895e 3c3e 45cf 39bc ab11 7ebe
00000170: d6a2 e2bd fa12 013f a967 803f 20e2 3cbc
00000180: 9eb8 743e 3ff0 bebe ec60 fbbd f605 8e3e
00000190: 2cf1 1cbf ef6e e33e 2225 16bd 7ef0 163e
000001a0: 7931 09bf 9de6 243e 5970 04be 6728 31bd
000001b0: e2a7 553f 4597 353f 65b1 dcbd 8c47 b63e
000001c0: cd9e 72be 4aeb 553e 0f24 df3d 67bc 98be
000001d0: 066e ee3e 1710 3a3e eaf4 c2bd b724 debe
000001e0: 0a7c 67be 3f92 283e f92b 58bd 2ced 97be
000001f0: 0d11 9e3e 2c0a 4e3f e3e3 8abe 222e ac3e
00000200: 6f19 efbe 03f5 14bf 024a 59bc 9f00 3fbe
00000210: 895c 1bbf 3e69 1bbe 367e 7f3e 6562 003e
00000220: 3009 8ebe 6c2b 803e 0af3 dc3e ef6b 253f
00000230: 873a 50be 74f8 373e 30d3 b6be d433 7bbe
00000240: dae4 f03e 0203 8cbe c9be ec3e 157b 39be
00000250: 78e8 7e3e be23 0cbe 9472 903e 00be fcbe
00000260: 8418 56be fd41 943f de43 843f 8c20 03bb
00000270: 2089 b63d f0cb 01bf 893a 453e 7631 8e3e
00000280: 6f4d a5be d97b 2b3e 889b 843e fe10 313d
00000290: fc46 06bf 4634 633d 40ed 883e 38df 753e
000002a0: 4379 143e a99f f23d b1af 103f 11cd 28be
000002b0: fece 453e dae0 6cbe 2f70 59be 7c62 b13e
000002c0: 4a2b 64be a414 67be f716 a5be a399 c23e
000002d0: 6ee7 4e3e 1c32 5dbe 74b7 a5bc bff6 103c
000002e0: 9f03 3a3e b75c 7bbe 8467 8d3e b0ca 41be
000002f0: 78fe 5c3e 462e dc3e 8e16 d4bc 0c82 1d3e
00000300: fe77 393e 5560 1c3e c851 973d 3ff8 9ebd
00000310: 6cc1 8d3e 796c 9ebd 921d b7be caf0 b23e
00000320: fedf 3b3f 535b f9be 2e2e d73e 0a06 cebe
00000330: 18f7 4abe 9c3c 003e 759f 91be 5126 c03d
00000340: b124 ecbe ff93 aabc 16dd 66be e9d8 b83e
00000350: d8ea d33d 1201 39be b05e d73d 6ad6 c63e
00000360: a3c1 673d 8dc1 a43e 09ce df3b 8e49 68be
00000370: 5554 d93e 7d6f a73d b90e 813d e945 6dbe
00000380: a748 7b3d

network.6.bias f4 [15]
0.2061689 0.15112193 0.14816135 0.07786212 0.21360014 0.15414079 0.1702563 0.054252468
0.14447579 0.20857254 -0.017566955 0.1269023 -0.029839603 0.18369341 0.0039389976
00000000: f11d 533e b5bf 1a3e 9cb7 173e 2d76 9f3d
00000010: ffb9 5a3e 15d7 1d3e ab57 2e3e d637 5e3d
00000020: 76f1 133e 0a94 553e 93e8 8fbc adf2 013e
00000030: 2f72 f4bc 201a 3c3e b512 813b

network.9.weight f4 [1, 15]
0.33750263 0.35252705 -0.64570004 0.46520352 -0.3715185 0.42069793 -0.37863955 -0.33483383
0.41596478 -0.32361862 -0.6717467 0.31099862 -0.18149452 0.3785516 0.25250348
00000000: 25cd ac3e 6d7e b43e 994c 25bf 282f ee3e
00000010: ac37 bebe b865 d73e 0bdd c1be 576f abbe
00000020: 56f9 d43e 57b1 a5be 97f7 2bbf 363b 9f3e
00000030: b3d9 39be 84d1 c13e 2348 813e
