experiments/exp_real/saved_models/run_0/bootstrapped/propensity_3.pt (torch, 4865 bytes, 7 tensors)

network.0.weight f4 [10, 28]
0	0xbe26e7fc	-0.16299433
1	0x3db63cfa	0.08898349
2	0x3e2605a9	0.16213097
3	0x3d642366	0.05569782
4	0xbd215c94	-0.03939493
5	0xbd8fccff	-0.07021522
6	0xbdc20ee2	-0.09475495
7	0x3e21492a	0.15750566
8	0xbd6d7235	-0.057970244
9	0x3e17124d	0.14753075
10	0x3d6b1842	0.05739618
11	0xbac56a4a	-0.0015061584
12	0x3e2105ca	0.15724865
13	0xbd2e5596	-0.04256209
14	0x3d9b7e9f	0.075925104
15	0x3d7f737b	0.06236599
16	0xbe2b3542	-0.16719535
17	0xbe08c579	-0.1335658
18	0x3e245cc1	0.16051008
19	0xbc3f6ae4	-0.0116832
20	0xbda80f90	-0.08206093
21	0xbe06ffe0	-0.13183546
22	0xbbb5c6d5	-0.0055473843
23	0xbe051084	-0.12994581
24	0xbd837668	-0.064190686
25	0x3e0d1b81	0.13780023
26	0x3e30deba	0.17272463
27	0x3e1f5c75	0.15562613
28	0xbd39f392	-0.045398302
29	0xbe2cd7c8	-0.16879189
30	0x3dc4e162	0.09613301
31	0xbd6c0130	-0.05761832
32	0xbe09727c	-0.13422579
33	0x3d40fe5c	0.047117576
34	0xbd095d98	-0.033536524
35	0x3e4efbc8	0.20213234
36	0x3d2aa3ac	0.041659996
37	0x3d9f73ae	0.07785736
38	0x3d593188	0.053025752
39	0x3d7e8134	0.062134936
40	0xbe39f06d	-0.18158121
41	0xbc746060	-0.014915556
42	0x3d76c024	0.060241833
43	0xbdf50d90	-0.119654775
44	0x3e21bbb2	0.15794256
45	0x3ca3c2a0	0.019990265
46	0x3cb10e28	0.021613196
47	0x3d83d23e	0.06436585
48	0xbd921b24	-0.07134083
49	0x3daba8d7	0.08381813
50	0x3db28eea	0.08718665
51	0x3da30825	0.07960538
52	0xbdddaace	-0.10823594
53	0xbccfee30	-0.025382131
54	0x3d7abf74	0.06121774
55	0xbbc005a0	-0.0058600456
56	0xbddea1aa	-0.10870679
57	0xbd187659	-0.03722224
58	0x3d8b7e76	0.0681123
59	0xbdc45300	-0.095861435
60	0x3e5055cd	0.2034523
61	0x3d918dc2	0.07107116
62	0x3e2599ce	0.16171953
63	0x3cef1148	0.029183045
64	0x3d86f63a	0.06589933
65	0xbd1153cc	-0.035480306
66	0xbd905ead	-0.07049308
67	0xbd06ec0c	-0.032939956
68	0xbe03dda9	-0.12877525
69	0xbe334ff0	-0.17510962
70	0xbc9f33f8	-0.01943396
71	0x3e16cea8	0.1472727
72	0x3da48adc	0.08034298
73	0x3e3d3449	0.18476976
74	0xbcc70e98	-0.024298951
75	0x3cebddc0	0.028792262
76	0x3cfcd000	0.0308609
77	0x3dd6c65e	0.10487054
78	0x3e0ef16e	0.13959286
79	0xbe11e238	-0.14246452
80	0xbd84ebd2	-0.06490292
81	0xbc9f0690	-0.019412309
82	0xbd13b3e4	-0.03606023
83	0x3df2c5ae	0.11854111
84	0xbe3d8407	-0.18507396
85	0xbdd64754	-0.104628235
86	0xbdfc6cae	-0.123254165
87	0x3d974aa8	0.073872864
88	0xbe0a013f	-0.13477038
89	0x3cb2f088	0.02184321
90	0xbc6f8d91	-0.014621154
91	0x3d6dfdfa	0.05810354
92	0x3c0ef97e	0.008726476
93	0x3c528b1a	0.012850547
94	0x3def0c3e	0.11672257
95	0x3c956f8b	0.018241664
96	0x3db2fd50	0.08739722
97	0xbe06eabc	-0.13175482
98	0xbd08c34c	-0.033389375
99	0xbd91011d	-0.070802905
100	0xbe0d4b84	-0.13798338
101	0xbde49a3c	-0.1116223
102	0xbd380d1b	-0.044934373
103	0x3d89efc8	0.06735188
104	0xbd2ab842	-0.04167963
105	0xbe0d0a6f	-0.13773511
106	0xbde8c2c7	-0.11365276
107	0x3d07cd46	0.03315475
108	0x3c249bc0	0.010046899
109	0xbe25aa9e	-0.16178367
110	0x3cd67889	0.026180523
111	0x3d692c38	0.056926936
112	0x3e18ffd6	0.14941344
113	0xbd280d1f	-0.04102814
114	0x3db0d364	0.086340696
115	0xbdacd3fd	-0.08438871
116	0x3e21c240	0.15796757
117	0xbe373b86	-0.178938
118	0xbd847ecd	-0.06469498
119	0xbe24927a	-0.16071501
120	0xbdac8d2d	-0.08425365
121	0x3d123681	0.03569651
122	0x3d7dfbfb	0.062007885
123	0x3da677f9	0.08128352
124	0x3e237e4a	0.15966144
125	0xbdbf8591	-0.09351648
126	0xbdf1f464	-0.11814192
127	0x3d159988	0.036523372
128	0xbe17e6ef	-0.14834188
129	0xbe0788a4	-0.13235718
130	0xbd344d8c	-0.044019267
131	0xbe376aba	-0.17911807
132	0xbd425d54	-0.047452286
133	0xbcec2e1d	-0.028830582
134	0xbd951c30	-0.07280767
135	0xbdbfeaba	-0.093709424
136	0x3c4d53a5	0.012532149
137	0xbda3a111	-0.07989705
138	0xbdb2e985	-0.087359466
139	0xbdfdae5e	-0.123867735
140	0xbd55c51b	-0.052189928
141	0x3d11c048	0.035583764
142	0xbdc695a9	-0.09696514
143	0xbdf29233	-0.118442915
144	0xbe0d0947	-0.1377307
145	0xbe369194	-0.17828971
146	0x3ccde840	0.02513516
147	0xbd5c6cfa	-0.053814866
148	0x3d1e4b38	0.038645953
149	0xbd8d17ff	-0.068893425
150	0x3d040ba7	0.032237675
151	0x3dfc2b46	0.12312941
152	0x3d4f89a5	0.050668377
153	0x3e1aee06	0.15129861
154	0x3e2c54e3	0.16829257
155	0x3c07b315	0.008282443
156	0x3e03ba3b	0.1286401
157	0xbc41b12f	-0.011822029
158	0xbe363008	-0.1779176
159	0xbd91bca5	-0.07116059
160	0x3d98e5ff	0.07465743
161	0x3de4cc10	0.11171734
162	0x3d96e8e4	0.07368639
163	0x3d28fc4e	0.04125624
164	0xbdba1469	-0.09085924
165	0x3be905d1	0.007111289
166	0xba303ce9	-0.00067229435
167	0x3d42f3e0	0.04759586
168	0x3e065ce3	0.13121371
169	0xbcd509fb	-0.026005736
170	0x3dc8aa09	0.09798057
171	0xbe3b4370	-0.18287444
172	0xbe0a8738	-0.13528144
173	0xbd22517b	-0.039628487
174	0x3e2f8083	0.17138867
175	0xbd340340	-0.043948412
176	0xbddf2633	-0.10895958
177	0x3e38f476	0.18062004
178	0xbd0d29e0	-0.034463763
179	0x3dca7168	0.09884912
180	0x3d649d5a	0.055814125
181	0x3e6260c3	0.22107224
182	0x3c667d5a	0.014067972
183	0xbc9cb7c8	-0.019130602
184	0x3e0e6863	0.13907008
185	0x3d0256a1	0.031820897
186	0x3e2f9c72	0.17149523
187	0x3e4e6bef	0.20158361
188	0xbd12db7c	-0.035853848
189	0xbdd89c65	-0.10576705
190	0xbcf749cc	-0.030186556
191	0x3e4e4e1d	0.20146985
192	0xbe36278a	-0.1778852
193	0x3dded98e	0.10881339
194	0x3d021241	0.03175569
195	0x3dd800d4	0.10547033
196	0xbe1b211f	-0.15149353
197	0x3dc096b2	0.09403743
198	0x3d3bc440	0.045841455
199	0xbdaf78db	-0.08567973
200	0xbe35d557	-0.17757164
201	0x3ca17c48	0.019712582
202	0x3e21b526	0.15791759
203	0x3e3373ad	0.17524596
204	0x3d8afe96	0.0678684
205	0x3e228c82	0.15873912
206	0x3e1ce87b	0.1532306
207	0x3d090225	0.03344931
208	0xbd352bf4	-0.04423137
209	0x3dae152b	0.08500131
210	0x3e38ddb7	0.18053328
211	0xbe100401	-0.14064027
212	0xbd75a126	-0.059968136
213	0xbcb6a0e0	-0.022293508
214	0xbe08acd2	-0.13347176
215	0x3e071915	0.13193162
216	0x3daff712	0.08592047
217	0x3adde261	0.0016928428
218	0xbdc05149	-0.09390504
219	0x3e3f8ae9	0.18705334
220	0xbdcbb03a	-0.09945722
221	0xbe2f819b	-0.17139284
222	0xbe3585ef	-0.17726873
223	0xbe007d54	-0.12547809
224	0xbe4e6544	-0.20155817
225	0x3e0a717e	0.13519856
226	0x3daa9328	0.08328849
227	0xbe2513c8	-0.16120827
228	0x3e28872d	0.16457815
229	0xbe3ffee4	-0.18749577
230	0x3d231e8a	0.039824046
231	0xbda0f14a	-0.07858522
232	0x3e0570c9	0.13031305
233	0xbdcbcd21	-0.099512346
234	0x3c2c7920	0.010526925
235	0x3de994a9	0.11405308
236	0xbda31ba8	-0.079642594
237	0xbd9105ee	-0.07081209
238	0x3d7f2000	0.062286377
239	0x3d5291ad	0.05140846
240	0xbdced54b	-0.10099276
241	0xbe1b415a	-0.15161648
242	0xbd48af2c	-0.048995182
243	0x3dc93c5e	0.09825967
244	0x3ddd0a3a	0.10792966
245	0x3e56cfd8	0.20977724
246	0xbd4090f8	-0.047013253
247	0xbd909f26	-0.07061605
248	0xbdf56950	-0.119829774
249	0xbd7caedc	-0.061690196
250	0x3cc2bdd8	0.023772165
251	0xbe1bf7bb	-0.1523122
252	0x3d913c07	0.070915274
253	0xbdde3913	-0.1085073
254	0x3df26600	0.11835861
255	0x3df9d5ff	0.1219902

network.0.bias f4 [10]
0	0x3e035cfc	0.1282844
1	0xbdcd4c9d	-0.100243784
2	0xbe0e348e	-0.13887236
3	0x3e3b147f	0.18269537
4	0x3d3f0259	0.0466331
5	0x3c5e3ae4	0.013563845
6	0x3d16244e	0.036655717
7	0xbddbfd19	-0.10741634
8	0x3d2c6f72	0.04209847
9	0x3e8160ea	0.25269252

network.3.weight f4 [10, 10]
0	0xbe968b5a	-0.29403192
1	0x3e2dd1d0	0.16974568
2	0xbe64cc35	-0.22343524
3	0x3d58c496	0.052921854
4	0x3e355c7f	0.17711066
5	0xbcbd54c6	-0.023111712
6	0xbd068f83	-0.032851707
7	0x3d9846ad	0.07435355
8	0xbdf37186	-0.11886887
9	0x3cb5283f	0.022113917
10	0x3e7aef00	0.24505234
11	0x3d8413f8	0.06449121
12	0xbe68209c	-0.2266869
13	0xbea0cb04	-0.3140489
14	0x3e037da8	0.12840903
15	0xbe9b59a6	-0.30341834
16	0x3e6a8493	0.22902136
17	0xbe796bf0	-0.24357581
18	0xbe9ad6a2	-0.30241877
19	0x3e6f02f8	0.23340976
20	0xbd4b689e	-0.049660318
21	0xbe7e2166	-0.24817428
22	0x3e90ff74	0.28319895
23	0xbdf02738	-0.117262304
24	0x3dd75748	0.105146945
25	0xbce41225	-0.027840683
26	0x3c67fb66	0.014159059
27	0x3e6453d2	0.222976
28	0x3e8d3c92	0.27585274
29	0xbe0dff95	-0.13867028
30	0x3d8b0f60	0.06790042
31	0x3e26b610	0.16280389
32	0x3db52ec4	0.088468105
33	0xbe94b512	-0.29044396
34	0x3e8f9999	0.28046873
35	0x3dbbc46c	0.09168324
36	0xbe6057aa	-0.21908441
37	0x3e43071a	0.19045678
38	0xbc9c05e0	-0.01904577
39	0xbe88ddc4	-0.26731694
40	0x3e0dba12	0.13840511
41	0xbe5e8419	-0.21730079
42	0xbe230399	-0.15919341
43	0xbdbbbc3d	-0.09166763
44	0xbd3c81bc	-0.04602216
45	0x3dc1eebd	0.09469364
46	0x3cdd3088	0.02700068
47	0x3dd8cba9	0.1058572
48	0x3e4ad306	0.19807062
49	0x3e8cbabd	0.2748622
50	0xbe2528e6	-0.16128883
51	0x3e9ae19a	0.30250245
52	0xbdfd25e7	-0.12360745
53	0xbe9ec6ec	-0.3101114
54	0xbe6afb55	-0.22947438
55	0xbce59858	-0.028026745
56	0xbcc7d72f	-0.0243946
57	0x3e83b3ed	0.2572321
58	0x3de5b1b6	0.11215536
59	0x3e2fd727	0.17171918
60	0x3da1d010	0.07901013
61	0x3db3c6d2	0.08778156
62	0xbd82f48f	-0.06394302
63	0xbe784315	-0.2424434
64	0x3e06a18d	0.13147564
65	0xbe7340c2	-0.23755172
66	0x3d36777d	0.044547547
67	0xbb3e689b	-0.002905405
68	0x3e988030	0.297853
69	0xbe859e75	-0.26097456
70	0xbd8ea196	-0.06964414
71	0x3e994cf9	0.29941538
72	0xbe8b07f6	-0.2715451
73	0x3deef30f	0.116674535
74	0xbe8d55d9	-0.2760456
75	0xbd886fd6	-0.06661956
76	0xbc85ccfd	-0.016333098
77	0xb929926f	-0.00016171647
78	0xbe271e74	-0.1632021
79	0x3e95a71d	0.2922906
80	0x3da4969e	0.080365404
81	0xbe3e6825	-0.18594415
82	0xbe4d4ca8	-0.20048773
83	0xbdcf338d	-0.101172544
84	0x3e088d93	0.13335256
85	0xbe7fadd8	-0.2496866
86	0xbe173ffb	-0.147705
87	0xbe903d83	-0.2817193
88	0xbe9cf49a	-0.30655366
89	0x3e36c13f	0.17847155
90	0x3ad5f431	0.0016323385
91	0x3e801d97	0.25022575
92	0x3e4154ca	0.1888
93	0x3e6561e0	0.22400618
94	0xbe65e518	-0.22450674
95	0x3d98dd46	0.074640796
96	0x3ea35bf2	0.31906086
97	0x3daabd37	0.08336871
98	0xbd406745	-0.046973485
99	0x3eb43d40	0.3520298

network.3.bias f4 [10]
0	0x3c738ad7	0.014864645
1	0xbe7c181d	-0.24618573
2	0x3dae15c6	0.08500247
3	0xbe159905	-0.14609154
4	0x3e1fe837	0.15615927
5	0x3d9780ad	0.0739759
6	0x3e9cd0cd	0.30628052
7	0x3db6105e	0.088898405
8	0xbcfecbbc	-0.031103007
9	0x3e7d347b	0.24727051

network.6.weight f4 [10, 10]
0	0xbe2b6504	-0.16737753
1	0x3e9eca58	0.3101375
2	0x3e5d8b16	0.21635088
3	0xbe23cabe	-0.15995309
4	0xbcb15e63	-0.021651452
5	0x3dae5f2a	0.08514245
6	0x3e002a02	0.12516025
7	0x3cd1d2b1	0.02561316
8	0xbdcd7f06	-0.100339934
9	0x3e9a1803	0.30096444
10	0x3e38795b	0.18015043
11	0x3e81eee9	0.25377586
12	0xbe881eda	-0.26586038
13	0xbda240a2	-0.07922484
14	0xbdfb0ecf	-0.12258684
15	0xbe841b6e	-0.25802177
16	0x3e92ef8a	0.2869838
17	0x3e5605ee	0.209007
18	0xbe6c73b7	-0.23091017
19	0xbe080f76	-0.13287148
20	0x3e2e4882	0.17019847
21	0x3e8fac47	0.28061125
22	0x3e139b92	0.14414814
23	0xbd8c0656	-0.06837146
24	0xbdad25cb	-0.08454474
25	0xbdd57bf0	-0.1042403
26	0xbe8cebc6	-0.2752363
27	0x3e327208	0.17426312
28	0x3c7b499c	0.015337374
29	0xbe0671f6	-0.1312941
30	0x3dfca120	0.1233542
31	0x3e4cb216	0.1998981
32	0x3d7e9ce0	0.062161326
33	0x3ca4c3c0	0.020112872
34	0xbced7f20	-0.028991282
35	0x3e43450e	0.19069311
36	0xbd3c0250	-0.045900643
37	0xbe8e175c	-0.27752197
38	0x3e88c873	0.2671543
39	0x3cb90470	0.022585124
40	0x3c8f98ea	0.01752897
41	0x3e04c331	0.12965085
42	0x3e8c2748	0.2737372
43	0x3dbbfb98	0.09178847
44	0xbd56cd09	-0.05244163
45	0x3eab3640	0.33439827
46	0x3e61f2ad	0.2206523
47	0x3ebd1eeb	0.3693765
48	0x3dca8502	0.098886505
49	0x3eb9afab	0.36266837
50	0x3d97f7e0	0.07420325
51	0xbe033cb8	-0.12816131
52	0x3e3ca052	0.18420532
53	0x3ba3f040	0.0050030053
54	0x3d4e0888	0.050301105
55	0x3e966597	0.29374382
56	0xbe208423	-0.15675406
57	0xbe1ea74e	-0.15493509
58	0x3ea10fc5	0.31457344
59	0x3d08f7b8	0.033439368
60	0x3e69ee18	0.22844732
61	0x3df771b4	0.12082234
62	0xbe45177d	-0.19247241
63	0xbcc019f0	-0.023449868
64	0xbe311cec	-0.17296189
65	0x3e44b6a6	0.192103
66	0xbc307179	-0.0107692415
67	0xbe03c1da	-0.12866917
68	0xbe500b29	-0.20316757
69	0x3dad7af7	0.08470719
70	0xbdfe7b51	-0.124258645
71	0x3c96e7aa	0.018421013
72	0x3e739598	0.23787534
73	0x3dc24cec	0.09487328
74	0xbddb03e4	-0.106941015
75	0x3e69e18d	0.22839947
76	0x3e55a41f	0.20863388
77	0xbdda87f6	-0.10670464
78	0x3ce74a72	0.02823374
79	0xbea95724	-0.33074296
80	0x3ea2596b	0.31708845
81	0xbe8807ad	-0.26568356
82	0x3e8864c2	0.26639372
83	0xbe4565a6	-0.19277057
84	0x3ed2e3fd	0.41189566
85	0xbd78c334	-0.060733035
86	0xbdfc3190	-0.12314141
87	0xbd84516e	-0.06460844
88	0xbe8673c7	-0.26260206
89	0xbd76fef9	-0.060301755
90	0xbe2e6eb8	-0.17034423
91	0xbdb32ba4	-0.08748558
92	0xbc6c092e	-0.0144064855
93	0x3e2253fc	0.1585235
94	0xbcbbdb15	-0.022931615
95	0xbd8c8ae8	-0.06862432
96	0x3e21dc7e	0.15806767
97	0x3e2f2821	0.17105152
98	0xbe23b39a	-0.15986481
99	0xbe2eb7ec	-0.17062348

network.6.bias f4 [10]
0	0x3ebb312f	0.36560962
1	0xbd6356de	-0.055502765
2	0x3d88eac0	0.066854
3	0xbe884058	-0.2661159
4	0xbc8405a2	-0.016115967
5	0xbe80c241	-0.25148204
6	0x3cc2a5e3	0.023760742
7	0x3dafb05c	0.0857856
8	0x3e835524	0.25650895
9	0x3e49eaa9	0.19718422

network.9.weight f4 [1, 10]
0	0xbe727eca	-0.23681179
1	0x3e1ba6c6	0.15200338
2	0x3e543b3d	0.20725723
3	0xbe085bcd	-0.13316269
4	0xbeac6bb7	-0.3367593
5	0xbdcc334c	-0.099707216
6	0x3e637216	0.22211489
7	0x3e2b249e	0.16713187
8	0xbe5f90f4	-0.21832639
9	0xbe184df6	-0.1487349
