experiments/exp_real/saved_models/run_0/bootstrapped/propensity_1.pt (torch, 4865 bytes, 7 tensors)

network.0.weight f4 [10, 28]
0	0x3dc9fbbd	0.098624684
1	0xbd8a187d	-0.06742952
2	0x3e2a8940	0.16653919
3	0x3dd428e1	0.103593595
4	0x3e3cc449	0.18434252
5	0x3d94ab1f	0.07259201
6	0xbd3d7fa8	-0.04626432
7	0x3ddd8c60	0.1081779
8	0x3e41402f	0.1887214
9	0x3d89fd6a	0.06737788
10	0x3dec0d6f	0.11526
11	0xbe0824f0	-0.1329534
12	0x3d8a594a	0.06755312
13	0xbe36ee25	-0.17864282
14	0x3e2837ae	0.1642749
15	0x3dd64edb	0.10464259
16	0x3d0761cb	0.033052247
17	0xbe100aa1	-0.14066555
18	0x3e47fb3d	0.19529434
19	0x3e16ff54	0.14745837
20	0x3e47c637	0.19509207
21	0x3dcda10b	0.10040482
22	0x3db1efd3	0.08688321
23	0xbd855fdb	-0.065124236
24	0xbdbe5e2d	-0.09295306
25	0x3dd7a9fb	0.10530468
26	0x3dbedc2f	0.093193404
27	0x3c16c216	0.009201547
28	0x3d0477fe	0.032340996
29	0x3d43654b	0.047704022
30	0xbe469962	-0.19394448
31	0xbe1eb503	-0.15498738
32	0xbd2a8eea	-0.0416402
33	0x3e09421c	0.13404125
34	0x3df07cdb	0.11742564
35	0xbe4ea1ba	-0.20178881
36	0xbd899475	-0.06717769
37	0x3c189f73	0.009315359
38	0x3db3eda2	0.08785559
39	0x3e32e7cf	0.1747124
40	0xbce3bdaa	-0.0278004
41	0xbe0ca41a	-0.13734475
42	0x3be3b9d0	0.006949641
43	0xbd9993bb	-0.074988805
44	0xbdf7b20d	-0.12094507
45	0x3e16ce91	0.14727236
46	0xbbbb7ae0	-0.005721435
47	0x3deac335	0.11463014
48	0x3e29692f	0.1654403
49	0x3d299aa3	0.04140724
50	0x3e0244a4	0.12721497
51	0xbdcc82fd	-0.099859215
52	0x3dc5ae77	0.09652417
53	0x3d1761cb	0.036958497
54	0x3e18e619	0.14931525
55	0x3e45570f	0.19271491
56	0xbe1461e1	-0.14490463
57	0x3e1a8c22	0.15092519
58	0x3e105371	0.1409433
59	0xbe097ca5	-0.13426454
60	0x3d425446	0.04744365
61	0xbe1d8b5c	-0.15385193
62	0x3d60fccc	0.054928586
63	0x3cb4f11b	0.022087624
64	0xbe38bbfc	-0.1804046
65	0x3d7d697c	0.061868176
66	0xbd3e7c20	-0.046505094
67	0x3e5540e3	0.20825534
68	0x3e1069db	0.1410288
69	0x3d926a55	0.071491875
70	0x3e252a18	0.16129339
71	0x3daf8633	0.08570518
72	0x3e3e24cf	0.18568729
73	0xbc8eef50	-0.017448097
74	0x3d92a985	0.071612395
75	0xbd19e05d	-0.037567485
76	0xbc82e9fd	-0.015980715
77	0xbd6f3132	-0.058396526
78	0xbd992bd4	-0.07479063
79	0x3de117ad	0.10990844
80	0x3da61666	0.08109741
81	0xbdaada28	-0.08342391
82	0xbe3f0dbf	-0.18657587
83	0x3dbd3e6e	0.09240423
84	0xbe0fbea2	-0.14037564
85	0xbce50bd7	-0.027959747
86	0xbe2682d1	-0.1626084
87	0x3e0f5f3b	0.14001171
88	0x3e00db10	0.12583566
89	0xbe1f0a81	-0.1553135
90	0xbe33eb80	-0.17570305
91	0xbde4d56f	-0.11173522
92	0x3d3c3445	0.045948286
93	0xbdc18c15	-0.09450547
94	0xbd43025c	-0.047609672
95	0xbd443604	-0.047903076
96	0x3b2f38c1	0.0026736709
97	0xbdb711f1	-0.08938969
98	0x3da38943	0.07985165
99	0xbe0a7a92	-0.1352332
100	0xbd07a267	-0.033113863
101	0x3e1f3692	0.1554816
102	0xbdd5b67a	-0.10435195
103	0x3dff219c	0.12457582
104	0x3db56b9e	0.08858417
105	0xbd7a0a00	-0.061044693
106	0x3d7aae13	0.061201166
107	0xbe02bc68	-0.12767184
108	0x3c793270	0.015209779
109	0x3d46b76b	0.048514765
110	0x3e1ee3a3	0.15516524
111	0xbdd893b4	-0.10575047
112	0xbe1d4e8a	-0.15361992
113	0xbdc8ecba	-0.09810777
114	0xbe3c850c	-0.18410128
115	0x3da7143f	0.081581585
116	0xbe20302e	-0.15643379
117	0xbd4fcb74	-0.050731137
118	0xbdacb02a	-0.08432038
119	0x3c2d1de0	0.010566205
120	0x3d6ad044	0.057327524
121	0xbe0ca06a	-0.13733068
122	0xbd648464	-0.05579032
123	0xbc94d630	-0.018168539
124	0xbddfbd0b	-0.10924729
125	0x3d32d1c0	0.043657064
126	0x3d96339e	0.07334064
127	0xbe09eaa0	-0.13468409
128	0x3e302ae4	0.17203861
129	0x3e098385	0.13429077
130	0xbd688cd0	-0.056774914
131	0x3ce659b0	0.028118938
132	0x3cefb2c2	0.029260043
133	0xbcd599b8	-0.026074275
134	0xbe01e08e	-0.12683317
135	0x3e2e9a1c	0.17050976
136	0x3dbe761e	0.09299873
137	0xbe21b780	-0.15792656
138	0xbe15fab6	-0.1464642
139	0x3e3806d7	0.17971359
140	0x3d391981	0.045190338
141	0xbd1f39ec	-0.038873598
142	0x3dd0b463	0.10190656
143	0x3c54d249	0.012989589
144	0x3d55071d	0.052008737
145	0x3e1409c1	0.14456846
146	0xbd3863d3	-0.045017075
147	0x3e1d78a8	0.15378058
148	0xbe0b46e0	-0.13601255
149	0xbe019afe	-0.12656781
150	0x3be6e1ef	0.0070459764
151	0xbd5eaaba	-0.054362036
152	0x3e0e0f6e	0.13873073
153	0xbdc254e2	-0.09488846
154	0x3d04e679	0.03244636
155	0xbd7dd9ec	-0.061975405
156	0x3de73037	0.11288493
157	0xbd5cffe6	-0.05395498
158	0xbcb89d87	-0.022536052
159	0x3de787f7	0.1130523
160	0x3e26477e	0.1623821
161	0x3e1e88bf	0.15481852
162	0xbe3d34fc	-0.18477243
163	0xbde6e10a	-0.112733915
164	0xbcf3252b	-0.029680809
165	0xbd8d928d	-0.06912718
166	0x3dac3983	0.08409407
167	0x3d913a9e	0.070912585
168	0x3b93d856	0.0045118732
169	0x3c0ba452	0.008523064
170	0x3d004ea2	0.03132499
171	0x3dfaffa3	0.1225579
172	0x3da53050	0.080658555
173	0xbdc33976	-0.09532444
174	0xbdc6442a	-0.0968097
175	0x3d0fb139	0.035081122
176	0xbd08f899	-0.033440206
177	0xbdf84c93	-0.121239804
178	0xbe3b4d1b	-0.18291132
179	0x3b9461ae	0.004528246
180	0xbd87d372	-0.06632127
181	0xbde130f3	-0.109956644
182	0x3d15eca2	0.036602624
183	0x3e2d0c32	0.16899183
184	0x3e03c341	0.12867452
185	0x3d8e0831	0.06935156
186	0xbe11f39d	-0.14253087
187	0x3da75ea8	0.08172351
188	0x3d9e4b68	0.07729226
189	0x3d22686a	0.03965036
190	0xbd62cac1	-0.055369142
191	0xbcfda352	-0.030961666
192	0xbdd1ed75	-0.102503695
193	0xbd797464	-0.060902014
194	0xbd41d478	-0.047321767
195	0xbd3f9de6	-0.046781443
196	0xbe6b4dc1	-0.2297888
197	0x3d29be4f	0.041441258
198	0xbe1e55a4	-0.15462357
199	0xbde87c85	-0.11351875
200	0x3dbadb53	0.09123864
201	0xbe1e68e0	-0.15469694
202	0x3e513c92	0.20433262
203	0x3e4e27fd	0.20132442
204	0xbd75fc68	-0.060055166
205	0xbd056768	-0.03256932
206	0xbe025c64	-0.12730557
207	0x3cfb397f	0.030667065
208	0x3b36e51c	0.0027907556
209	0xbdd4506d	-0.103669025
210	0x3d63712f	0.055527862
211	0x3c8ad0b4	0.01694522
212	0xbcf4a4d3	-0.02986375
213	0xba2b6500	-0.00065381825
214	0xbe4489b7	-0.19193159
215	0xbe0851f8	-0.13312519
216	0x3d30715f	0.04307687
217	0x3e4ed657	0.20198952
218	0xbde5679f	-0.11201405
219	0x3e09038f	0.13380264
220	0x3c8daf60	0.01729554
221	0xbda683cd	-0.08130608
222	0x3cc892ad	0.024484003
223	0x3db98dfe	0.09060286
224	0x3cf42cd7	0.029806538
225	0x3e0eba94	0.13938361
226	0xbd31c10a	-0.043396987
227	0xbdfb3ac6	-0.122670695
228	0x3e3e9374	0.18610936
229	0xbd4354ec	-0.04768841
230	0x3e139c30	0.1441505
231	0x3e132a00	0.1437149
232	0x3be1e051	0.0068931957
233	0xbe1e9565	-0.15486677
234	0xbe3dfc18	-0.18553197
235	0x3dd2d4f2	0.10294522
236	0x3c443f8f	0.011978044
237	0x3e1f107f	0.15533637
238	0xbe2cadf1	-0.16863228
239	0xbd0a010c	-0.033692405
240	0x3e4323cd	0.19056626
241	0x3e11c55c	0.14235443
242	0x3e3454a7	0.17610417
243	0x3e2c9504	0.1685372
244	0xbd45ecbf	-0.04832148
245	0xbe051722	-0.12997106
246	0xbdeb3e75	-0.11486522
247	0x3da9e35b	0.08295318
248	0xbd9dd74a	-0.07707079
249	0x3ca960ed	0.0206761
250	0x3d78671a	0.0606452
251	0x3e04d84a	0.12973133
252	0x3dc963ef	0.09833514
253	0x3df47ff0	0.11938465
254	0xbbb734e7	-0.0055910232
255	0x3da166a3	0.078809045

network.0.bias f4 [10]
0	0x3e0d768f	0.13814758
1	0x3dd54f8e	0.104155645
2	0xbe0cbaf0	-0.13743186
3	0xbd8972d0	-0.06711352
4	0xbdb6ca9f	-0.08925366
5	0x3da660b8	0.081239164
6	0x3cb26c0a	0.021780033
7	0xbd0ace27	-0.03388801
8	0x3c2cde8e	0.010551108
9	0xbb24c207	-0.0025140063

network.3.weight f4 [10, 10]
0	0xbe9a1e2c	-0.30101144
1	0xbcb283c2	-0.021791343
2	0x3e03ab7c	0.12858385
3	0x3c483bce	0.01222129
4	0xbd685128	-0.05671802
5	0x3e2ef7c7	0.17086707
6	0x3dcade80	0.0990572
7	0xbe9d8ae1	-0.3077002
8	0x3e1cd396	0.15315089
9	0xbe8740df	-0.2641668
10	0x3e635391	0.22199847
11	0x3e9efda2	0.3105288
12	0x3cd07647	0.025447024
13	0xbd8c7ffd	-0.06860349
14	0xbdfede82	-0.12444784
15	0xbdad0632	-0.08448447
16	0x3c5603a0	0.013062388
17	0xbdcbae7c	-0.0994539
18	0x3eb406ac	0.3516134
19	0xbde834f6	-0.113382265
20	0x3dd53207	0.104099326
21	0xbea809aa	-0.32819873
22	0x3de73626	0.11289625
23	0x3e75066f	0.23928235
24	0xbe7ff10d	-0.24994297
25	0xbde38523	-0.11109378
26	0x3d3b039e	0.045657746
27	0xbeb0fbc2	-0.34567076
28	0xbe6e214b	-0.23254888
29	0x3db97dab	0.090571724
30	0x3e9875e3	0.2977744
31	0xbdc17a16	-0.09447114
32	0xbb3cbd00	-0.0028799176
33	0xbe9c4bc3	-0.30526552
34	0xbe9b6857	-0.30353042
35	0x3e8cceeb	0.27501616
36	0x3e896599	0.26835325
37	0xbdc56102	-0.096376434
38	0xbe000b18	-0.12504232
39	0xbca7b330	-0.020471185
40	0x3e32740a	0.17427078
41	0xbe8e8af9	-0.27840403
42	0xbe25329e	-0.1613259
43	0xbdc6e517	-0.09711664
44	0xbe046062	-0.12927392
45	0x3c10dc13	0.008841532
46	0x3e81f756	0.25384015
47	0x3d9da31e	0.07697128
48	0xbe885ac2	-0.26631743
49	0x3e9f67e8	0.31133962
50	0x3e9cf711	0.30657247
51	0x3e1b578a	0.15170112
52	0x3e236eed	0.15960284
53	0x3e27ba4e	0.16379663
54	0x3e9b4446	0.30325526
55	0xbe77f520	-0.24214602
56	0xbdf81ae1	-0.12114502
57	0xbaaddfc2	-0.0013265538
58	0xbc493821	-0.012281449
59	0xbe37a62a	-0.1793448
60	0xbe9b4522	-0.30326182
61	0xbe774ea6	-0.24151096
62	0xbd492c58	-0.049114555
63	0x3e8970a5	0.26843753
64	0x3e56af32	0.20965269
65	0x3dbaad28	0.09115058
66	0xbe46e21d	-0.19422193
67	0xbe024539	-0.12721719
68	0x3cf98f00	0.030463696
69	0xbe9612f3	-0.29311332
70	0x3d1f4d3e	0.038892023
71	0x3dec38b7	0.11534255
72	0x3e927e00	0.28611755
73	0xbd20c7c3	-0.039253008
74	0x3eb1e627	0.34745905
75	0x3daeefee	0.08541857
76	0xbe135eb0	-0.14391589
77	0x3eab39be	0.3344249
78	0x3ea3bd99	0.3198059
79	0xbe5f83c9	-0.21827616
80	0xbe3bd83e	-0.18344209
81	0x3e1ad548	0.15120423
82	0xbe473f36	-0.19457707
83	0x3e5c2e22	0.21501973
84	0xbe1a80e4	-0.1508823
85	0xbdc90090	-0.098145604
86	0xbdb9ea22	-0.090778604
87	0x3e9a774b	0.30169138
88	0xbddb00f2	-0.1069354
89	0xbd7bdc08	-0.061489135
90	0x3e792e4d	0.24334069
91	0xbe2816cb	-0.16414945
92	0xba719382	-0.0009215401
93	0xbe4d528a	-0.20051017
94	0xbe7e90b4	-0.24859887
95	0xbc2a2d01	-0.010386706
96	0x3de5d50c	0.11222276
97	0x3e9d80d8	0.30762362
98	0xbe828e80	-0.25499344
99	0xbd780b34	-0.06055756

network.3.bias f4 [10]
0	0x3d44c8ce	0.048043065
1	0x3e3e927c	0.18610567
2	0x3e1a81f5	0.15088637
3	0xbe82305f	-0.2542753
4	0xbd4ba789	-0.04972032
5	0x3e1e0dc1	0.15434934
6	0xbe81c97d	-0.25349036
7	0x3e73126d	0.23737498
8	0xbe9a7ceb	-0.3017343
9	0x3e8c78db	0.27435955

network.6.weight f4 [10, 10]
0	0x3e2b26ce	0.16714022
1	0xbc881d64	-0.016615577
2	0x3e30b0e3	0.17254977
3	0x3e892219	0.26783827
4	0x3e80e29a	0.25172883
5	0x3e87cbad	0.2652258
6	0xbe3c80f3	-0.18408565
7	0x3e23fe87	0.16015063
8	0x3e73017e	0.23731038
9	0x3e063c4e	0.13108942
10	0x3e3dd698	0.18538892
11	0xbe64c8f5	-0.22342284
12	0x3e4a8cbb	0.19780247
13	0xbc2bdc80	-0.010489583
14	0xbe94315b	-0.28943905
15	0xbdda9bac	-0.10674223
16	0x3e8f1a39	0.27949694
17	0xbe0cd272	-0.13752154
18	0xbd605608	-0.054769546
19	0xbe1b9d1f	-0.15196656
20	0xbe301184	-0.17194182
21	0x3d6066b8	0.05478546
22	0x3e447032	0.19183424
23	0x3d1928c0	0.037392378
24	0xbc9fc730	-0.01950416
25	0x3c95dac0	0.018292785
26	0xbe72d3cc	-0.23713607
27	0xbe2a9e5b	-0.1666197
28	0x3c81a120	0.0158239
29	0xbe8169a3	-0.25275907
30	0x3defe9dc	0.11714527
31	0x3c004f70	0.007831439
32	0xbd23d646	-0.03999927
33	0xbca63e50	-0.020293385
34	0x3e8172bf	0.25282857
35	0x3e7e604f	0.24841426
36	0x3e1e1c88	0.15440571
37	0x3df4b261	0.119480856
38	0xbe1d031c	-0.15333217
39	0x3daf87e4	0.08570841
40	0xbe106536	-0.14101109
41	0x3e56ff23	0.20995764
42	0xbe1d7839	-0.15377893
43	0xbae2b700	-0.001729697
44	0x3e79ff16	0.24413714
45	0x3e90acfa	0.2825697
46	0x3e8f2919	0.27961043
47	0x3e35db86	0.17759523
48	0x3dfb65b8	0.12275261
49	0x3e244bfc	0.1604461
50	0x3e6c74b6	0.23091397
51	0x3e29ec88	0.16594136
52	0x3dbf18e4	0.093309194
53	0xbde1f86a	-0.11033709
54	0xbe1cb73e	-0.15304276
55	0xbda01e46	-0.07818274
56	0x3e1a89c4	0.15091616
57	0xbe304461	-0.17213584
58	0x3db0f050	0.08639586
59	0x3e8da77d	0.27666846
60	0x3e875d22	0.26438242
61	0xbe71f005	-0.23626716
62	0x3db4a78f	0.08821022
63	0x3e53bc36	0.20677266
64	0xbe8f3a9f	-0.27974412
65	0x3e545d61	0.20738746
66	0xbe49c477	-0.19703852
67	0xbe6daa53	-0.23209505
68	0xbe09438c	-0.13404673
69	0xbdf84002	-0.121215835
70	0xbe05e129	-0.13074173
71	0x3dba740c	0.091041654
72	0x3dfae4ec	0.12250695
73	0x3dfbb370	0.12290084
74	0x3e5f92a2	0.2183328
75	0xbe4ce1d0	-0.20008016
76	0xbe99bcac	-0.30026758
77	0xbe81e33e	-0.25368685
78	0xbe31fa65	-0.17380674
79	0xbe141def	-0.14464544
80	0x3e0e4a24	0.1389547
81	0xbe6a557e	-0.22884175
82	0xbe6cc184	-0.23120695
83	0x3e2d6a16	0.16935
84	0xbe4e0ab9	-0.20121278
85	0x3d72f198	0.059312433
86	0xbe76e840	-0.24112034
87	0x3df71bac	0.12065825
88	0x3e4a57ee	0.19760105
89	0xbe883075	-0.2659947
90	0x3db5afea	0.088714436
91	0xbe478d80	-0.19487572
92	0x3e3af033	0.18255691
93	0x3e919f25	0.2844173
94	0xbe889708	-0.26677728
95	0x3db54030	0.088501334
96	0x3e5ab01e	0.21356246
97	0x3e826725	0.25469318
98	0x3e7490ba	0.23883334
99	0x3d0379cb	0.032098573

network.6.bias f4 [10]
0	0x3dbce85c	0.092240065
1	0x3d2031cb	0.039109986
2	0xbe410db5	-0.18852885
3	0xbdd6a0aa	-0.10479863
4	0x3d91986c	0.0710915
5	0xbe4ce84a	-0.20010486
6	0xbc8424fe	-0.01613092
7	0xbd2c1140	-0.04200864
8	0xbde2ba20	-0.11070657
9	0xbe0117ea	-0.12606779

network.9.weight f4 [1, 10]
0	0xbec97f90	-0.39355135
1	0x3e905047	0.28186247
2	0x3e1f9c44	0.15586954
3	0x3e5ec423	0.21754508
4	0xbeb3e5f9	-0.35136393
5	0xbe9e8270	-0.3095889
6	0x3e6a5410	0.2288363
7	0xbd6373f0	-0.05553049
8	0x3d49e7b8	0.04929325
9	0x3e090ce4	0.13383824
