experiments/exp_real/saved_models/run_0/bootstrapped/y_regression_9.pt (torch, 6869 bytes, 7 tensors)

network.0.weight f4 [15, 30]
0	0x3d7c8156	0.06164678
1	0x3e531649	0.2061397
2	0xbdfb918d	-0.12283621
3	0xbdf1da9d	-0.11809275
4	0xbe181ea2	-0.14855435
5	0x3d388bdc	0.045055255
6	0xbe04a83a	-0.12954798
7	0x3d8c342d	0.06845889
8	0x3d3e8321	0.046511773
9	0x3e31b53c	0.17354292
10	0xbc081a65	-0.008307074
11	0xbb2b463c	-0.0026134392
12	0xbddab143	-0.10678341
13	0xbcde63df	-0.027147232
14	0xbe44d2e8	-0.1922108
15	0xbe058984	-0.1304074
16	0xbdf7b310	-0.120947
17	0xbe343cb4	-0.17601281
18	0xbd011261	-0.031511668
19	0xbdd8f591	-0.10593713
20	0xbc0020d4	-0.007820327
21	0xbe4a1cd1	-0.19737555
22	0x3e4a2e01	0.19744112
23	0xbdf44d77	-0.11928838
24	0x3e7f562a	0.24935213
25	0x3dd0e0f3	0.10199156
26	0xbe32b58d	-0.17452069
27	0x3dae24f7	0.08503144
28	0xbc488f24	-0.012241159
29	0x3d29cfde	0.041458003
30	0xbc3f1284	-0.011662129
31	0x3dbd6b90	0.092490315
32	0xbe66a97f	-0.22525595
33	0xbde04723	-0.10951068
34	0xbe82359c	-0.25431526
35	0xbe3fca19	-0.18729438
36	0xbcff6d69	-0.0311801
37	0x3cd36d81	0.025809051
38	0xbe18a950	-0.14908338
39	0x3e7c2822	0.24624684
40	0xbe3907f4	-0.1806944
41	0xbe19536b	-0.14973228
42	0x3d2a3d52	0.041562386
43	0x3dc9a8d8	0.098466575
44	0xbe734d66	-0.23759994
45	0xbcfb39ea	-0.030667264
46	0xbe4c7724	-0.19967324
47	0x3d722ab2	0.05912275
48	0xbe85f940	-0.26166725
49	0xbe1a1e25	-0.15050562
50	0xbd6adbb6	-0.05733844
51	0x3d6f1451	0.058368985
52	0x3e5b2db7	0.21404158
53	0xbd2a1006	-0.041519187
54	0x3e74b515	0.23897202
55	0xbdd76001	-0.10516358
56	0xbdac2c2a	-0.08406861
57	0xbe35a05f	-0.17736958
58	0xbd73614b	-0.059418958
59	0xbd7098d4	-0.0587395
60	0xbe86ccaa	-0.2632802
61	0x3da636d6	0.08115928
62	0x3dc973c9	0.098365374
63	0x3dec2433	0.11530342
64	0x3c8764ef	0.016527621
65	0x3bc0d8c0	0.0058852136
66	0xbd9943d6	-0.07483642
67	0xbe227ba1	-0.15867473
68	0xbda60622	-0.081066385
69	0xbd706078	-0.05868575
70	0x3e2c74bc	0.16841406
71	0xbc175303	-0.0092361
72	0x3e7b8b5d	0.24564882
73	0x3d697995	0.057000715
74	0xba76458a	-0.00093945174
75	0x3db7f528	0.08982307
76	0x3ded67fe	0.115921006
77	0xbd33a5bf	-0.04385924
78	0x3eadf200	0.33973694
79	0x3e29dca5	0.16588075
80	0x3d6eab48	0.058268815
81	0x3cfd5bd6	0.03092758
82	0x3d6711c9	0.056413446
83	0x3e899581	0.26871875
84	0xbe1c4c80	-0.15263557
85	0xbd9dd009	-0.07705695
86	0x3e777c2f	0.24168466
87	0xbdc70c25	-0.09719113
88	0xbd221f9b	-0.039580923
89	0x3d28c1f7	0.041200604
90	0x3da83087	0.08212381
91	0x3d1ed652	0.03877861
92	0x3e54b626	0.20772609
93	0xbe26521a	-0.16242257
94	0xbe4e41fd	-0.2014236
95	0x3e53aab5	0.20670588
96	0x3e277ed9	0.16356982
97	0x3b7eccdc	0.003887943
98	0x3cdceeb1	0.026969286
99	0x3c466577	0.012109152
100	0xbe451c6e	-0.19249126
101	0x3e150955	0.14554341
102	0xbe5169d2	-0.20450523
103	0xbe7c08ca	-0.24612728
104	0x3e1061c8	0.140998
105	0xbe20a5e7	-0.15688287
106	0x3e484b3c	0.1955995
107	0x3c3b60ee	0.011436684
108	0xbe532dca	-0.20622936
109	0xbe5701d4	-0.20996791
110	0xbe4edea3	-0.20202117
111	0xbe45b29a	-0.19306412
112	0xbcf0fd95	-0.029417792
113	0xbe4907ed	-0.1963193
114	0xbdf2827d	-0.11841295
115	0x3e2b4ac8	0.16727746
116	0xbe56480f	-0.20925926
117	0x3d28454d	0.041081715
118	0xbb2a7283	-0.0026008196
119	0x3e8c6e48	0.27427888
120	0x3e2df16b	0.16986625
121	0xbcd206b9	-0.025637971
122	0xbdb7b8f0	-0.08970821
123	0xbdebd2f6	-0.11514847
124	0xbc6b1a6b	-0.01434956
125	0xbd9cf9c0	-0.076648235
126	0x3dff7773	0.12473955
127	0xbd88ff11	-0.06689275
128	0x3d555c62	0.052090056
129	0x3da0f85b	0.0785987
130	0xbd052d77	-0.03251406
131	0x3cfa4514	0.030550517
132	0x3c960af9	0.018315779
133	0x3d922238	0.07135433
134	0xbd1749b4	-0.036935523
135	0xbda47c49	-0.08031518
136	0xbdd674ac	-0.10471472
137	0x3d9551aa	0.07290967
138	0x3c44ed2d	0.012019438
139	0x3d9176aa	0.071027115
140	0xbd7f6d47	-0.062360074
141	0x3c7dd7db	0.0154933585
142	0x3bf1ce74	0.0073793475
143	0xbdd2161a	-0.10258122
144	0x3e4f2e60	0.20232534
145	0xbd13989c	-0.03603421
146	0x3d46c388	0.048526317
147	0x3dd433f1	0.103614695
148	0x3e81ab20	0.2532587
149	0x3d3eb608	0.046560317
150	0xbe301206	-0.17194375
151	0x3d44a997	0.048013296
152	0x3e2a233a	0.16615
153	0xbe0189c4	-0.1265021
154	0xbe1afa02	-0.15134433
155	0x3e205a30	0.15659404
156	0xbdcd82f4	-0.10034743
157	0x3e5da35c	0.21644348
158	0x3cf0ae38	0.029379949
159	0x3de8c8a1	0.11366392
160	0xbdf6cb4f	-0.12050497
161	0xbd244579	-0.040105317
162	0xbe25df3c	-0.16198438
163	0xbe16c674	-0.14724141
164	0xbd4e60c4	-0.05038525
165	0xbdf913b0	-0.12161958
166	0xbdefb3b7	-0.117042
167	0x3e0e81b2	0.13916662
168	0xbdda2627	-0.10651808
169	0xba3367ce	-0.0006843776
170	0xbda4ad62	-0.08040883
171	0x3d5952c8	0.053057462
172	0x3bdae9c0	0.006680697
173	0xbda5c5a0	-0.080943346
174	0x3d24e600	0.040258408
175	0xbdaea163	-0.08526876
176	0xbd9ce0c8	-0.07660061
177	0x3d13c570	0.036076963
178	0xbe58388c	-0.21115321
179	0xbbf58392	-0.007492491
180	0xbe86f1df	-0.26356408
181	0xbb3b223b	-0.0028554338
182	0x3da9cd92	0.082911626
183	0x3ca824d8	0.020525381
184	0x3e92bcd2	0.28659683
185	0xbe34a24d	-0.17640038
186	0xbd9508eb	-0.072770916
187	0x3d94ab2d	0.07259212
188	0x3dc03510	0.09385121
189	0xbe6bb016	-0.2301639
190	0x3e7a7d8f	0.2446196
191	0x3cba8064	0.0227663
192	0x3c7a299d	0.01526871
193	0x3e4f1db1	0.2022617
194	0x3e0b8e34	0.13628465
195	0x3e8ce084	0.27515042
196	0x3ddc1440	0.1074605
197	0x3dee1d6d	0.11626706
198	0x3e01b34b	0.12666051
199	0x3e62bc92	0.22142246
200	0x3e849273	0.25892982
201	0x3e4fea86	0.20304307
202	0xbd0d6932	-0.03452415
203	0x3e301f45	0.17199428
204	0xbdd613a6	-0.104529664
205	0xbdcaea23	-0.09907939
206	0x3def6ef1	0.11691082
207	0xbde97776	-0.113997385
208	0x3e726b8b	0.23673837
209	0x3eb0a1e7	0.34498522
210	0xbe99b172	-0.30018193
211	0x3d50a68c	0.05094008
212	0xbce3d990	-0.027813703
213	0x3e73ae3c	0.23796934
214	0x3df940bc	0.1217055
215	0x3e3532d2	0.17695168
216	0xbdc1cf3d	-0.09463356
217	0x3d468aa9	0.04847208
218	0x3e38e4d5	0.18056042
219	0xbb9015c6	-0.004397127
220	0x3e1d2687	0.15346728
221	0xbd16c391	-0.0368076
222	0xbd3c4387	-0.045962837
223	0x3d6d78e6	0.057976626
224	0x3e00f893	0.12594824
225	0x3d9fdf22	0.07806231
226	0x3e4450ef	0.19171499
227	0x3e8c1d5d	0.27366152
228	0x3b26aee5	0.0025433835
229	0x3e84ba7a	0.2592352
230	0x3e46fae6	0.19431648
231	0x3e4fa438	0.20277488
232	0xbd8c7003	-0.06857302
233	0x3e916ff9	0.2840574
234	0x3e0a7306	0.1352044
235	0xbc732636	-0.014840653
236	0x3df7a4fb	0.120920144
237	0xbd519750	-0.051169693
238	0xbe0b9cc4	-0.1363402
239	0xbd95ed03	-0.07320597
240	0xbded4a2d	-0.115864135
241	0x3e058595	0.13039239
242	0xbd6e1bb3	-0.058131885
243	0x3e1e9167	0.15485154
244	0xbdb3b088	-0.08773905
245	0x3ea4a99b	0.3216065
246	0x3da95d45	0.08269743
247	0xbcabb8e6	-0.02096219
248	0x3d0bbcbb	0.034115534
249	0xbe21054e	-0.1572468
250	0x3e4cdb29	0.20005478
251	0x3d885256	0.06656329
252	0x3d8f54f6	0.06998627
253	0x3d954f8c	0.07290563
254	0x3e5718bf	0.21005534
255	0xbc845638	-0.016154394

network.0.bias f4 [15]
0	0x3e588352	0.21143845
1	0x3e676c98	0.22600019
2	0x3e6c391d	0.23068662
3	0xbd47d1e9	-0.04878417
4	0x3e064474	0.1311205
5	0xbda0bda2	-0.078486696
6	0x3e071bd6	0.13194212
7	0x3cf7f7bf	0.030269502
8	0x3e1f42c1	0.15552808
9	0xbdb48770	-0.08814895
10	0x3e8d3bb3	0.2758461
11	0x3bbec5fa	0.0058219405
12	0x3e02478d	0.12722607
13	0x3ea94317	0.33058998
14	0x3e467c9a	0.19383469

network.3.weight f4 [15, 15]
0	0x3d009de1	0.031400565
1	0x3e4ebd6d	0.20189448
2	0xbe176e86	-0.14788255
3	0x3da4af6e	0.08041273
4	0xbde6f930	-0.112779975
5	0x3e68fb60	0.22752142
6	0xbe0e245e	-0.1388106
7	0xbe54ee99	-0.20794143
8	0x3d274137	0.040833678
9	0xbe229e81	-0.15880777
10	0x3d8b5672	0.068035975
11	0xbdcb39a4	-0.099231035
12	0xbc1dd543	-0.009633365
13	0x3deefd88	0.11669451
14	0xbe232cb0	-0.15935016
15	0xbe1e686a	-0.15469518
16	0xbd0363d9	-0.032077644
17	0xbc994a13	-0.01871208
18	0x3dc44daa	0.09585126
19	0x3d60a34d	0.054843236
20	0xbe61ee58	-0.22063577
21	0x3e51174a	0.2041904
22	0xbe707219	-0.23481025
23	0xbe8b9333	-0.27260742
24	0x3e7c76fe	0.24654767
25	0xbe8eda1d	-0.27900782
26	0x3d81d301	0.06339074
27	0x3bf84f6e	0.007577828
28	0x3dfc03e2	0.12305428
29	0x3e593afa	0.21213904
30	0x3e6b4b90	0.22978044
31	0x3e6b59b2	0.22983435
32	0x3df8ec23	0.121544145
33	0xbe3c7ea9	-0.18407692
34	0x3e876387	0.2644312
35	0xbd89c060	-0.06726146
36	0xbf00e8f2	-0.50355446
37	0xbed0c438	-0.40774703
38	0xbe2e296a	-0.17007986
39	0xbda0fc0d	-0.07860575
40	0x3ec52c7a	0.38510495
41	0xbeb4dfea	-0.35327083
42	0x3e0ed579	0.13948621
43	0x3d4a1e9b	0.049345594
44	0x3ec6ba13	0.38813838
45	0x3cec2611	0.028826745
46	0xbde11328	-0.10989982
47	0x3d844ce2	0.06459977
48	0xbe62958e	-0.22127363
49	0xbe6d22ff	-0.23157881
50	0xbe292f61	-0.1652198
51	0x3d956322	0.07294299
52	0x3eacaf03	0.33727273
53	0x3dfde6b7	0.12397521
54	0x3d2f3cc7	0.04278257
55	0xbe6d8364	-0.23194653
56	0xbe62a403	-0.22132878
57	0x3e330433	0.1748207
58	0xbded0c02	-0.11574556
59	0xbd03f9ed	-0.03222077
60	0xbe9b0501	-0.30277255
61	0x3ba87fa4	0.005142169
62	0x3df4e05c	0.11956856
63	0x3e7a3d84	0.24437529
64	0xbe63bcb3	-0.22239952
65	0x3d973592	0.073832646
66	0x3f20495e	0.6261195
67	0xbc88c662	-0.016696159
68	0xba8d7ed1	-0.001079524
69	0xbd467dfc	-0.04845999
70	0xbd178113	-0.03698833
71	0x3dd22679	0.10261244
72	0x3de10eaf	0.10989129
73	0x3e5754e2	0.21028474
74	0x3db5c23d	0.08874939
75	0x3e4d6138	0.20056617
76	0x3d558738	0.052130908
77	0xbdddb236	-0.10825007
78	0x3e0527de	0.1300349
79	0x3e4b17ea	0.19833341
80	0xbd7992ac	-0.060930893
81	0x3d8acbb4	0.067771345
82	0xbe1a2f04	-0.15056998
83	0xbe0d20a2	-0.1378198
84	0xbe743ffc	-0.23852533
85	0xbda236f0	-0.07920635
86	0xbd923058	-0.07138127
87	0xbdbebbd8	-0.09313172
88	0x3c855f50	0.0162808
89	0xbe3fa77e	-0.18716237
90	0xbe5aaa63	-0.2135406
91	0xbbd41039	-0.0064716605
92	0x3e124a2b	0.14286105
93	0x3ed27515	0.41104952
94	0x3dc8d736	0.09806673
95	0x3b80687a	0.0039187046
96	0x3edb5e6e	0.42845482
97	0x3dd7a8c0	0.105302334
98	0x3eb21653	0.34782657
99	0x3ed761ca	0.42066795
100	0xbe1c3bac	-0.15257138
101	0x3e1893e8	0.14900172
102	0x3dc3a241	0.09552432
103	0x3e7d24f1	0.24721123
104	0x3d908283	0.07056143
105	0xbd85a216	-0.06525056
106	0x3e4fd636	0.20296559
107	0xbe1cc49a	-0.15309373
108	0x3c187c5b	0.009306992
109	0xbc5907e0	-0.013246506
110	0xbd5da557	-0.05411276
111	0x3e15897f	0.14603232
112	0xbe742123	-0.23840766
113	0xbd48f783	-0.04906417
114	0x3db7f05c	0.08981392
115	0xbc0fdabb	-0.008780177
116	0xbd90fd09	-0.070795126
117	0xbe5a1197	-0.21295772
118	0x3e365b01	0.17808153
119	0xbe0e01d1	-0.1386788
120	0x3ec34842	0.38141066
121	0x3eafddb1	0.34348825
122	0xbae61e89	-0.0017556708
123	0xbe86fa59	-0.26362875
124	0x3e60f075	0.21966727
125	0x3eb444e8	0.3520882
126	0x3c0fe0a1	0.008781583
127	0xbeaa48bb	-0.33258614
128	0x3e299274	0.16559774
129	0xbe64fd2c	-0.22362202
130	0x3e8a45d7	0.2700641
131	0x3d782b63	0.06058825
132	0xbc8dc387	-0.017305149
133	0x3eb8de29	0.36106995
134	0x3eb96a85	0.3621408
135	0x3e223188	0.15839207
136	0xbe659ee1	-0.22423889
137	0x3eb1df60	0.34740734
138	0xbd8da7c9	-0.06916768
139	0xbcca9aa5	-0.024731943
140	0xbe5b5dc2	-0.21422485
141	0x3ed8d887	0.42352697
142	0x3d3fa595	0.04678877
143	0x3d8606cc	0.06544265
144	0x3d800476	0.06250851
145	0x3da3b96b	0.0799435
146	0x3ebc233c	0.36745632
147	0xbeb20d0d	-0.34775582
148	0x3e2e879c	0.17043918
149	0xbe1c608c	-0.15271205
150	0x3eb6c098	0.35693812
151	0xbd4cc13a	-0.049988963
152	0xbe393cd1	-0.18089606
153	0xbe09c4a3	-0.13453917
154	0x3e1220ab	0.14270274
155	0x3e9b939c	0.30386055
156	0xbdc09559	-0.09403486
157	0xbea42441	-0.3205891
158	0xbe0cf8ad	-0.13766737
159	0xbe7ca390	-0.24671769
160	0x3eca9a66	0.39570922
161	0xbe84c341	-0.25930217
162	0x3e47cb76	0.19511208
163	0x3e94dce8	0.29074788
164	0xbd6fb968	-0.058526427
165	0x3eae653d	0.34061614
166	0x3e1b25f4	0.15151197
167	0xbd9e661e	-0.07734321
168	0x3ccc17b7	0.024913652
169	0x3d200bf9	0.039073918
170	0x3db5866d	0.0886353
171	0xbe741ace	-0.2383835
172	0xbd9c4ddc	-0.07632038
173	0x3d5c2173	0.053742837
174	0xbe8b32eb	-0.27187285
175	0x3c016c7a	0.007899398
176	0xbe0ff11c	-0.1405682
177	0x3e67b476	0.22627434
178	0x3e3fc302	0.18726733
179	0x3e9ee8e2	0.3103705
180	0xbd879918	-0.06620997
181	0x3d984c0c	0.0743638
182	0xbe5d6295	-0.21619637
183	0x3c6d5400	0.014485359
184	0x3cba4240	0.022736669
185	0xbd042030	-0.03225726
186	0xbc6e5a70	-0.014547929
187	0xbb24d600	-0.0025151968
188	0x3e6072b8	0.21918762
189	0xbe6a67cb	-0.22891156
190	0xbe6c50fc	-0.23077768
191	0x3d46b468	0.048511893
192	0xbe3e9e8a	-0.18615165
193	0xbe1ff1ba	-0.15619555
194	0x3e7b79b6	0.24558148
195	0xbe04b9a2	-0.12961438
196	0x3b44d524	0.0030034268
197	0x3e63563a	0.22200862
198	0x3ea1405a	0.3149441
199	0xbd38b729	-0.04509655
200	0xbdd7bd3a	-0.10534139
201	0x3e9bcba4	0.30428803
202	0xbd8a60af	-0.06756722
203	0x3e660b89	0.22465338
204	0x3d177938	0.036980838
205	0xbdf67178	-0.12033361
206	0x3ee4545b	0.44595608
207	0xbeab3f6a	-0.3344682
208	0x3e83fe02	0.2577973
209	0xbdef24ca	-0.11676939
210	0xbe0eb708	-0.13937008
211	0x3e7ae5c8	0.24501717
212	0x3e2245e8	0.1584698
213	0xbe356432	-0.17714003
214	0xbde462a4	-0.11151627
215	0xbe1cdf39	-0.15319528
216	0x3ed48135	0.41504827
217	0x3dc752a9	0.09732563
218	0x3e633a85	0.22190292
219	0x3e9776ba	0.2958277
220	0x3def1b99	0.11675186
221	0x3df23796	0.118270084
222	0xbea3905a	-0.3194607
223	0x3aaeef92	0.0013346544
224	0xbea4f1d7	-0.3221576

network.3.bias f4 [15]
0	0xbe135f33	-0.14391784
1	0xbe784b31	-0.24247433
2	0x3e6603ee	0.22462437
3	0x3defd655	0.117108025
4	0x3d0a10c1	0.033707384
5	0xbe50b52b	-0.2038161
6	0xbdea93f9	-0.11454005
7	0xbd60df3d	-0.054900397
8	0x3d6ed00e	0.058303885
9	0xbc327d0b	-0.01089407
10	0x3eb42a6a	0.3518861
11	0x3de2b44d	0.11069546
12	0xbe128682	-0.14309123
13	0x3db23af3	0.0870265
14	0x3e18947a	0.1490039

network.6.weight f4 [15, 15]
0	0xbd01b8d5	-0.03167041
1	0x3e7888e0	0.24270964
2	0x3e79be04	0.24388891
3	0x3e256e14	0.16155273
4	0xbe5d9902	-0.21640399
5	0x3dd592e0	0.10428405
6	0xbea278c9	-0.31732777
7	0xbe637473	-0.2221239
8	0x3eb58a97	0.35457298
9	0xbe8d1520	-0.2755518
10	0x3ec31dc9	0.38108662
11	0x3e3d4a2a	0.18485323
12	0xbe21b7f7	-0.15792833
13	0xbe3777f8	-0.17916858
14	0xbec190cb	-0.3780578
15	0xbdd658b0	-0.104661345
16	0x3e2f04e1	0.17091705
17	0x3ed3a50c	0.41336858
18	0xbe0df4b8	-0.13862884
19	0xbe8b5415	-0.27212587
20	0xbe3128fc	-0.1730079
21	0xbeea78ca	-0.4579528
22	0xbd9eb8b0	-0.0775007
23	0x3eb6b484	0.35684597
24	0xbf07a877	-0.5299143
25	0x3e0f41f2	0.1399
26	0xbb885a4f	-0.0041611562
27	0x3da82d84	0.082118064
28	0xbea7700c	-0.32702672
29	0xbe239c4c	-0.15977591
30	0x3e23ab16	0.15983233
31	0x3e5892fa	0.21149817
32	0xbd503310	-0.050829947
33	0x3dbb1b40	0.09136057
34	0x3d8bf9d4	0.0683476
35	0x3b5b7700	0.0033487678
36	0xbd7c2578	-0.06155917
37	0xbe04752e	-0.12935326
38	0x3e6802dc	0.22657341
39	0x3cf10070	0.029419154
40	0xbde319de	-0.11088918
41	0xbe5f6543	-0.21815972
42	0xbe2c40ca	-0.1682159
43	0xbd3ec200	-0.04657173
44	0x3ce0ca10	0.0274401
45	0xbdfa59ba	-0.12224145
46	0x3e67674e	0.22598001
47	0x3d156a36	0.036478244
48	0x3da41d64	0.08013418
49	0xbe7f2a03	-0.2491837
50	0xbd405bdc	-0.046962604
51	0x3e3c5630	0.18392253
52	0x3d056e80	0.032576084
53	0x3d8aaac5	0.06770853
54	0xbde813fa	-0.11331935
55	0xbca84b76	-0.020543795
56	0x3d395299	0.045244787
57	0x3c1e15a0	0.0096487105
58	0x3cc21ed6	0.023696344
59	0x3dcd72a0	0.100316286
60	0x3cf012c3	0.029305821
61	0x3d92e49d	0.07172511
62	0x3e7ecf9b	0.24883883
63	0xbe5d3bbc	-0.21604818
64	0xbe0c8d85	-0.1372586
65	0x3e5ec9aa	0.21756616
66	0xbf047ce0	-0.51753044
67	0xbe2b99ab	-0.16757838
68	0x3e6e8fde	0.23297068
69	0xbf03e682	-0.515236
70	0xbdc7323f	-0.097263806
71	0x3e134b96	0.14384302
72	0x3e814ed3	0.2525545
73	0xbcc19cae	-0.023634281
74	0xbe86c7f8	-0.2632444
75	0xbe35352d	-0.17696066
76	0xbe0224b2	-0.1270931
77	0x3e56a372	0.20960787
78	0xbd4b1159	-0.04957709
79	0xbdeab3da	-0.11460085
80	0xbe32d2a8	-0.17463171
81	0xbcba2bdf	-0.022725997
82	0xbe79daea	-0.24399915
83	0x3edb9591	0.42887548
84	0xbcb7288a	-0.022358198
85	0x3e15aec8	0.14617455
86	0x3eac97e4	0.33709633
87	0xbe771356	-0.2412847
88	0xbe136f0e	-0.14397833
89	0xbd3946b4	-0.045233443
90	0xbe34c3c6	-0.17652807
91	0x3e26e546	0.16298398
92	0xbce42025	-0.027847359
93	0x3e868323	0.26271924
94	0xbe64229a	-0.22278824
95	0xbe233348	-0.15937531
96	0x3e60cbb1	0.21952702
97	0x3e2e916b	0.1704766
98	0x3b7e3f9b	0.0038795236
99	0xbcdf4725	-0.027255604
100	0xbd34367f	-0.043997284
101	0xbd3b4c01	-0.04572678
102	0x3e7a2ce6	0.2443119
103	0x3eb9c2b4	0.3628136
104	0xbc13f228	-0.0090299025
105	0x3e2160a3	0.1575952
106	0xbe171d24	-0.1475721
107	0xbcfaef3d	-0.030631656
108	0xbd5f1441	-0.054462675
109	0xbdfd5c75	-0.123711504
110	0x3c4d24c0	0.012520969
111	0x3ecdce86	0.40196627
112	0xbdeac3f9	-0.1146316
113	0xbd999941	-0.07499934
114	0x3ed5d596	0.41764516
115	0x3d1019c1	0.03518081
116	0xbe006158	-0.12537134
117	0xbe801676	-0.25017136
118	0x3e5c2884	0.2149983
119	0x3e62e7e8	0.22158778
120	0xbd5de7ab	-0.054176014
121	0xbd6f1908	-0.05837348
122	0x3e83861c	0.25688255
123	0xbd55f8de	-0.05223929
124	0xbd352359	-0.044223163
125	0x3e3926e6	0.18081245
126	0xbed18d5b	-0.40928158
127	0x3d1a1254	0.037615135
128	0xbe1ce1b4	-0.15320474
129	0xbdc6f72a	-0.097151116
130	0x3e87ad58	0.26499438
131	0x3e895384	0.2682153
132	0x3e3fde94	0.1873725
133	0x3d6f17c0	0.05837226
134	0xbe9c3c09	-0.30514553
135	0xbe0d33ed	-0.1378934
136	0x3e438d50	0.19096875
137	0xbc06a150	-0.008217171
138	0x3dbf4f44	0.093412906
139	0x3d881f2c	0.066465706
140	0xbdb7f1f2	-0.08981694
141	0x3dcdcc84	0.10048774
142	0x3e7de5a2	0.24794629
143	0xbbe85ac0	-0.0070908964
144	0x3e471750	0.19442487
145	0x3d9a923c	0.07547423
146	0xbe024118	-0.12720144
147	0x3e189e52	0.14904144
148	0xbe2f4ef4	-0.17119962
149	0xbe0de455	-0.13856633
150	0xbe869e77	-0.26292774
151	0x3d8be048	0.06829888
152	0x3d8c8446	0.06861167
153	0xbd8aefd2	-0.06784023
154	0xbcfa73e7	-0.030572845
155	0xbe4c7714	-0.199673
156	0xbe0b1e2a	-0.13585725
157	0xbdf8e475	-0.1215295
158	0x3e37eac4	0.1796065
159	0xbe22f9b9	-0.15915574
160	0x3b2513e0	0.0025188848
161	0xbd33b01f	-0.043869134
162	0x3cbb11d0	0.022835642
163	0xbde7a507	-0.11310773
164	0x3d5e50b0	0.05427617
165	0x3e8c245a	0.27371484
166	0x3e1fcccc	0.15605468
167	0x3eaf0534	0.34183657
168	0xbdfec570	-0.12440002
169	0xbe334d13	-0.1750987
170	0x3e605b00	0.21909714
171	0xbd93b76f	-0.072127216
172	0x3c0d9fdc	0.0086440705
173	0x3e5dfc6e	0.21678326
174	0xbec88bfe	-0.39169306
175	0x3e8ef05b	0.27917752
176	0xbd5383bf	-0.051639315
177	0x3d05cc08	0.032665282
178	0xbe620896	-0.22073588
179	0xbeb9d888	-0.36298013
180	0xbdd4f993	-0.10399165
181	0xbe508918	-0.20364797
182	0x3e1d4f30	0.15362239
183	0xbe2cf361	-0.16889717
184	0x3ea191e0	0.31556606
185	0x3e14336a	0.14472738
186	0xbe1e08ff	-0.15433119
187	0xbe89ffd8	-0.26953006
188	0xbd6cf229	-0.05784813
189	0xbd6c8e0b	-0.05775265
190	0x3e391326	0.18073711
191	0x3e9c214f	0.30494162
192	0xbe2e8156	-0.17041525
193	0xbd9c4064	-0.07629469
194	0x3d5e33af	0.054248508
195	0x3e62df12	0.22155407
196	0x3e6c5a0d	0.23081227
197	0xbd9c4802	-0.07630922
198	0x3e541418	0.2071079
199	0x3d6feddf	0.05857646
200	0x3dc462e8	0.09589177
201	0x3e384064	0.17993313
202	0x3cd20072	0.025634978
203	0x3d9f6f88	0.07784945
204	0x3e89a2c7	0.26882002
205	0xbe0d3ee3	-0.1379352
206	0xbdc55a4a	-0.09636362
207	0x3dca70c0	0.098847866
208	0x3ea771bf	0.3270397
209	0xbe31edd8	-0.17375886
210	0xbe634a54	-0.22196323
211	0xbe1659ce	-0.14682695
212	0x3e0641ae	0.13110992
213	0x3e02f553	0.12788896
214	0x3d7ce59d	0.061742414
215	0xbd41fad0	-0.047358334
216	0x3d246a17	0.040140238
217	0xbd867a27	-0.065662675
218	0xbe5ff9b5	-0.218726
219	0xbd512882	-0.051064022
220	0xbe7ea915	-0.24869187
221	0xbe895d46	-0.26828974
222	0xbe427aa9	-0.18992104
223	0xbd6185cc	-0.05505924
224	0x3d5f8829	0.05457321

network.6.bias f4 [15]
0	0x3e6e8643	0.23293404
1	0x3e632f0a	0.22185913
2	0xbe741e31	-0.23839642
3	0xbe594b0b	-0.21220033
4	0x3eb2b6f8	0.3490522
5	0x3e9948b4	0.2993828
6	0x3ddae9f1	0.10689152
7	0x3e258839	0.16165246
8	0xbd3a7482	-0.045521267
9	0xbe029b77	-0.12754618
10	0xbe958b3e	-0.29207796
11	0xbde7a1f2	-0.113101855
12	0x3e81e2d2	0.25368363
13	0x3e531665	0.20614012
14	0x3e443c0a	0.19163528

network.9.weight f4 [1, 15]
0	0x3e636117	0.22205006
1	0x3eabee46	0.33580226
2	0x3e7462a2	0.2386575
3	0x3e5e168e	0.21688291
4	0x3e8d43e0	0.27590847
5	0x3e9c6468	0.30545354
6	0xbe5519e3	-0.20810656
7	0xbe71633d	-0.23573013
8	0x3e1de319	0.15418662
9	0x3cbb6fd0	0.022880465
10	0xbcce96a8	-0.025218323
11	0x3e3925c5	0.18080814
12	0x3e76916c	0.24078912
13	0xbe115b80	-0.1419506
14	0xbe18470e	-0.14870855
