experiments/exp_sim_continuous_m1/saved_models/run_0/bootstrapped/m1_2.pt (torch, 6385 bytes, 7 tensors)

network.0.weight f4 [20, 2]
00000000: 98d7 8b3f 4859 153e f758 553f 699e 0fbf
00000010: e63c bdbe daf2 ce3e 3a85 0cbf 807c 3c3f
00000020: 8888 94bd c179 afbe e247 d5bb 4e60 4ebf
00000030: 3a9e 75be 300d 013f 3a3d 20bf 79d2 24bf
00000040: 0245 6f3f 7121 3c3c a67d b3bd 2586 91be
00000050: 2025 0a3e c1d3 32bf 93cf aabe e3df ff3e
00000060: fc47 14bf d46a a33d 7f75 2f3d f543 443f
00000070: 8718 503f 7aa1 6b3e 4087 7d3f 56ac 56be
00000080: 53f2 88be 9933 e13e 940c 863e 53c3 dabf
00000090: 19bb 61bf b8fd 8cbe c4ab 1ebf ea24 233d
1.0925169 0.1458484 0.83338875 -0.5610109 -0.36960524 0.40419656 -0.5489079 0.7362747
-0.07252604 -0.34272578 -0.0065088132 -0.806157 -0.2398614 0.5041075 -0.62593424 -0.64383656
0.9346467 0.011482582 -0.087642 -0.28422657 0.13490725 -0.6985436 -0.33361492 0.499755
-0.5792234 0.0797936 0.042836662 0.76666194 0.81287426 0.23010817 0.990345 -0.20964178
-0.2674738 0.43984678 0.2618147 -1.7090858 -0.88176113 -0.27537322 -0.61980844 0.039830126

network.0.bias f4 [20]
00000000: 085e a33d d01b c8be 1f72 86be 3e76 c3be
00000010: c444 bbbe e31a 433f 20be 28be 1757 883e
00000020: 8d08 553e ab24 cfbd a2b3 33bf 3e5e 5ebe
00000030: 783f d53d 687b c6be bb6d 5a3e 3537 0fbf
00000040: 6f69 4bbe 8dab c33e dbb1 f9be 13c0 0a3e
0.079769194 -0.3908372 -0.26258942 -0.3817615 -0.36575902 0.762129 -0.16478777 0.26628944
0.20804043 -0.10114416 -0.7019597 -0.21715638 0.10412496 -0.38766026 0.21330921 -0.55943614
-0.19864438 0.3821682 -0.48768505 0.13549833

network.3.weight f4 [20, 20]
00000000: 7e82 bd3c 2b6c cdbf 0b33 20bf 1b24 b9be
00000010: 045d 11be 761b c3bd 9902 56be 9968 1cbf
00000020: 7b71 493d a044 b23d b05d 6e3d 8542 a3be
00000030: a5ca b2be ab3f f93d c0e8 6d3d b06e 3ebf
00000040: 8a6d 40bd db1b 83be f3dc 39bf 3685 c0be
00000050: 91a5 12bf c012 38bf b77b 723e 2171 353e
00000060: 63ad 02be 7f42 c43d 0f3d 28be e990 d53e
00000070: 1e47 a6be 79f5 10be 2c12 08bd 6461 d1bd
00000080: e434 103e cc4b 24bf 6865 1fbe beef 1bbf
00000090: 48cf 3c3d 9e5d 02bf e45e 3f3f 7ec0 253e
000000a0: 35ab 60bf aa72 b5be d880 2abd 0eed 45bd
000000b0: e01d 313d 40a7 c63e 70d3 b63b 1184 5abd
000000c0: 43d0 dabe 073d 093e ace2 323e 5f86 f6be
000000d0: a874 35bd 7901 633d 71f5 a6be 173c 49bf
000000e0: 723c 2b3e 365e 073f cb4a 78bf 0b53 11bc
000000f0: 5c80 7abf 0177 f5be dc40 afbd 28a7 5abd
00000100: 60e8 f93c 8a80 d33d 5f0f 74be df12 8fbc
00000110: ed41 4abf 62aa 1e3d 7ef0 093e 801c 293e
00000120: b05f b73c dd7a 013f 6a93 6bbf 37c9 a8be
00000130: 5272 afbe 75b2 5b3f a6e6 08bf b5f5 6e3c
00000140: 8255 27bd 8388 c6bf 89af 0cbf 2e66 0ebf
00000150: 86c8 14be 4f30 323e 1a46 a7be 1856 973d
00000160: da25 19be a5ac 173e 549c fe3d db2f 0bbf
00000170: c7a1 86bd f5db 10be a429 1abd b729 85bf
00000180: 430d b4be 09e7 063e f969 efbe ff94 13bd
00000190: bb32 f93d b294 7b3d 7eaf bdbc faa5 3abe
000001a0: 5001 2c3e ee14 953d bc58 12bc 8fff afbc
000001b0: 51b2 f3bd 645a 8ebd 60ab 77bc 4a2d 24be
000001c0: 49ca 8cbd 46f1 1d3c d7da 12be c2b2 98be
000001d0: 9c6b f1bd aa73 70be 138a 5c3d 149e 9cbd
000001e0: 9d8e 343e a516 29bf 9977 a03e a754 a73d
000001f0: 803b 28bd 0494 1bc0 d121 5f3e b460 82be
00000200: e459 a83d 901e 60be 8444 01bd 2102 1a3e
00000210: b30b f13d ca72 f13e 0588 58bd 3ed5 ebbe
00000220: 9f94 5a3e 9812 2fbf 748e ddbe c316 9a3d
00000230: b106 c8bf 29be 8dbe 20a5 02bf 19be 68be
00000240: d45c 0bbe caa0 3a3d 5c5a 83be f6a9 35bc
00000250: e474 63bf 61ef 61be 36b8 1dbe a773 79be
00000260: f5d4 183d 8717 b0be c0f3 64bf 0f15 e1be
00000270: ac8a 9dbd 218f 063f fd40 ddbe 9c63 06bd
00000280: 3f60 6e3d e86c 2dbe 2609 fc3d 62a4 d9bd
00000290: d84f 953d 75ba 14be be60 3c3d 8ad3 113e
000002a0: c01d 47be 487f d4bc 60b3 99bd 8f0e a0be
000002b0: ea44 a53d d27d 81be 8f96 a43d 9fc0 323e
000002c0: a0b0 7abe c63d 9fbd ec6c 40be d9be e3bb
000002d0: b0a8 c73c e11d a9bf 9f67 26bf 296a a6be
000002e0: 00b5 443e 82ee 783d df76 1e3d 53d6 73bf
000002f0: 8156 7a3d c968 51be c0dc 9ebd aed3 7fbe
00000300: 4a47 15bf 9a9b 9d3d 2172 35bd 178d efbe
00000310: b9ab d63b 6245 0abe 7c5d 4cbc 5ef0 ebbe
00000320: 786d 61bf c9b7 85bf 3cfd 61ba 4a02 003b
00000330: 8081 45bb 6eff 46be 20eb e1bc c63c dfbd
00000340: ac10 32bf eee4 22be cc13 8ebd 5dd1 0c3e
00000350: 2e8d 853c 9116 913e 23da f4be 68df e4be
00000360: 288c ed3d b0da 8e3f 2890 32bf 9560 05bd
00000370: e4b5 61bf e814 23bc e5a5 3abf 0b9e 02bf
00000380: eca4 fa3d 591a b5bc a70a 2dbf 51d2 493e
00000390: 30d0 46bf e499 24be 4c5b 4bbe b4e0 2ebf
000003a0: 8562 953d 42ce 31bf 1893 4dbf 0b81 afbd
000003b0: 58fa 3abf ad03 c03e 43b6 ffbe c6c5 0e3e
000003c0: 8666 9abd d9e4 99bf cb93 0fbf dceb 69bf
000003d0: b02a f9bd a58c abbd 5db8 d0be 9505 58bf
000003e0: ae2a 25bd 8aa1 633d 221e a7bd 2083 d6be
000003f0: 825e 9cbf aaa0 b2be d924 68bd 99ab 25bf
0.023133513 -1.6048635 -0.62577885 -0.3616036 -0.14195639 -0.09526722 -0.20899428 -0.61097103
0.04918049 0.087044954 0.058194816 -0.31886688 -0.3492023 0.12170347 0.058083296 -0.74387646
-0.046979465 -0.2560719 -0.72602767 -0.37601632 -0.57283884 -0.7190361 0.23680006 0.17718937
-0.12761454 0.095829956 -0.16429542 0.4171212 -0.32476133 -0.1415614 -0.033220455 -0.10223654
0.14082676 -0.64178157 -0.15566027 -0.6091269 0.046096116 -0.509241 0.74754167 0.16186711
-0.8776124 -0.35439044 -0.04162678 -0.048321776 0.04324138 0.38799477 0.0055794045 -0.053348605
-0.42737016 0.13402186 0.17469281 -0.48149392 -0.044300705 0.055421326 -0.32609132 -0.78607315
0.16722277 0.5287813 -0.96989125 -0.008869897 -0.9785211 -0.47942355 -0.08557293 -0.05338207
0.030506313 0.10327251 -0.23833989 -0.017465053 -0.79006845 0.03873671 0.13470647 0.16514778
0.022384495 0.505781 -0.9202181 -0.32966015 -0.34266907 0.8581918 -0.5347694 0.014584948
-0.04085303 -1.551041 -0.54955345 -0.55624664 -0.14529619 0.17401241 -0.3267067 0.07389468
-0.14955845 0.14811952 0.12432161 -0.54369897 -0.06573825 -0.14146407 -0.037637368 -1.0403355
-0.35166368 0.1317407 -0.46760538 -0.036030766 0.12167879 0.061421104 -0.02315497 -0.18227378
0.16797376 0.07279383 -0.008932289 -0.021484165 -0.118992455 -0.069508344 -0.015116543 -0.16032901
-0.0687452 0.009640044 -0.14341293 -0.2982388 -0.11788103 -0.23481622 0.053842615 -0.076473385
0.17632528 -0.6605018 0.31341246 0.08170443 -0.04107237 -2.4309092 0.21790244 -0.25464404
0.0822027 -0.21886659 -0.031559482 0.15039875 0.117698096 0.4715789 -0.052864093 -0.46061128
0.21345757 -0.68387747 -0.43272746 0.07523873 -1.5627042 -0.27684143 -0.5103321 -0.22728767
-0.1360963 0.045563497 -0.25654876 -0.011087885 -0.88850236 -0.22063972 -0.15402302 -0.24360524
0.037312467 -0.3439295 -0.89434433 -0.4396138 -0.07692465 0.5256215 -0.43213645 -0.03280984
0.058197256 -0.16936076 0.123064324 -0.10627057 0.072906196 -0.14524253 0.045990698 0.14240852
-0.19444942 -0.025939599 -0.07504916 -0.31261107 0.08069785 -0.25291306 0.08036529 0.17456292
-0.2448144 -0.07775454 -0.1879155 -0.006950241 0.024372429 -1.3212243 -0.65001863 -0.3250287
0.19209671 0.060774334 0.038687583 -0.9524891 0.061117653 -0.20450129 -0.077569485 -0.24983093
-0.58311903 0.07695694 -0.044298295 -0.4678733 0.0065512327 -0.1350303 -0.01247346 -0.46081823
-0.8805766 -1.0446712 -0.0008620804 0.0019532614 -0.0030137002 -0.19433376 -0.027577937 -0.109002635
-0.6955669 -0.15907642 -0.0693737 0.13751741 0.016302671 0.2833753 -0.47822675 -0.44701695
0.11598998 1.1160488 -0.69751215 -0.03256281 -0.8816817 -0.009953715 -0.72909385 -0.51022404
0.122384876 -0.02210729 -0.6759438 0.19709136 -0.7766142 -0.1607433 -0.19859046 -0.6831162
0.07294182 -0.6945535 -0.8030257 -0.08569535 -0.73038244 0.37502804 -0.49943742 0.13942632
-0.07539086 -1.2022964 -0.5608489 -0.9137552 -0.12166345 -0.08376435 -0.40765658 -0.8438352
-0.040323906 0.055573978 -0.08160044 -0.41896915 -1.2216341 -0.34888202 -0.056675766 -0.6471496

network.3.bias f4 [20]
00000000: 997f 963e 4870 053e 004b e33d 3eb6 823d
00000010: 6786 a43e 8f28 66be d432 b2be d13d 593e
00000020: 7d84 88be 9e69 7e3e 4bc3 933e 6398 b53d
00000030: fcd1 983e 4de5 fe3d 9056 8abe 1922 c93e
00000040: f130 883e 555e 9abe cb08 413e e8c2 1bbe
0.29394224 0.13031113 0.110982895 0.06382416 0.3213379 -0.2247641 -0.34804404 0.21214987
-0.2666358 0.24844977 0.28859934 0.08866956 0.29847705 0.124460794 -0.27019167 0.39283827
0.2659984 -0.30150095 0.1885101 -0.1521107

network.6.weight f4 [20, 20]
00000000: 08cd b4bd 59ae ebbc 5fd1 623d adc4 5dbe
00000010: 38ad 3ebe 104a 153e 2b94 d53d 5e37 933b
00000020: 31f8 133d 18c5 3dbe bb4b d7bc 9a01 ab3d
00000030: 3a4d 123e 102a a3bc 0739 8c3c e45d 19be
00000040: a7ea a03d 98ae b1bd ae0b 9e3d 8bde e9bd
00000050: 67c5 27be e4bf 293d 1d13 e63e 5dc1 723e
00000060: 7285 873e d24a 44be 2cf9 913f 180b 083f
00000070: d8a0 a33d f494 4ebe ce5f ad3e e6f8 373f
00000080: edad 7dbe 5809 793e ffde ecbd 17d4 85bd
00000090: bb71 013d a468 b63e da47 c9be 7307 aebd
000000a0: 210a 39be eb7a 6a3b 9485 163e 64bb 8d3d
000000b0: 64e3 2abe 7fa6 f1bd 0bc4 a0bd 79f9 27be
000000c0: 9820 af3d 7d5f a93d e3fb f73b de00 3abe
000000d0: 83cc 96bd ca1f c6bd 4512 c03d b791 00be
000000e0: 64b6 86be bed5 fb3c aa53 903d d068 3d3e
000000f0: d8eb 9ebe 99f3 3cbd 3c90 143e 0697 d83e
00000100: 6249 bb3e 4bc9 f83d 0762 4e3f c73d 293f
00000110: d700 23bd 4150 12bf e079 733e a1b6 3b3f
00000120: 8a98 ffbe be8b b13d e869 92bd 9677 063e
00000130: 69c2 183e 1661 b73e 55bd e0be b374 30be
00000140: 4bb3 90bd 9061 14bf 711b 06be efe3 8b3d
00000150: 42f3 a23d 102b 45be 4222 32bf a2af 0a3e
00000160: e717 883d 7f60 363e 15a0 83be 2020 99be
00000170: 0b05 043f ac45 e4be 76c0 d93d 4a63 363e
00000180: 9826 e4be eee1 17bf 6ceb 923e c98f 9e3d
00000190: 7e56 883e 6676 e1be 5209 99bd 94aa 443d
000001a0: eb7d 943e 69fd 6e3e 7404 09bf fa9e 103e
000001b0: 7a4e 8abd fac2 473e f175 febd 79a2 3fbe
000001c0: 3b08 f13e c93d 2cbf b566 ecbd d885 f03d
000001d0: 1fd3 91be 0a07 3abf 047d 873e 5847 8f3c
000001e0: 0f1c 34bf bf11 883e d9cb bbbc eb09 3dbe
000001f0: 261d f3be 6568 fabd 10d1 29bf b615 d4be
00000200: 74b5 4fbd ae7c 86be 8793 3bbf c404 8d3d
00000210: 1c11 30bf 1c03 273e c083 993b 1f7a 21bf
00000220: cded 01bf c6a0 20bf d6d0 48be 1705 703b
00000230: 144e 583e 345e 00bf 50e6 0abe 3e8a 303d
00000240: 45b5 5f3e 5923 ed3b 5c65 50bf c4ac 4d3e
00000250: 9667 4c3d da0e e83d 8b84 aebd dbb3 2abe
00000260: 7dea dc3e 0595 00bf 3710 3a3e 340e 623e
00000270: a9a2 7cbe 1702 3abf d368 223e 7ffb a73d
00000280: 3f4a 02bf ab85 473d e254 eb3e 73e3 ad3e
00000290: 4896 a83e f143 f3bb 7ab7 913f 9d76 c23e
000002a0: d3f1 883e 0940 4dbf dfd1 8a3e e0b7 373f
000002b0: 60cd 34bf d1dd da3d 5f8c 573e aa86 2d3e
000002c0: 70de a23e b98c 463e 0404 83bf d911 7f3e
000002d0: d445 0abe e68c 2bbe 50df 0c3c dfaf 23be
000002e0: 9015 883d 3898 183e 546c 58be 5a3a 07be
000002f0: ae84 d4bd d41e a9bd 001f 3dbe 5251 033e
00000300: e067 d3bd 7836 21be 7c14 63be 304e b43c
00000310: 4c53 c1bd b8c2 0d3e b06d 4cbe afe1 34be
00000320: 4df3 003e e9df 21bf 0765 88be bbfd f6bd
00000330: 6a9d 23bc f2cc eb3d a124 1bbf 49c0 d2bd
00000340: 31cf 573e 8dc9 7d3e 41e2 a0be 2224 1bbe
00000350: d213 093f 669c 583e 92c7 ce3d c04f 193d
00000360: 9def 1fbf b452 94be 8552 bf3e 5367 383d
00000370: fe4d 9abe 0b63 e63e c435 f2bc c1c5 b4bd
00000380: 5a03 e3be 46cb 8cbd 9cd5 6abf c0f3 55be
00000390: b568 733d 88d9 27be 84d2 f9be 40ae e93d
000003a0: 0b11 c5be 53bd 303d 4ad2 2fbd 6ca7 fbbe
000003b0: 5d4d 26be 3b41 4cbf 2a0b c63c d640 4e3e
000003c0: cd25 ad3d 1eb9 febe 6a3c 7abe a310 c3bc
000003d0: 502e b93e a541 b9bd 334c 1dbf b666 c0bd
000003e0: 947f f83c 747b 873e 28c8 11be 9a74 05bf
000003f0: 7c2c 013f eb78 18bf df4f 88bd 1f3f 553d
-0.08828169 -0.028769659 0.055375453 -0.21657057 -0.18620765 0.14579034 0.104286514 0.0044926843
0.036125366 -0.18532217 -0.026281228 0.08349915 0.14287272 -0.019917518 0.017117037 -0.14977223
0.078572564 -0.08675879 0.077170715 -0.114194 -0.16383897 0.041442767 0.44936457 0.23706575
0.26468998 -0.19169167 1.1404166 0.5314193 0.07989663 -0.20174009 0.33862156 0.71864164
-0.24773379 0.2431997 -0.11565971 -0.065345936 0.031602602 0.3562671 -0.3931263 -0.084975146
-0.1807027 0.0035778831 0.14699394 0.069205076 -0.16688305 -0.11799335 -0.07849892 -0.1640376
0.08551139 0.08270166 0.007567869 -0.18164393 -0.07363226 -0.09674032 0.09378485 -0.12555586
-0.26311028 0.030741569 0.07047208 0.18497014 -0.3103931 -0.04613075 0.14508146 0.42302722
0.36579424 0.121477686 0.8061833 0.6610989 -0.039795723 -0.5715371 0.2377696 0.73325545
-0.49921066 0.08669232 -0.07149106 0.13131556 0.14917912 0.35816258 -0.4389445 -0.17232017
-0.070654474 -0.5796137 -0.13096406 0.06830584 0.07956554 -0.19254708 -0.69583523 0.13543561
0.06645184 0.17810248 -0.2570807 -0.29907322 0.51570195 -0.44584405 0.10632412 0.17811313
-0.44560695 -0.59329116 0.28695238 0.077422686 0.26628488 -0.44035643 -0.07472481 0.04801424
0.29002318 0.23338856 -0.5352242 0.14123145 -0.067532495 0.19507971 -0.12424839 -0.18714322
0.47076592 -0.67281777 -0.11543027 0.11744279 -0.28481385 -0.7266699 0.26462567 0.017490074
-0.70355314 0.2657604 -0.02292435 -0.18460815 -0.47483176 -0.12226943 -0.6633463 -0.41422814
-0.050710157 -0.26266998 -0.73271984 0.068856746 -0.68776107 0.1630978 0.0046848953 -0.63076967
-0.5075348 -0.6274532 -0.19610915 0.0036624128 0.21123534 -0.5014374 -0.1356442 0.043100588
0.21846493 0.00723688 -0.8140466 0.20085436 0.049903475 0.11330958 -0.08521374 -0.16670172
0.4314765 -0.50227386 0.18170248 0.2207573 -0.24671425 -0.7265944 0.158603 0.08202266
-0.5089454 0.04871146 0.45963198 0.33962592 0.32927155 -0.0074238707 1.1384118 0.3798112
0.26746997 -0.80175835 0.27113244 0.71764946 -0.7062588 0.10686839 0.21049641 0.16945902
0.3181033 0.19389619 -1.02356 0.24909152 -0.135032 -0.16752967 0.008598164 -0.15985058
0.06644738 0.14901817 -0.21135074 -0.13205853 -0.10376869 -0.08257833 -0.18468857 0.1282399
-0.10322547 -0.15743434 -0.22175783 0.022009939 -0.09439716 0.1384381 -0.19963717 -0.17664216
0.12592812 -0.63232285 -0.26639578 -0.12060114 -0.009986261 0.115136996 -0.60602766 -0.10290582
0.21075131 0.24783917 -0.31422618 -0.15150502 0.5354587 0.21153411 0.10096659 0.03742957
-0.62474996 -0.28969347 0.37367645 0.045020413 -0.30137628 0.4499744 -0.029566653 -0.08826781
-0.44338495 -0.06874709 -0.9173219 -0.20893764 0.05942603 -0.16391575 -0.48793423 0.11410189
-0.38489565 0.043149304 -0.042925157 -0.4915117 -0.16240449 -0.79787034 0.024175245 0.2014192
0.084544756 -0.49750608 -0.24437109 -0.023811644 0.36168146 -0.09045724 -0.61444396 -0.093945906
0.030334271 0.26461375 -0.1423651 -0.52131045 0.504585 -0.59559506 -0.06655859 0.05206215

network.6.bias f4 [20]
00000000: 89a3 e2bd 2be0 703c 4da5 ebbd 48b0 cd3d
00000010: 5871 cc3d 57e8 a13d c212 2fbd 5f8e a63d
00000020: 5fb4 1f3d e62a 29be 9723 4b3e 98e3 ffbd
00000030: f02f 863d 039e 983d 0778 433e 75fa a33d
00000040: 8456 5ebe d49e 5f3e 90ba 1c3e 7961 273e
-0.11066348 0.014701883 -0.11506138 0.100433886 0.09982556 0.079056434 -0.0427425 0.08132624
0.038990375 -0.1652027 0.19837795 -0.12494582 0.06552112 0.07452013 0.19088756 0.08006755
-0.2171269 0.21837932 0.15305543 0.16345777

network.9.weight f4 [1, 20]
00000000: e978 eb3c f6f1 b4be 63b7 0a3e 967d 9cbe
00000010: 2799 b83e 8340 8c3e 2be2 233f c4a6 ac3e
00000020: 1bd0 9fbe 583e 953c 370a 753e 618b 483f
00000030: 7364 5f3e 5a89 ba3e 3107 92be c142 703e
00000040: ad9c 183e d76c bbbe 3142 9dbe a51e 9cbe
0.028744178 -0.35340852 0.13546519 -0.30564564 0.36054346 0.2739297 0.6401698 0.33720982
-0.3121346 0.018218204 0.23929678 0.78337675 0.21815662 0.36432916 -0.28521112 0.23462965
0.14903517 -0.36606476 -0.30714563 -0.3049213
