experiments/exp_sim_continuous_m1/saved_models/run_0/bootstrapped/m1_3.pt (torch, 6385 bytes, 7 tensors)

network.0.weight f4 [20, 2]
000000 14 65 83 be 51 6b 05 bf 5c c4 30 3f 86 1d 1d 3d
       -0.25663054 -0.52116877 0.6904962 0.038358234
000010 78 64 e8 3d 30 1c fc be 29 0a 73 3f 43 34 71 3d
       0.11347288 -0.49240255 0.9493738 0.05888773
000020 e6 2f 4b 3f ab da 61 bf f7 e6 7a 3f 1c c4 51 bd
       0.7936996 -0.88224286 0.98008674 -0.051212415
000030 76 94 c3 be 0c a7 ae be 6a 2b a1 3f b7 2d ba be
       -0.38199204 -0.34111822 1.2591374 -0.36363003
000040 03 d2 4e bf 35 ce 97 bf 85 c8 07 3f 4f e0 6f 3e
       -0.807892 -1.1859804 0.53040344 0.2342541
000050 20 6e 4b bf 8c 2f 9d be f6 d3 85 3e e0 fc 22 bf
       -0.7946491 -0.30700338 0.26138276 -0.63667107
000060 d2 2b f3 3e c0 a6 8e 3d 04 b7 ba be be 34 65 3f
       0.4749437 0.06965399 -0.36467755 0.89533603
000070 02 1f e3 be 99 a4 bb bd 55 50 d0 be 8e 09 3a 3f
       -0.44359595 -0.09162254 -0.40686288 0.7267083
000080 38 95 ab be 0c 6d bc be 2d ff a2 be ea a3 81 3f
       -0.33512282 -0.36801946 -0.3183531 1.0128148
000090 13 fe 2f be dc f8 cd be 4a a1 04 bf 4f 99 2d be
       -0.17186765 -0.40228927 -0.5180861 -0.16953014

network.0.bias f4 [20]
000000 a9 dc ad be e5 70 1e 3e 0e a4 08 bf 70 a2 51 3e
       -0.33957413 0.15472753 -0.5337533 0.20472121
000010 d1 fb 88 be 70 53 24 bf 9a 20 00 bf 5f e3 0f 3e
       -0.2675462 -0.64189816 -0.50049746 0.14051579
000020 f7 47 de 3e f3 f6 02 3e af 42 e1 be 07 88 02 bf
       0.4341428 0.12789516 -0.43996188 -0.5098881
000030 b2 17 0e bf 1d 1e 80 be cd 15 30 3e 6f b1 c1 be
       -0.55504906 -0.25022975 0.17195816 -0.37830684
000040 d4 26 34 bf 70 b6 38 be 01 d2 59 be 6c 77 7b be
       -0.70371747 -0.18038344 -0.21271516 -0.24557275

network.3.weight f4 [20, 20]
000000 a0 70 df 3c f0 83 3c 39 ba 12 08 be 75 97 42 3c
       0.027275383 0.00017978228 -0.13288394 0.0118769305
000010 09 2e 59 3f ce 04 08 3f 4c 54 44 bd 29 ca 46 3d
       0.8483587 0.5313233 -0.047931954 0.04853264
000020 10 24 92 3e 31 d4 b9 3c 92 c8 3d bf ee 61 1e 3e
       0.28543139 0.022684189 -0.7413417 0.15467045
000030 02 db 04 3e 64 0c b2 bf aa 92 a2 3e 84 59 41 bf
       0.1297417 -1.3910031 0.3175252 -0.75527215
000040 bc 81 42 3e 07 e2 23 bf a6 e8 e3 bd 6a 37 4c bf
       0.18994802 -0.64016765 -0.111283585 -0.79772055
000050 98 d9 21 be 8f 90 92 be 00 a3 8f 3d 2c 4a 5f be
       -0.15805662 -0.28625914 0.07013512 -0.21805638
000060 d3 0c 4d bf 73 7d fe be aa 13 0d be 68 f1 33 be
       -0.80097693 -0.49705085 -0.13777032 -0.17572558
000070 7d a0 0b 3d b2 e9 6c be ac 71 c2 be 98 74 8c 3d
       0.0340886 -0.23136023 -0.3797735 0.06858176
000080 a8 23 49 3d 35 36 89 be 81 e3 80 3d 55 9b 1c bf
       0.04910627 -0.2679917 0.06293393 -0.6117452
000090 56 15 10 be 34 46 ac be 4c 67 ff bd 96 28 9c be
       -0.14070639 -0.3364731 -0.12470874 -0.30499715
0000a0 09 1d d3 bd 2b 8e 0b bf 3e 34 58 be 11 64 d5 be
       -0.103082724 -0.54513806 -0.21113679 -0.41677907
0000b0 5d 56 34 3c 86 c9 c4 be 30 e2 ee 3d d5 46 4f bf
       0.011006919 -0.38435 0.116642356 -0.80967456
0000c0 6a 1e bc bd 60 90 91 be 2b f0 85 bf e0 aa 4f 3d
       -0.091854885 -0.28430462 -1.0463918 0.05070007
0000d0 ec f8 2c 3e 0f dc 86 3e 67 d1 12 3d 32 fe 95 3d
       0.16891831 0.26339766 0.035844233 0.073238745
0000e0 5c ef 11 3e bb c9 83 3d 38 a1 46 bd aa ec 83 bf
       0.14251465 0.064349614 -0.048493594 -1.0306599
0000f0 b0 9b 1b 3d 2d 50 a5 bd 53 a4 5b be cb 89 72 3d
       0.037990272 -0.08071933 -0.21449403 0.05921344
000100 6b 0c 02 bf 70 be 36 bf 00 fb 34 3e 1a 9d 9c bd
       -0.508002 -0.71384335 0.17673874 -0.07647152
000110 04 5f b2 be 44 cd 02 3d 5d f8 6f bf 04 b3 2d 3e
       -0.34838116 0.031934038 -0.9373835 0.1696282
000120 42 1c 04 3e 2c 3a 8c be 87 e0 11 bf 8c 61 07 bf
       0.12901405 -0.27388132 -0.56983227 -0.5288322
000130 20 f1 07 3d 62 29 05 be 18 5a 45 3e e4 d4 a8 bf
       0.03318894 -0.13004068 0.1927265 -1.3189969
000140 9d aa 38 be 10 d7 a3 bd 80 d3 d9 bb 3a f0 9f 3d
       -0.18033834 -0.08000004 -0.006647527 0.078094915
000150 83 fc 50 bf 4d d0 63 bf d6 1b fb bd 62 12 8d bb
       -0.816353 -0.88989717 -0.12261169 -0.00430517
000160 98 75 e0 be cb 89 eb 3d 27 f2 26 bf 34 72 de 3d
       -0.43839717 0.11500891 -0.65213245 0.10861626
000170 00 ea 26 bb cd 6a a0 be 59 ee 6c bf 66 d0 47 bf
       -0.0025469065 -0.31331483 -0.9255119 -0.78052366
000180 a0 a8 c1 3d 47 cc 48 be 5c 83 4a be da 49 44 bf
       0.09455991 -0.19609176 -0.19776672 -0.7667519
000190 a6 24 05 be 82 53 cf be 01 69 46 be fe e3 cd be
       -0.13002262 -0.404934 -0.19375993 -0.40213007
0001a0 57 a0 5e be 76 52 67 be 00 3d 2a 3e 2e 31 3a bf
       -0.21740852 -0.2259005 0.16624832 -0.7273129
0001b0 54 fc 52 bd f9 40 10 be b2 19 66 bf fe 9b 29 3e
       -0.05151017 -0.14087285 -0.8988296 0.16563413
0001c0 5f 36 02 be 50 d5 2e bc 0d 4a 6f bd d5 6c 8c 3e
       -0.12716053 -0.010670975 -0.05842023 0.27426782
0001d0 3c 2a 79 bd bc 10 a0 3d 3d b4 bd 3d 7b 5d 3c bf
       -0.060831293 0.07815692 0.09262893 -0.7358014
0001e0 5e 34 24 3e 03 fd 8c be 7b 1a 54 be 5d 06 53 be
       0.16035601 -0.27536783 -0.20713226 -0.20607896
0001f0 22 ba 45 be b9 c3 db be 8a 59 02 3e 52 e2 eb be
       -0.19309285 -0.42922762 0.12729469 -0.46071106
000200 85 74 41 3d 53 86 6d bd 62 14 84 bf f2 a0 33 be
       0.047230262 -0.05798943 -1.031872 -0.17541865
000210 9c ea 14 3e cd a5 c7 3e 15 03 81 bd 68 04 b1 3d
       0.14542621 0.38993683 -0.06299416 0.086434186
000220 54 b2 1f 3e b6 a0 57 be 6d 15 a1 bd b6 84 83 bf
       0.1559537 -0.210574 -0.07865415 -1.0274875
000230 c8 1e c1 bd f0 87 99 be 4a d2 37 3e e6 68 8e be
       -0.09429699 -0.29986525 0.17951313 -0.27814406
000240 33 04 25 bf df 0a 58 bf 69 69 f8 bd 41 3d 6b bf
       -0.6445953 -0.8439159 -0.121294804 -0.9189034
000250 a2 a6 2c bd 0b 29 80 bd 32 09 52 bf c8 08 88 3d
       -0.0421511 -0.06257828 -0.8204528 0.066423
000260 b8 eb ee 3d 76 ba 97 3e ed b1 96 bd 40 8f c8 bd
       0.116660535 0.29634446 -0.073581554 -0.09792948
000270 78 20 19 3e 56 53 00 3e 84 6a 80 bd d3 a3 56 bf
       0.14953792 0.1253179 -0.06270316 -0.83843726
000280 70 14 0e be 4d 38 dc bc 88 cb 00 3d 7d 0a 18 be
       -0.13874984 -0.026882315 0.031444103 -0.14847751
000290 c4 6c 34 bf 40 d5 34 bf ac fa da 3d f8 ce 8a 3d
       -0.70478463 -0.70637894 0.10692343 0.067777574
0002a0 a7 6d 2c 3d 23 51 5e be 6a 33 9a be 8c 84 0e bd
       0.04209676 -0.21710639 -0.3011735 -0.034794375
0002b0 f4 66 96 bd 99 01 b4 3d d9 56 3d bd 85 08 5c bf
       -0.073438555 0.08789367 -0.046225403 -0.859505
0002c0 2a d1 9d bd 11 5f 90 bd 68 eb 47 bd 50 67 20 bf
       -0.077059105 -0.070493825 -0.048808485 -0.6265764
0002d0 c0 2b 47 3e 47 87 a7 3d 9c e5 ea 3d 62 aa 82 3d
       0.19450283 0.08180099 0.11469576 0.06380154
0002e0 92 5f ff bd 4b f8 94 bd c6 e0 43 3e f4 68 13 ba
       -0.124694005 -0.072739206 0.19128713 -0.0005623244
0002f0 db 5a 35 bf 9a db da 3d 35 80 e2 3d 04 6a 72 bd
       -0.7084176 0.10686417 0.1105961 -0.059183136
000300 e8 d8 44 3d 65 b5 c2 3d 86 7a 38 be c3 52 31 3e
       0.04805842 0.095072545 -0.18015489 0.17316727
000310 58 9b 32 3e c5 29 0e 3f 40 6b 16 3b 82 70 dc 3e
       0.17442071 0.55532485 0.002295211 0.43054587
000320 20 ef 9e 3d 99 9c fb 3e 84 a6 38 3e 80 18 9d bf
       0.07760453 0.49142912 0.1803227 -1.2273102
000330 ed b8 b6 bd 6e 9b 68 be a6 36 5b 3e 16 36 24 be
       -0.089219905 -0.22715542 0.21407565 -0.16036257
000340 89 f6 6b be 6f ca ca 3e 51 d6 c1 be a0 44 14 be
       -0.23043264 0.3960757 -0.37858823 -0.14479303
000350 a0 99 c2 3d 24 99 fc bd 20 00 ae be 15 c9 95 be
       0.09501958 -0.12333897 -0.3398447 -0.29254976
000360 32 87 0d be 91 29 3b bd 30 0d 40 3d 00 ff aa bf
       -0.13821104 -0.045693938 0.046887577 -1.335907
000370 ba 5e 27 3e cf 84 c1 3d 2f b2 48 be 56 df 67 3d
       0.16344729 0.09449159 -0.19599222 0.056609474
000380 64 ec 1a bf 44 e8 84 bf eb e3 5a be 9f 23 9b bb
       -0.60516953 -1.0383382 -0.21376006 -0.004734471
000390 04 e5 14 bf 86 a1 16 bd 40 3a 98 be 68 f3 54 3e
       -0.5816195 -0.036775135 -0.2973194 0.20795977
0003a0 1c 4e f4 bd e3 d4 90 bd 83 56 cb be 1f 85 21 be
       -0.11928961 -0.07071855 -0.3971444 -0.15773438
0003b0 98 d6 8e 3d 30 9c bd bc a8 53 bb bc 6b ac 63 bf
       0.06974524 -0.023145765 -0.022867039 -0.88934964
0003c0 08 31 b2 3d 4a ae 14 be 5c 33 57 3e e2 1c d5 bd
       0.08700758 -0.14519611 0.21015686 -0.104058996
0003d0 f5 cd 16 bf 68 a4 91 be ac ad 39 3e 38 d7 6b be
       -0.58908015 -0.28445745 0.18132657 -0.23031318
0003e0 a4 c7 80 be 85 72 71 bd e8 a8 6d bf f0 ff 15 be
       -0.25152314 -0.058947105 -0.92835855 -0.14648414
0003f0 30 50 d3 bd 67 ea 4c 3e bd 5b ef 3d d9 e2 b5 3e
       -0.10318029 0.20011292 0.116874196 0.35524634

network.3.bias f4 [20]
000000 17 c3 6a bd 3b 09 9b 3e 11 08 85 3d 7b 18 87 3e
       -0.05731496 0.3028048 0.06495679 0.26385865
000010 1f 0d 46 3e ab a8 58 3e 27 29 12 3e 51 a4 e8 3d
       0.19340943 0.21158092 0.14273511 0.11359466
000020 4a f2 a6 3e fd f9 05 bf 44 a5 d5 3d 65 b2 40 3e
       0.32606727 -0.52334577 0.104319125 0.18818052
000030 a9 f5 cf 3d 9b fa 99 be 93 46 82 3e d3 95 fa bc
       0.10154278 -0.3007401 0.2544447 -0.03058902
000040 6b 52 dd 3d 64 b1 91 3e 89 59 2e be 4d aa 4c bc
       0.108067356 0.2845565 -0.17026342 -0.012491775

network.6.weight f4 [20, 20]
000000 fa e0 de be 48 d5 9c bf 8b 57 4b bf 1f 34 1b 3e
       -0.43531018 -1.2252588 -0.79430455 0.15156601
000010 c1 2c db 3d da 49 51 bf be 04 01 bf 19 68 69 bf
       0.107018955 -0.81753314 -0.5039786 -0.91174465
000020 ac 7f c1 bd e6 58 73 bf d3 72 64 3d cd f3 89 3d
       -0.094481796 -0.95057523 0.055773567 0.067359544
000030 30 ac 0e bf 2a 18 f4 be bc b5 64 bf 2b eb 23 3e
       -0.5573149 -0.47674686 -0.89339805 0.16007678
000040 97 47 8e 3e 66 ac 7a bf e6 1e 01 bf c1 b4 95 bd
       0.27788994 -0.9791931 -0.5043777 -0.07309867
000050 a5 89 0c bf 7a 92 26 bf a7 2b 87 bf 3b 9d a2 3e
       -0.5489753 -0.65067255 -1.0560197 0.31760582
000060 cc fb cc 3e 1f 4b 12 bf dc 59 47 bf 4b 2f 44 bf
       0.40035856 -0.57145876 -0.7787149 -0.76634663
000070 b6 ea 98 3e 91 3f 51 bf 84 63 fc bd ce 04 c8 3e
       0.2986657 -0.8173762 -0.123236686 0.39066166
000080 d5 56 fc be 80 f2 e1 be 24 f3 93 bf e9 d5 9d bb
       -0.49284998 -0.44130325 -1.1558576 -0.00481676
000090 64 3c 35 3e ba 89 15 bf 58 96 35 bf fb d6 06 3e
       0.17698818 -0.5841328 -0.7093253 0.13167946
0000a0 39 fa 8c 3e 3c 44 99 3e 47 39 3c 3e 42 05 86 be
       0.27534655 0.2993487 0.18381225 -0.26175886
0000b0 4c cf 6e be ae 58 e7 3d 64 d3 9b 3e 57 03 23 3e
       -0.23321265 0.11296211 0.30434716 0.15919243
0000c0 2c 59 bb 3e 48 e2 61 3f 3c 6f 05 bf 1c 9d 5b be
       0.3659147 0.882359 -0.52122855 -0.21446651
0000d0 80 86 a8 bd 44 7a ee 3e 8e eb 30 3f a8 34 e5 be
       -0.08228779 0.46577656 0.6910943 -0.44766736
0000e0 f6 8d 08 bf d5 8b 8f 3e 50 d1 13 3f b9 3c 05 bf
       -0.53341615 0.2803637 0.5774126 -0.5204578
0000f0 91 d3 50 3e c4 ec 11 be a5 a4 c3 3d ca de 9b be
       0.20393206 -0.14250475 0.09552888 -0.30443412
000100 49 44 2b 3e 57 eb e4 be 21 8a ed be 14 e5 ce bc
       0.16725267 -0.447108 -0.46394446 -0.025255717
000110 06 07 07 bf 27 29 b3 be 13 04 38 3f 85 20 87 3e
       -0.5274509 -0.34992334 0.71881217 0.26391998
000120 1e ec 1a bf 22 64 67 3e b0 bd 95 bd a5 ec 86 3e
       -0.60516536 0.22596791 -0.07311571 0.2635242
000130 fb bb 8e 3e 9b ff 94 be d0 2d 2f 3d bf 52 cb 3e
       0.27877793 -0.29101261 0.0427683 0.39711568
000140 b4 4e 4e 3e d6 ee a5 3e 82 a0 d3 3e bf ea a5 be
       0.2014721 0.3240878 0.41333395 -0.3240566
000150 dd 13 44 bd 50 e8 48 be b5 62 8e 3e a5 f9 a3 3e
       -0.047870506 -0.1961987 0.27809682 0.320264
000160 75 2e 30 be eb 87 8b 3f ef cf 81 3e ad 82 88 3b
       -0.17205222 1.0900854 0.25353953 0.0041659684
000170 66 bc a1 bc 5d b2 cd 3e f5 a3 96 3f 69 e4 23 3d
       -0.019743156 0.40175143 1.1768786 0.04001275
000180 31 2d 6d 3c d4 9a 2e 3f 50 26 01 3f 00 18 40 3d
       0.0144761065 0.68205 0.50449085 0.04689789
000190 ed bd 29 bf 27 79 01 bf f9 87 40 bf 77 98 93 3d
       -0.6630543 -0.5057549 -0.7520748 0.07206815
0001a0 08 98 f5 3e fe b3 a5 be 65 d9 2b bf d3 fc 0c bf
       0.47967553 -0.32363886 -0.6712859 -0.5507328
0001b0 57 bf 8e 3e c2 11 7d bf 92 5e 64 3e 6a f2 86 3d
       0.27880356 -0.9885522 0.223017 0.065892056
0001c0 06 1e 59 be 49 ed 51 bf d7 46 89 bf b7 9a 9e bb
       -0.2120286 -0.82002693 -1.0724744 -0.004840221
0001d0 34 9f 85 3d d8 1d 8c be 07 eb 84 bf a6 5d 14 3e
       0.06524506 -0.2736652 -1.0384225 0.14488849
0001e0 86 65 05 be 2d cc 4c be 5f 43 07 be 37 29 10 be
       -0.1302701 -0.19999762 -0.13209294 -0.14078222
0001f0 d5 f2 3f be 2f 21 ef be 06 58 fe be 5d 51 f1 be
       -0.18744977 -0.46705005 -0.49676532 -0.47132388
000200 c5 41 81 3d e0 81 b3 bc 00 20 8d be 21 7b 80 be
       0.06311373 -0.021912515 -0.27563477 -0.2509394
000210 12 ff 13 be a1 20 01 3e 88 12 3e bd 93 57 09 bf
       -0.1445277 0.12610103 -0.04640439 -0.5364925
000220 37 78 82 be 0d 8a 94 be 91 98 7e 3e 40 52 6a 3d
       -0.25482342 -0.29011574 0.24862887 0.057207346
000230 95 97 30 bd 0c 65 62 3e fd a5 36 3e e3 94 73 be
       -0.04311331 0.22108859 0.17836757 -0.23787265
000240 de e5 55 be 83 2e 0e be 26 a1 98 bd 4b 01 68 be
       -0.20888469 -0.1388493 -0.074526116 -0.22656743
000250 27 d9 47 be 36 bc 99 bd d2 61 0c 3e 6f 47 99 3d
       -0.19516431 -0.075066015 0.1370919 0.07484328
000260 c5 3b 0b 3c 3a f1 49 3c 4d 01 0b be ee c1 d0 3d
       0.008498137 0.012325579 -0.13574715 0.10193239
000270 8b b3 db 3b 68 ce a9 bc 5b fc 11 bd c1 42 dc 3d
       0.006704753 -0.020728305 -0.035641056 0.1075492
000280 21 da 03 3e 18 fb a5 3e 27 6c cb 3d 36 27 71 be
       0.12876178 0.32418132 0.09932738 -0.23550114
000290 f4 2a 47 be 0a 96 8d 3e 3b d1 5d 3e 42 c2 8d bd
       -0.19449979 0.27653533 0.21661846 -0.06921817
0002a0 04 5d 88 3e b2 a1 06 3f f7 20 e4 bd ee 8b 27 bf
       0.26633465 0.5259048 -0.111391 -0.6544789
0002b0 bc 30 61 3e 96 ae 1e 3f 9b 99 6b 3f 31 e4 03 bf
       0.21991247 0.61985147 0.9203126 -0.5152007
0002c0 27 26 33 bf e7 fb c0 3e 83 bd f8 3e f9 c6 ad be
       -0.6998009 0.37692186 0.48582086 -0.33940867
0002d0 f5 ff 65 3e a9 d6 b0 3e c8 43 65 3e 77 db 96 3d
       0.22460921 0.34538773 0.22389138 0.07366078
0002e0 c0 e8 c0 bc b7 ab ed 3c ab 2f 3a 3d eb 29 87 3e
       -0.023548484 0.029012544 0.045455616 0.26399168
0002f0 39 4a 82 3d 8f 7d 42 3f d8 40 5c bf 86 99 c8 bc
       0.06361813 0.7597284 -0.86036444 -0.024487268
000300 b3 43 f2 bd 83 70 93 3e d7 dd 6d 3f db a2 bf be
       -0.11829319 0.28796777 0.92916626 -0.37428936
000310 e4 a1 c7 be 7f f2 90 3e 30 24 9d 3e b8 52 2f bf
       -0.389907 0.2831001 0.3069167 -0.68485594
000320 7b 08 2b bf 4f 14 19 bf 74 0d 5c bf 79 a0 53 3e
       -0.66809815 -0.59796613 -0.8595803 0.20666684
000330 c1 4d bf 3e 9b a0 86 be 80 16 ef be b2 bd 13 bf
       0.3736401 -0.26294407 -0.46696854 -0.5771133
000340 99 03 84 3e f3 a2 76 bf 6c 18 f7 3d 8a 29 7c 3e
       0.25783995 -0.9634239 0.12065205 0.24625221
000350 0f d8 57 be 14 09 5d bf a3 68 87 bf 5f 0c 87 3d
       -0.21078514 -0.8634198 -1.0578808 0.065941565
000360 df 70 fc bc da 36 81 be 47 e0 71 bf 19 2d f5 3c
       -0.03081554 -0.2523716 -0.94482845 0.02992873
000370 a3 0a af 3d 0a dd 4c be 3e a0 27 bd f5 f3 3b bd
       0.08546951 -0.20006195 -0.040924303 -0.045886952
000380 26 a3 c8 bd 82 d7 9f 3d 3f b0 4d be e3 1d 23 bc
       -0.09796743 0.07804777 -0.20086764 -0.009955856
000390 95 c8 38 3e 05 60 b0 3d 7a 73 1e 3e e4 3a ad bd
       0.18045266 0.08612064 0.15473738 -0.08458498
0003a0 43 b3 b8 bd 4c e2 55 be 9f 9d 9f bb 42 1e 42 be
       -0.090185665 -0.20887107 -0.004871085 -0.18956855
0003b0 bd 83 1e 3d 5b 03 4c be 83 61 a7 3d ec 22 1f be
       0.038699854 -0.19923155 0.08172896 -0.15540665
0003c0 25 47 2f bf 6c 97 fa be 4f 87 48 bf 9d 39 ad 3e
       -0.6846793 -0.4894365 -0.78331465 0.33833018
0003d0 7a 97 c8 3e a2 79 a7 be 91 31 39 bf ee b5 01 bf
       0.39178067 -0.32709986 -0.7234126 -0.5066823
0003e0 31 28 90 3e d3 5c 7b bf 3f b8 13 3e 0a ac ee 3d
       0.28155664 -0.98188514 0.14425753 0.116539076
0003f0 fe 58 9e be 6f 23 60 bf ab 40 8e bf 34 ca a2 3d
       -0.3092727 -0.8755407 -1.1113485 0.079487234

network.6.bias f4 [20]
000000 ff 4c 03 3e 1d fd 16 3d a0 85 ff 3c a0 ac da be
       0.1282234 0.03686248 0.031191647 -0.42709827
000010 6a 52 8e 3c 20 42 4d 3e 8e 77 4f be 15 ed 80 be
       0.017373282 0.20044756 -0.2026045 -0.2518088
000020 53 8d 44 3d 89 e1 0e 3e 1e 26 76 3e e3 26 1c be
       0.04798634 0.13953222 0.24037978 -0.15249209
000030 44 1a 8d 3e 2c 0d 5b 3e a6 d8 0d 3d f3 0f 84 3e
       0.27559102 0.21391743 0.03463044 0.25793418
000040 3f f8 eb 3d 0a 8c 44 3d c0 48 eb 3d c4 19 59 be
       0.115219586 0.047985114 0.11488485 -0.21201235

network.9.weight f4 [1, 20]
000000 c4 ac d2 3e 29 07 8c 3e 84 fc c6 be bc ce 36 bf
       0.41147435 0.27349213 -0.3886453 -0.714092
000010 9a a7 98 be be f9 ae 3e e5 6d a3 3e 51 fd 5b bd
       -0.2981537 0.34174913 0.3191978 -0.05370838
000020 01 97 d9 be 85 74 97 be a6 30 9c 3e 84 b8 0d 3d
       -0.4249802 -0.29581085 0.30505866 0.034599796
000030 8b 75 8a 3e e0 cd 93 be 13 6f d0 be e4 f1 b4 3e
       0.27042803 -0.28868008 -0.40709743 0.35340798
000040 59 af 49 be 2e f7 91 be db 1e 76 be f7 ce a5 3d
       -0.19695796 -0.28508896 -0.24035208 0.08096116
