experiments/exp_sim_binary_m1/saved_models/run_0/bootstrapped/m1_1.pt (torch, 6385 bytes, 7 tensors)

network.0.weight f4 [20, 2]
-0.051716983 -0.4608886 0.53313315 0.25158605 1.2690431 0.5055924 -1.2951069 -0.6732189
0.6757777 0.56592166 0.4415392 -0.82351947 0.89913166 -0.63599104 -0.7204065 0.26649734
-0.6974271 0.27594462 0.45016718 -0.9331512 0.88146615 0.19761166 0.6995073 0.250718
0.72688913 0.70029426 -0.77507234 -0.09142256 -0.9182153 1.1186209 -0.10530996 -0.68587285
0.888263 0.44332892 0.09952891 -0.36550158 -0.58370596 -0.87088317 -0.7765946 -0.07721105
00000000: 30d5 53bd 97f9 ebbe 6a7b 083f e3cf 803e
00000010: 0170 a23f 816e 013f 10c6 a5bf 1358 2cbf
00000020: c4ff 2c3f 3ee0 103f 6d11 e23e 2cd2 52bf
00000030: 7e2d 663f 4fd0 22bf 8f6c 38bf 5772 883e
00000040: 958a 32bf 9d48 8d3e 507c e63e ffe2 6ebf
00000050: c4a7 613f b65a 4a3e e912 333f 1c5e 803e
00000060: 6815 3a3f 7c46 333f 246b 46bf c03b bbbd
00000070: 2810 6bbf f82e 8f3f c0ac d7bd 5d95 2fbf
00000080: 3465 633f 02fc e23e d0d5 cb3d 0623 bbbe
00000090: c16d 15bf 33f2 5ebf e7ce 46bf d420 9ebd

network.0.bias f4 [20]
-0.70064205 0.18730864 -0.030301502 -0.789868 -0.68714124 0.33090308 0.79950595 0.14630231
0.1272492 0.35674074 0.7170284 0.6813363 0.21414885 0.063999504 -0.4673173 -0.2684134
0.20866334 -0.28352135 0.05252425 0.10866946
00000000: 475d 33bf d6cd 3f3e db3a f8bc ca34 4abf
00000010: 7de8 2fbf 216c a93e 6cac 4c3f 46d0 153e
00000020: 9d4d 023e b9a6 b63e 2c8f 373f 0e6c 2e3f
00000030: d649 5b3e 2c12 833d 3744 efbe 7b6d 89be
00000040: d8ab 553e b629 91be ab23 573d 188e de3d

network.3.weight f4 [20, 20]
-0.17486626 -0.096937194 -0.17182533 -0.17150144 -0.09189482 0.35490423 -0.12656271 0.09490102
-0.20877804 -0.34423622 -0.32735476 -0.19324484 -0.20515737 -0.22182119 -0.18013808 0.10067314
-0.060398668 -0.022977233 0.24934219 -0.23840696 0.10564971 -0.08465625 -1.2338259 -0.76774657
0.21374533 0.3083293 0.34243283 -0.27145058 -0.17989811 0.26893818 0.00050847215 0.13952471
-0.15735997 -0.05754904 -1.3792592 0.040501 -0.087202415 -0.071905375 0.035808858 -0.17793849
-0.013405338 -0.45672718 -1.1278548 -2.1679528 -0.20009547 0.28822157 0.16401137 0.18691842
-0.047824737 -0.060265187 -0.08789802 -0.20383492 -0.24176553 0.17732227 0.16777717 -0.086152315
-1.3400152 -0.19654159 0.12979144 0.17664629 0.15524837 -0.019754222 0.19145443 -0.2057746
-0.12681414 0.225288 0.19747312 -0.3526675 -0.25450674 0.29737124 0.21583328 -0.2690377
-0.00071940944 -0.6609946 -0.21913837 -0.007731661 -0.19763604 0.04934621 -1.2318759 -0.5126122
0.023844391 -0.11721172 0.082282595 -0.57704544 0.436252 -0.22231358 0.047060482 -1.7425508
-1.9489558 -0.22161181 0.02867424 0.03911866 -0.14518689 -1.6111356 -1.6350329 -0.06852436
-0.09985305 -0.11785874 -1.706991 -1.4987085 0.1162782 -0.3585895 -0.42108807 -1.2447126
0.72064316 0.20256042 0.012390569 -0.37739116 -0.30375084 0.35687885 0.32542002 -0.15700038
-0.3695058 -0.11942915 -1.8424953 -0.11585834 -0.3511663 0.10886598 0.30301508 -0.08265329
-0.016903162 -0.7109282 -2.0980124 -1.6857126 -0.64041877 0.2472078 0.12791716 0.024816025
-0.03170001 0.010325808 -0.10708185 0.021551766 -2.2525766 -0.16786301 -2.3411293 -0.015237778
-2.0272992 -0.038256004 -0.07515084 -0.12472574 0.092895955 -0.81384885 0.101274505 0.8492093
-0.3549462 -0.98879594 -1.5350478 0.06169397 0.13198106 -0.454062 -2.0349932 -1.9117525
-1.6849768 0.28734446 -0.07295149 0.114349484 -0.08062886 0.0693292 0.18952787 0.023066752
0.073115736 0.20547834 0.13435145 -0.6124537 0.58842903 -1.167917 0.36525288 -0.34539536
-0.21288481 -1.0267797 -0.13317862 -0.32533196 0.20941053 -1.1680138 -0.36167818 0.057905823
0.37579182 -0.0008841604 -1.1978835 -0.6102178 0.11676097 0.21757436 0.24991009 0.6867023
0.31363064 0.0118995 0.4883685 -0.31407204 -0.35014802 -0.10570055 -0.010501754 0.2388454
0.01654686 -0.96070784 -0.10161746 -0.10852135 0.0533979 0.14223737 -0.7337911 -0.6270065
0.071665525 0.32005394 0.10031758 0.19899207 0.34869593 -0.46927303 -0.096680515 -1.2667277
-1.0135428 -0.39385408 0.31698218 0.20248373 -0.19439287 -1.277942 -0.3211998 -0.19480647
-0.22703385 -0.016988322 -1.5198854 -1.7020664 -0.03471923 -0.54776436 -1.1466962 -1.6199515
-0.65290385 0.17578468 0.39678204 0.08297991 0.07430543 0.19015177 -0.14267294 0.065148756
-0.45272747 0.17802143 0.3967337 0.020910978 -0.741529 -0.1942516 -0.10704048 0.11757368
-0.10102419 -0.24015655 -0.0906294 -0.09081787 -0.091490455 -0.16122904 -0.20887157 -0.052131634
-0.21142757 -0.12939002 -0.14262022 -0.23299551 -0.07631445 -0.025157727 0.01912934 -0.117868036
00000000: 2410 33be 0287 c6bd fbf2 2fbe 139e 2fbe
00000010: 5a33 bcbd 02b6 b53e a899 01be 775b c23d
00000020: e9c9 55be bb3f b0be 0b9b a7be fae1 45be
00000030: c614 52be 1825 63be 1e76 38be b82d ce3d
00000040: 9864 77bd c03a bcbc 8f53 7f3e f420 74be
00000050: e05e d83d 4260 adbd 02ee 9dbf 0a8b 44bf
00000060: 0ee0 5a3e 57dd 9d3e 5b53 af3e 92fb 8abe
00000070: 3637 38be 44b2 893e fd4a 053a 91df 0e3e
00000080: f922 21be 8bb8 6bbd 918b b0bf 60e4 253d
00000090: 2e97 b2bd 2043 93bd 4fac 123d 8235 36be
000000a0: 10a2 5bbc 25d8 e9be 8c5d 90bf bdbf 0ac0
000000b0: d4e5 4cbe c791 933e 99f2 273e 8b67 3f3e
000000c0: dfe3 43bd a1d8 76bd e103 b4bd 1aba 50be
000000d0: 6291 77be f893 353e c7cd 2b3e a070 b0bd
000000e0: 9e85 abbf 3342 49be 0ce8 043e c4e2 343e
000000f0: 6ef9 1e3e 9bd3 a1bc a10c 443e 94b6 52be
00000100: 91db 01be e6b1 663e 6536 4a3e d690 b4be
00000110: b54e 82be 0b41 983e 6603 5d3e 4fbf 89be
00000120: c096 3cba f136 29bf cf65 60be e059 fdbb
00000130: 1a61 4abe 401f 4a3d 1cae 9dbf 8e3a 03bf
00000140: 5055 c33c b30c f0bd c783 a83d 40b9 13bf
00000150: 6c5c df3e 2ca6 63be 7ec2 403d e80b dfbf
00000160: 6277 f9bf 35ee 62be 3de6 ea3c e33a 203d
00000170: dfab 14be b139 cebf c248 d1bf 8056 8cbd
00000180: c27f ccbd ec5f f1bd ae7e dabf aed5 bfbf
00000190: 4423 ee3d 0b99 b7be db98 d7be be52 9fbf
000001a0: 127c 383f 006c 4f3e d001 4b3c 6a39 c1be
000001b0: 3b85 9bbe d3b8 b63e 749d a63e b5c4 20be
000001c0: dd2f bdbe 4597 f4bd e3d6 ebbf 2347 edbd
000001d0: 12cc b3be 20f5 de3d cb24 9b3e 2146 a9bd
000001e0: 8078 8abc 64ff 35bf d645 06c0 6ec5 d7bf
000001f0: 7cf2 23bf 0b24 7d3e b7fc 023e fa4a cb3c
00000200: dfd7 01bd 942d 293c bb4d dbbd 548d b03c
00000210: 372a 10c0 48e4 2bbe 10d5 15c0 e0a7 79bc
00000220: 45bf 01c0 54b2 1cbd afe8 99bd 3570 ffbd
00000230: 3c40 be3d 6658 50bf 0269 cf3d c865 593f
00000240: 82bb b5be bb21 7dbf 727c c4bf d1b2 7c3d
00000250: 0b26 073e d17a e8be 543d 02c0 4eb4 f4bf
00000260: 52ad d7bf d01e 933e 9767 95bd 1030 ea3d
00000270: be20 a5bd 78fc 8d3d 9813 423e 7cf6 bc3c
00000280: b4bd 953d ea68 523e 6d93 093e c4c9 1cbf
00000290: 49a3 163f 4e7e 95bf 6d02 bb3e a9d7 b0be
000002a0: 7afe 59be 846d 83bf fa5f 08be e991 a6be
000002b0: b76f 563e 7a81 95bf e22d b9be a82e 6d3d
000002c0: c967 c03e 00c7 67ba 3f54 99bf 3c37 1cbf
000002d0: 6020 ef3d d0cb 5e3e 6ee8 7f3e b9cb 2f3f
000002e0: 3294 a03e 1ff6 423c 700b fa3e 0dce a0be
000002f0: 9a46 b3be 8879 d8bd 8c0f 2cbc e393 743e
00000300: 488d 873c f3f0 75bf d11c d0bd 7140 debd
00000310: c2b7 5a3d aca6 113e bcd9 3bbf 7f83 20bf
00000320: 60c5 923d 1cde a33e 4e73 cd3d 94c4 4b3e
00000330: 4688 b23e 8e44 f0be 6f00 c6bd 2224 a2bf
00000340: c5bb 81bf 3ea7 c9be 7d4b a23e e557 4f3e
00000350: ed0e 47be 9a93 a3bf 4d74 a4be 597b 47be
00000360: 907b 68be 182b 8bbc 9b8b c2bf 50dd d9bf
00000370: c035 0ebd 493a 0cbf f1c6 92bf 925a cfbf
00000380: b524 27bf e600 343e 0427 cb3e 5ff1 a93d
00000390: 722d 983d 25b7 423e db18 12be b66c 853d
000003a0: e5cb e7be 404b 363e ae20 cb3e 804d ab3c
000003b0: d8d4 3dbf e4e9 46be 0a38 dbbd 78ca f03d
000003c0: c5e5 cebd 99eb 75be e89b b9bd b8fe b9bd
000003d0: 595f bbbd 3a19 25be 6ee2 55be fb87 55bd
000003e0: 7880 58be d17e 04be 090b 12be 6096 6ebe
000003f0: c04a 9cbd 9417 cebc 22b5 9c3c cc64 f1bd

network.3.bias f4 [20]
-0.28329462 0.7109721 0.5233834 0.3161151 0.8811235 0.7482175 0.44676816 0.0051700706
0.1293742 0.24421114 0.3159411 0.5016088 -0.2944475 -0.027357005 0.45277706 -0.04853775
0.048607513 0.39800498 0.27987054 -0.003079556
00000000: fe0b 91be 4402 363f 74fc 053f d7d9 a13e
00000010: 4f91 613f 2f8b 3f3f ccbe e43e b269 a93b
00000020: ac7a 043e 7c12 7a3e 08c3 a13e 6f69 003f
00000030: d3c1 96be cc1b e0bc 65d2 e73e 85cf 46bd
00000040: ac18 473d 4fc7 cb3e 314b 8f3e 60d2 49bb

network.6.weight f4 [20, 20]
0.07498079 0.19292471 -0.55804604 0.007381968 0.0106102275 0.08843136 -0.036966562 -0.10837668
-0.06358376 0.031268276 -0.006504193 -0.19277202 -0.14225465 0.30089977 0.13232079 0.0007104152
-0.034434024 -0.40112683 -0.033979885 0.076758005 0.116441645 -0.76023394 0.32553068 -0.62020385
-0.21820289 -0.6264929 -0.030086862 -0.48805958 -0.052665867 -0.0015403214 -0.117955424 0.107027486
-0.15791431 0.99878436 -0.24460873 0.24256496 0.07899482 0.43440372 -0.1694607 -0.05521148
0.0046408786 0.43549868 -1.0804161 -0.06889266 0.21580718 0.39256027 -0.25326625 -0.6452733
0.16079411 0.17521438 -0.119281985 -0.4710596 -0.18141419 -0.37654915 -0.32761076 -0.043495722
0.1060938 -0.5391426 0.18453528 0.092718765 0.27054873 0.15753074 0.27164707 -0.17601776
-1.5631102 0.2954971 0.34499672 -0.6119379 -0.106145255 0.004180605 -1.2142185 0.072861135
0.061674085 -0.94456136 0.21132536 -0.5017494 -0.22613361 0.09883809 -0.609005 -0.74067605
0.23462883 0.32964316 0.080722995 -0.33921692 -1.0430032 0.07748265 0.6187241 -0.54822254
-0.7835349 -0.43311557 -0.15562838 0.06206401 0.023716278 -1.5561335 0.3880207 -0.28881782
-0.22413589 0.30824965 -1.1612622 -0.7733907 0.18066481 0.31521562 -0.559321 0.0782891
0.18966067 0.39126623 -0.2546775 -0.35183036 -0.08187044 -0.10250217 -0.19152522 -0.35639638
0.040989444 -0.32771498 -0.030272005 -0.043044753 0.2735058 -0.28989086 -0.048653223 0.48558778
0.13584471 0.09762131 0.1435449 -1.0833453 -0.704045 0.27333555 0.50891674 -1.2782328
-1.0531489 -1.105576 -0.71778005 0.104287766 0.049407482 -1.7502959 0.2653335 0.015130011
-0.9475157 0.33010092 -1.260357 0.3160948 -0.27497944 -0.34405413 0.23784581 0.14490728
0.018717267 -0.648053 0.21404116 0.31747067 0.40501115 0.18865964 0.3180389 -0.07976742
0.035191216 0.3184572 -0.4456013 -0.013155166 0.023176676 0.2740979 -1.1664172 0.5726651
0.016532693 0.25229657 -1.3628643 -0.0034650983 0.17706499 0.3175444 -0.7485968 0.7502298
0.04578523 0.050039068 0.19401163 -1.2127675 -0.07384341 -0.10676583 -0.23862126 0.010819194
-0.052177787 -0.839954 0.30201706 0.012712812 0.12813154 0.32271677 -1.2936072 0.068082914
0.2443365 0.27240998 -0.685727 0.39797983 0.03272792 0.020798422 0.10258142 -0.4782875
-0.3284527 0.2879554 -0.27167085 0.102820314 0.098556444 -0.5519894 0.16584656 0.22561719
0.060314417 0.113939 -0.12180089 0.104428455 -0.64663094 0.26126653 -0.33714178 0.029783396
-0.81771606 -0.60480124 0.45984253 -0.32842964 -0.14137954 -0.120163545 -0.38701826 0.5344577
-0.40410239 -0.14352334 0.39980564 0.021177875 0.1563768 0.51231825 -1.100914 0.072003864
0.1621587 0.45735765 -0.5147606 0.14365447 0.11697654 0.22482699 0.22991571 -0.53657943
0.06909089 0.55738634 0.05033944 0.14971644 -0.038678557 -0.39700562 0.16582169 0.1301622
0.07225388 0.49564627 -1.31955 -0.020859143 0.26519614 0.551073 -0.639029 0.4452321
0.28051782 -0.0012092236 0.119018205 -0.9300787 -0.26708278 0.17031635 -0.63943386 0.11701058
00000000: 878f 993d 0e8e 453e 1bdc 0ebf 70e4 f13b
00000010: 85d6 2d3c 801b b53d 406a 17bd 98f4 ddbd
00000020: 3438 82bd 2a13 003d 2021 d5bb 0766 45be
00000030: 34ab 11be 890f 9a3e 1a7f 073e 283b 3a3a
00000040: b10a 0dbd 7f60 cdbe 7e2e 0bbd 4d33 9d3d
00000050: f578 ee3d b19e 42bf f5ab a63e aec5 1ebf
00000060: 9470 5fbe d761 20bf b978 f6bc f2e2 f9be
00000070: 2ab8 57bd 9ce4 c9ba 9d92 f1bd 3a31 db3d
00000080: 4ab4 21be 55b0 7f3f b67a 7abe f362 783e
00000090: 09c8 a13d 2a6a de3e 1b87 2dbe 6f25 62bd
000000a0: 8312 983b aff9 de3e 134b 8abf 9817 8dbd
000000b0: 8ffc 5c3e a9fd c83e 1dac 81be a230 25bf
000000c0: 36a7 243e 666b 333e 1d4a f4bd b92e f1be
000000d0: a4c4 39be 0dcb c0be 99bc a7be 9228 32bd
000000e0: b547 d93d 4005 0abf d1f6 3c3e 56e3 bd3d
000000f0: 5d85 8a3e bd4f 213e 5315 8b3e 003e 34be
00000100: ff13 c8bf 654b 973e 69a3 b03e f6a7 1cbf
00000110: af62 d9bd 75fd 883b 836b 9bbf 3838 953d
00000120: f79d 7c3d c6ce 71bf ad65 583e a672 00bf
00000130: 928f 67be a06b ca3d c0e7 1bbf f29c 3dbf
00000140: 8a42 703e fdc6 a83e 1952 a53d d7ad adbe
00000150: 2181 85bf 39af 9e3d b464 1e3f 5058 0cbf
00000160: be95 48bf 53c1 ddbe 0c5d 1fbe d536 7e3d
00000170: a448 c23c 622f c7bf a6aa c63e eedf 93be
00000180: e183 65be e6d2 9d3e 3da4 94bf effc 45bf
00000190: 3200 393e f163 a13e a92f 0fbf 0956 a03d
000001a0: 6836 423e 0c54 c83e 1765 82be 1c23 b4be
000001b0: b0ab a7bd a8ec d1bd 301f 44be 9679 b6be
000001c0: 8ce4 273d 42ca a7be fffc f7bc b24f 30bd
000001d0: f408 8c3e 936c 94be 9a48 47bd f69e f83e
000001e0: e01a 0b3e aeed c73d 6ffd 123e 0fab 8abf
000001f0: 4b3c 34bf a3f2 8b3e 5e48 023f 229d a3bf
00000200: 95cd 86bf 8483 8dbf 6fc0 37bf d394 d53d
00000210: 805f 4a3d b209 e0bf cbd9 873e dee3 773c
00000220: 6490 72bf fd02 a93e 6153 a1bf 2dd7 a13e
00000230: 1bca 8cbe dd27 b0be da8d 733e 9362 143e
00000240: f454 993c cde6 25bf 9b2d 5b3e 848b a23e
00000250: 9f5d cf3e fe2f 413e ffd5 a23e 1a5d a3bd
00000260: aa24 103d d20c a33e db25 e4be c488 57bc
00000270: 03dd bd3c 8f56 8c3e 294d 95bf 2e9a 123f
00000280: 926f 873c 042d 813e 5672 aebf b416 63bb
00000290: 8650 353e 2e95 a23e 0aa4 3fbf 0f0f 403f
000002a0: 4b89 3b3d c4f5 4c3d fcaa 463e f73b 9bbf
000002b0: 373b 97bd 0ba8 dabd 2259 74be fd42 313c
000002c0: 60b8 55bd 3a07 57bf fba1 9a3e 6649 503c
000002d0: ea34 033e 223b a53e ec94 a5bf 0e6f 8b3d
000002e0: 5933 7a3e 5279 8b3e ce8b 2fbf 03c4 cb3e
000002f0: b60d 063d 7461 aa3c 3516 d23d 19e2 f4be
00000300: f42a a8be e46e 933e 7118 8bbe 7593 d23d
00000310: f6d7 c93d 2d4f 0dbf aed3 293e 3108 673e
00000320: 400c 773d da58 e93d bf72 f9bd 96de d53d
00000330: 9b89 25bf bac4 853e d99d acbe 4ffc f33c
00000340: d755 51bf 41d4 1abf 7b70 eb3e ee27 a8be
00000350: ccc5 10be 4e18 f6bd 4227 c6be 38d2 083f
00000360: 82e6 cebe c8f7 12be 53b3 cc3e 397d ad3c
00000370: 3d21 203e 4a27 033f c0ea 8cbf c376 933d
00000380: ee0c 263e c82a ea3e 5ac7 03bf 281a 133e
00000390: 6591 ef3d 0c39 663e 066f 6b3e 455d 09bf
000003a0: 867f 8d3d dfb0 0e3f bb30 4e3d 444f 193e
000003b0: 686d 1ebd 5244 cbbe 29cd 293e 3d49 053e
000003c0: d8f9 933d 59c5 fd3e 04e7 a8bf cbe0 aabc
000003d0: cac7 873e 1f13 0d3f 6897 23bf 76f5 e33e
000003e0: 08a0 8f3e d07e 9eba d1bf f33d a319 6ebf
000003f0: 13bf 88be 6967 2e3e f0b1 23bf 3ea3 ef3d

network.6.bias f4 [20]
-0.30501142 -0.709963 0.04563444 0.4009138 0.3675398 -0.026539147 0.25970098 -0.37663308
0.17656876 0.22618544 -0.27382302 0.11044002 0.11661924 0.35925367 -0.2682602 0.2972873
0.46641842 -0.22413634 0.25204325 -0.31603527
00000000: 752a 9cbe 23c0 35bf 2eeb 3a3d 9344 cd3e
00000010: 2d2e bc3e a068 d9bc 87f7 843e 0dd6 c0be
00000020: 71ce 343e 289d 673e 8832 8cbe 612e e23d
00000030: 11d6 ee3d 19f0 b73e 6759 89be 0a36 983e
00000040: 65ce ee3e ff83 65be d00b 813e 60cf a1be

network.9.weight f4 [1, 20]
-0.0026762453 0.29838294 0.112161726 -0.19282845 -0.21981263 0.040303145 -0.3527451 0.18786792
0.107439995 0.08806313 0.10820208 0.11444816 0.09841918 -0.20422469 -0.13448288 0.07881303
-0.19908082 0.084797494 0.08245568 -0.0034660525
00000000: f263 2fbb a6c5 983e 0cb5 e53d d274 45be
00000010: 9016 61be e914 253d 019b b4be 7360 403e
00000020: 8009 dc3d 715a b43d 0d99 dd3d cc63 ea3d
00000030: ff8f c93d 4720 51be e1b5 09be ba68 a13d
00000040: d8db 4bbe 4faa ad3d 86de a83d b626 63bb
