experiments/exp_sim_binary_m1/saved_models/run_0/bootstrapped/m1_4.pt (torch, 6385 bytes, 7 tensors)

network.0.weight f4 [20, 2]
0	0x3e7dfc58	0.24803293
1	0x3ea4eaee	0.32210487
2	0xbef30b73	-0.47469673
3	0xbed21efc	-0.41039264
4	0x40027af6	2.038755
5	0x3e07543e	0.1321573
6	0x3fc4085e	1.5315053
7	0x3e051362	0.12995675
8	0x3f9df08b	1.2339033
9	0x3eeddf14	0.46459258
10	0x3f37ac30	0.7174711
11	0x3f111065	0.5666564
12	0xbf656185	-0.8960193
13	0xbeef4d79	-0.46738794
14	0x3f48c944	0.78432107
15	0xbf624b82	-0.88396466
16	0xbe5a09ec	-0.21292847
17	0xbed0e096	-0.40796345
18	0xbf46ac86	-0.77607
19	0x3eebee04	0.4608003
20	0xbe8d0367	-0.27541658
21	0x3da91b58	0.082571685
22	0xbf4a0ed0	-0.7892885
23	0x3e54a9e2	0.2076793
24	0x3f25066c	0.64462924
25	0xbf45b378	-0.7722697
26	0xbf7c1702	-0.9847261
27	0xbf25b8dc	-0.647352
28	0x3e0d60dc	0.1380648
29	0xbf1b2711	-0.60606486
30	0xbe4e7d00	-0.20164871
31	0xbf2e131a	-0.67997897
32	0x3f5c5443	0.86066073
33	0x3f18b702	0.5965425
34	0x3ffc4fa1	1.9711801
35	0x3d88539c	0.06656572
36	0x3fed7274	1.8550553
37	0xbf83f6a2	-1.0309641
38	0x3f524680	0.82138824
39	0xbf6440e7	-0.89161533

network.0.bias f4 [20]
0	0xbf2846db	-0.65733117
1	0xbd739b27	-0.059474137
2	0xbcbeb76d	-0.023280824
3	0x3e932980	0.287426
4	0x3e9f19f3	0.31074485
5	0xbf38b1fb	-0.72146577
6	0xbf0c008c	-0.54688334
7	0x3f2c4da0	0.67305946
8	0xbeafb222	-0.34315592
9	0xbf5ecfc8	-0.870358
10	0xbef54e62	-0.47911364
11	0xbeea878f	-0.45806548
12	0x3f0f043a	0.55865824
13	0xbf139cd7	-0.57661194
14	0xbeaf330e	-0.3421864
15	0xbf1fffc2	-0.6249963
16	0xbf56ad8f	-0.8385858
17	0x3e138ea1	0.14409877
18	0xbf707144	-0.9392283
19	0x3f37f121	0.7185231

network.3.weight f4 [20, 20]
0	0x3d8173fa	0.06320949
1	0xbf53b85b	-0.8270318
2	0x3adbdaae	0.0016773546
3	0xbdb225a3	-0.08698585
4	0xbb8fb3a0	-0.0043854266
5	0x3edca303	0.43093118
6	0xbd5e6f12	-0.054305144
7	0x3e1e25b3	0.15444069
8	0xbd3aba54	-0.045587853
9	0xbd89e9c8	-0.06734043
10	0x3da0ae74	0.07845774
11	0xbf59eaca	-0.85123885
12	0x3e9a5e57	0.301501
13	0xbea447df	-0.32086083
14	0x3df4d9d4	0.1195561
15	0x3dcd131c	0.100134104
16	0x3eec5279	0.46156672
17	0x3d499b66	0.049220465
18	0xc01eb709	-2.4799216
19	0x3e9024fc	0.28153217
20	0x3d5c55db	0.053792816
21	0x3e3ce3dc	0.18446296
22	0xbe2a053b	-0.16603558
23	0xbd3a0c23	-0.04542173
24	0xbf874ff8	-1.057128
25	0x3f0eaa7e	0.557289
26	0x3f59bb2f	0.85051244
27	0xbf807bec	-1.0037818
28	0xbc4483c0	-0.011994302
29	0xbf6c5483	-0.92316455
30	0xbd65a578	-0.056066006
31	0xbedbedfe	-0.4295501
32	0xbf9b6800	-1.2141113
33	0x3ee61210	0.44935656
34	0xbdf9fe15	-0.122066654
35	0x3da5ee34	0.08102074
36	0x3e354dc3	0.17705445
37	0x3e899f4b	0.26879343
38	0x3e402a90	0.18766236
39	0xbf7a5f70	-0.97801876
40	0x3e2eabba	0.17057696
41	0xbf0b35dc	-0.5437906
42	0x3e84164d	0.25798264
43	0x3d1207bf	0.03565192
44	0x3e38f161	0.18060829
45	0x3e405f58	0.18786371
46	0x3e4636eb	0.19356887
47	0xbedd5681	-0.4323006
48	0xbe5a6950	-0.21329236
49	0xbe03a8ee	-0.1285741
50	0xbcf2e688	-0.029650941
51	0xbf5382be	-0.8262137
52	0xbf0fd73d	-0.561878
53	0x3dff426c	0.12463841
54	0x3e493d86	0.19652376
55	0xbce695b0	-0.028147548
56	0x3d92beaf	0.07165276
57	0x3dad425c	0.08459923
58	0xbfb067c5	-1.3781668
59	0xbdb79350	-0.089636445
60	0x3e4847cc	0.19558638
61	0xbdc298d1	-0.09501804
62	0xbd5a5f90	-0.05331379
63	0xbc853388	-0.016259924
64	0x3cba5584	0.022745855
65	0xbe84bf99	-0.25927427
66	0xbe6ab454	-0.22920352
67	0x3da3661c	0.0797846
68	0x3dff2b64	0.12459448
69	0xbe082405	-0.1329499
70	0xbdcdf1a6	-0.100558564
71	0x3dea95c3	0.11454346
72	0x3b323169	0.0027190095
73	0xbd8fba88	-0.07018
74	0xbe5f445d	-0.21803422
75	0x3e45d610	0.1931994
76	0xbe2a9076	-0.1665667
77	0xbd47b43e	-0.048755877
78	0xbe3ea5ed	-0.18617983
79	0xbdeac5b3	-0.114634894
80	0xbe064916	-0.13113818
81	0x3d96a748	0.07356125
82	0xbfc614a6	-1.5475051
83	0xc010e74d	-2.2641175
84	0xc009201d	-2.142585
85	0xbf0c05ad	-0.5469616
86	0xbf4f5540	-0.80989456
87	0x3e873541	0.26407817
88	0xbe42c298	-0.19019544
89	0xbf2b97e9	-0.6702867
90	0xbdc75c88	-0.09734446
91	0xbe51b0fb	-0.20477669
92	0x3dae9c8b	0.08525952
93	0xbf07e08e	-0.5307702
94	0xbcaebed8	-0.021331236
95	0xbd663328	-0.05620113
96	0xbf49d1e6	-0.78835905
97	0xbfd92c9a	-1.6966736
98	0xbd935817	-0.07194536
99	0x3e06559d	0.13118596
100	0x3e186a07	0.14884196
101	0xbfaee09d	-1.3662297
102	0x3eda235f	0.4260511
103	0x3ec072b5	0.37587515
104	0xbed9ec43	-0.42563066
105	0x3eb72013	0.35766658
106	0xbf56abca	-0.8385588
107	0x3d47c814	0.048774794
108	0xbe338325	-0.17530496
109	0xbf3b9ffc	-0.7329099
110	0x3e019476	0.1265429
111	0xbf07ab45	-0.5299571
112	0x3e22e67a	0.15908232
113	0xbf445eb3	-0.76707
114	0xbcd4d7b8	-0.025981769
115	0xbe56dc06	-0.2098237
116	0x3cd71d9c	0.026259236
117	0xbf5427ce	-0.8287324
118	0xbf828dce	-1.0199525
119	0xbc77346b	-0.015088181
120	0xbd823640	-0.063580036
121	0xbf03cf00	-0.5148773
122	0x3e15b666	0.1462036
123	0x3e684044	0.22680765
124	0x3e008087	0.1254903
125	0x3e8c5916	0.27411717
126	0xbe9c63e5	-0.30544963
127	0x3e4fbbea	0.20286527
128	0xbc4b2f50	-0.012401417
129	0xbe28818f	-0.16455673
130	0xbe24ed80	-0.16106224
131	0xbf3ccec1	-0.7375298
132	0x3e381caa	0.17979684
133	0xbef65e9f	-0.48119065
134	0xbd940592	-0.07227625
135	0x3e62e180	0.22156334
136	0x3ed75ce1	0.42063048
137	0x3d99e0d1	0.075135835
138	0xc0160f37	-2.3446786
139	0x3e489c65	0.1959091
140	0x3d832e76	0.06405346
141	0xbea2d1ee	-0.3180079
142	0x3d9e9fff	0.077453606
143	0xbf014726	-0.5049919
144	0x3e95ee86	0.2928354
145	0x3ee8713d	0.45398894
146	0xbed877de	-0.4227895
147	0x3e4c2420	0.19935656
148	0x3d8ed6e4	0.06974581
149	0xbf0e9b8a	-0.55706084
150	0x3dfa6f1c	0.12228224
151	0xbf13cfbe	-0.57738864
152	0x3eb442de	0.35207266
153	0xbf0f118d	-0.55886155
154	0x3d98ef10	0.074674726
155	0x3e5b831c	0.21436733
156	0x3c690bf1	0.014224038
157	0xbd0956bd	-0.033529986
158	0xc0036ecd	-2.0536377
159	0x3ec4b6eb	0.38420805
160	0x3d436a58	0.04770884
161	0xbdf9edf5	-0.1220359
162	0xbf8e0afd	-1.1097103
163	0xbeb9e00e	-0.36303753
164	0xbec3f2b4	-0.38271105
165	0xbf5b0b9a	-0.8556458
166	0xbf84d200	-1.0376587
167	0x3ed6e572	0.41971928
168	0x3ac7aa00	0.0015233159
169	0x3ecd0139	0.40039995
170	0x3e43de14	0.19127685
171	0xbe3d919c	-0.18512577
172	0x3e9e0665	0.30864254
173	0xbf4deed5	-0.80442554
174	0xbe2a7b5d	-0.16648622
175	0x3d42c358	0.047549576
176	0xbfbfae6c	-1.4975104
177	0xbf5c164d	-0.8597153
178	0x3e345978	0.17612255
179	0x3cbd03dc	0.02307313
180	0xbd0d7f29	-0.034545098
181	0xbe12c6eb	-0.14333694
182	0xc0067978	-2.1011639
183	0xbf99e23a	-1.2022164
184	0xbf8f76f8	-1.1208181
185	0xbf154cf8	-0.5832057
186	0xbf39cd63	-0.7257902
187	0x3dbe906e	0.093048915
188	0xbe0c5604	-0.13704687
189	0xbf2b8726	-0.67003095
190	0x3e11cdfc	0.14238733
191	0xbf13c895	-0.5772794
192	0x3eb3ad3f	0.35093114
193	0xbf23cf5e	-0.6398829
194	0xbe175994	-0.14780265
195	0xbdb66c56	-0.08907382
196	0xbf6041a9	-0.8760019
197	0xc004125b	-2.0636203
198	0xbe89ed00	-0.2693863
199	0x3e0fe16b	0.14050834
200	0x3c048507	0.008088357
201	0xbe20de34	-0.15709764
202	0xbd7568ee	-0.059914522
203	0xbc71f765	-0.014768456
204	0xbe008ca6	-0.12553653
205	0xbe19c583	-0.15016751
206	0x3d0d9985	0.034570236
207	0x3d4534c6	0.04814603
208	0x3d177de8	0.036985308
209	0x3e0933fb	0.13398735
210	0xbe442326	-0.19154033
211	0xbd62e4c6	-0.055393957
212	0xbe746f53	-0.23870592
213	0x3e161d36	0.1465958
214	0x3c0a5190	0.008442298
215	0xbdd2ee87	-0.10299402
216	0x3e1051b4	0.14093667
217	0xbe163ec8	-0.14672387
218	0xbe20bfd5	-0.15698178
219	0x3c0e744a	0.008694718
220	0x3da310db	0.07962199
221	0x3da9c5cd	0.08289681
222	0xbe3323f2	-0.17494181
223	0x3c910fff	0.017707823
224	0x3d0b0f37	0.033950057
225	0x3c7d37a6	0.015455162
226	0xbe87a3ca	-0.2649215
227	0x3d891bef	0.06694781
228	0xbe47a957	-0.19498192
229	0x3b4a5f3e	0.0030879523
230	0x3dbad86c	0.091233104
231	0xbe466175	-0.19373114
232	0xbe337eff	-0.17528914
233	0x3db48a75	0.08815471
234	0x3e3d754a	0.18501773
235	0x3b9f7460	0.004866168
236	0xbe947f4a	-0.29003364
237	0xbe802f4e	-0.2503609
238	0x3c09f62a	0.0084205065
239	0x3c5b0c7e	0.013369678
240	0x3d8f45e6	0.06995754
241	0xbe8acddd	-0.27110186
242	0xbfce122b	-1.6099294
243	0xbeb886d5	-0.3604037
244	0xbda126c9	-0.07868726
245	0xbf6bc95d	-0.9210413
246	0xbf853e94	-1.0409722
247	0x3e76efbc	0.24114889
248	0xbd6d28e0	-0.05790031
249	0x3d9a80cd	0.07544098
250	0xbd5d00fc	-0.053956017
251	0xbd9decb8	-0.07711166
252	0x3dd56e6c	0.10421452
253	0xbf5fb66d	-0.87387735
254	0xbd8b3764	-0.06797674
255	0xbdb09892	-0.086228505

network.3.bias f4 [20]
0	0xbed404a3	-0.41409788
1	0x3e4abfc2	0.19799712
2	0xbd7ddd3b	-0.06197856
3	0xbe6b5b5a	-0.22984067
4	0x3e241e07	0.1602708
5	0xbe2fd20f	-0.17169975
6	0xbe9ecc6b	-0.31015334
7	0xbead6b52	-0.3387094
8	0x3eabe239	0.33571032
9	0x3dbfd5e1	0.09366966
10	0xbea20ad4	-0.31648886
11	0xbe85fa43	-0.26167497
12	0x3eb320a1	0.3498583
13	0x3e66395c	0.22482818
14	0xbd750890	-0.05982262
15	0xbe2911c8	-0.1651069
16	0x3e09d1a0	0.13458872
17	0xbe5187b3	-0.20461921
18	0xbe8a6831	-0.27032617
19	0x3e2d97ae	0.16952392

network.6.weight f4 [20, 20]
0	0x3c86e00e	0.01646426
1	0xbe85d7ff	-0.26141354
2	0x3d8bf4a9	0.068337746
3	0xbe103a6b	-0.14084785
4	0xbf40e204	-0.7534487
5	0x3e41564b	0.18880574
6	0x3df3d1b8	0.11905235
7	0x3e5aeadc	0.21378654
8	0xbec58f12	-0.38585716
9	0xbe7ffc25	-0.2499853
10	0x3d98a1c2	0.07452728
11	0x3d6d022f	0.05786341
12	0xbec655af	-0.38737246
13	0xbebd755c	-0.370036
14	0x3f013341	0.5046883
15	0x3e19f1ce	0.15033647
16	0xbef132bd	-0.47109023
17	0xbd46ff9a	-0.048583604
18	0x3e334b69	0.17509235
19	0xbf77496e	-0.9659642
20	0x3ef976d0	0.4872346
21	0x3dd8d92f	0.105882995
22	0x3e1a3d88	0.15062535
23	0xbcc76281	-0.024338963
24	0xbe62d6d9	-0.2215227
25	0x3e1b7dfa	0.15184775
26	0x3f08fc89	0.5351034
27	0x3ec3e1d7	0.3825824
28	0xbf32ba1c	-0.6981523
29	0xbe0189cf	-0.12650226
30	0xbe5ac912	-0.21365765
31	0x3db6212a	0.08893044
32	0xbf1b0c5c	-0.60565734
33	0xbf10cae2	-0.56559575
34	0x3f01356b	0.50472134
35	0xbf829326	-1.0201156
36	0xbe7fba82	-0.24973491
37	0xbe810616	-0.25199956
38	0xbd2e1d55	-0.042508442
39	0xbe216b80	-0.15763664
40	0xbe12247c	-0.1427173
41	0xbf19f42c	-0.601382
42	0xbd0ac926	-0.033883236
43	0xbe4d5818	-0.20053136
44	0xbf129775	-0.57262355
45	0xbcebcde9	-0.028784709
46	0x3e3865e2	0.18007615
47	0xbf027e80	-0.50974274
48	0xbf881121	-1.0630227
49	0xbec14a7d	-0.37752143
50	0x3d32cbcd	0.04365139
51	0xbe58e3c5	-0.21180637
52	0xbfc10784	-1.5080419
53	0xbf904b32	-1.1272948
54	0x3f0fd2cf	0.56181043
55	0x3eae8660	0.34086895
56	0xbf6e6424	-0.9312155
57	0xbd507709	-0.05089477
58	0x3d08c689	0.033392463
59	0xbf9f484e	-1.2443941
60	0x3d38e660	0.045141578
61	0x3d92ef67	0.071745686
62	0x3ca078e6	0.019588899
63	0x3cf3d25f	0.029763399
64	0xbee333e1	-0.44375518
65	0x3e19d9ab	0.1502444
66	0x3e8255b0	0.25456
67	0x3e241ec5	0.16027363
68	0xbf790ec7	-0.97288173
69	0xbddaff7e	-0.106932625
70	0xbe530207	-0.20606242
71	0xbd092a47	-0.033487584
72	0xbfab725e	-1.3394277
73	0xbf38fc40	-0.722599
74	0x3f11d86d	0.56970865
75	0x3e5eaf11	0.2174647
76	0xbe03b51e	-0.1286206
77	0x3d298583	0.041387092
78	0xbe3219c1	-0.17392637
79	0xbf9a412f	-1.2051142
80	0x3dc175fc	0.09446332
81	0x3e1cbf1a	0.15307274
82	0xbbec2ec1	-0.007207722
83	0xbe56b545	-0.20967586
84	0xbf637e0c	-0.8886421
85	0x3e86a918	0.26300883
86	0x3e160083	0.14648633
87	0xbd46e445	-0.04855754
88	0xbf190356	-0.59770715
89	0xbea877ec	-0.32903993
90	0xbe09cd7b	-0.13457291
91	0x3d81a8a1	0.063309915
92	0xbf487797	-0.7830748
93	0xbf975696	-1.1823299
94	0x3e78c0f6	0.24292359
95	0x3d603b08	0.054743797
96	0xbf0e53b8	-0.55596495
97	0xbe6e1c0b	-0.23252885
98	0x3c3f6b56	0.011683306
99	0xbfc81bfe	-1.5633543
100	0x3e8d9398	0.27651668
101	0xbd567230	-0.05235499
102	0xb87a7960	-5.9717684e-05
103	0xbe019fda	-0.12658635
104	0xbe90b4e2	-0.28263003
105	0x3e3d4c49	0.18486132
106	0x3e0140ce	0.12622377
107	0x3d122127	0.035676148
108	0xbf764704	-0.9620211
109	0xbe4cc603	-0.1999741
110	0x3d0bdfd1	0.034148995
111	0xbd153ac6	-0.036433004
112	0xbf64e29b	-0.8940827
113	0xbf2f79f7	-0.6854548
114	0x3eb52631	0.353807
115	0x3e5fef2e	0.21868584
116	0xbeb01f42	-0.34398848
117	0xbdff42d8	-0.12463921
118	0xbded3638	-0.11582607
119	0xbf87d998	-1.0613279
120	0xbe5a282b	-0.21304385
121	0x3d86791f	0.06566071
122	0xbdf12f06	-0.11776547
123	0x3c3397e0	0.010961503
124	0xbd85eb25	-0.06538991
125	0xbc67a91e	-0.014139442
126	0xbe1e73ae	-0.15473816
127	0x3a1206b0	0.00055704545
128	0xbe5a3da7	-0.21312581
129	0xbcfc6be1	-0.03081316
130	0x3e2bb834	0.16769487
131	0xbe57735e	-0.21040103
132	0xbe5f0cec	-0.21782273
133	0x3c6336fc	0.01386809
134	0xbe08969c	-0.13338703
135	0xbe32776b	-0.17428367
136	0xbd329825	-0.043602128
137	0xbe6a0101	-0.22851945
138	0xbc315390	-0.0108231455
139	0x3d9fac6b	0.07796558
140	0xbfb84151	-1.4394933
141	0xbf96e3eb	-1.1788305
142	0xbf6222dd	-0.8833445
143	0xbcde6e78	-0.027152285
144	0x3f204289	0.62601525
145	0xbe296b87	-0.16544925
146	0xbf9e24b5	-1.2354952
147	0xbf99e906	-1.2024238
148	0xbd868e67	-0.0657013
149	0x3ea6940f	0.32534835
150	0xbd17211e	-0.036896817
151	0x3e3d1c7d	0.18467899
152	0xbd4f8d17	-0.050671663
153	0x3eefbc80	0.46823502
154	0xbf806f2f	-1.003393
155	0xbfbab6b4	-1.4587007
156	0x3e7c5191	0.2464049
157	0x3e9af8a4	0.30267823
158	0x3ed67467	0.41885683
159	0xbd1a9eb4	-0.037749007
160	0x3de73a40	0.11290407
161	0xbc1c7427	-0.009549177
162	0x3d6df59d	0.058095563
163	0xbe465fde	-0.19372508
164	0xbf098425	-0.5371726
165	0x3e45d9a0	0.19321299
166	0xbcf08773	-0.029361462
167	0x3e986509	0.29764584
168	0xbf59ddab	-0.85103863
169	0xbdaf23f5	-0.0855178
170	0xbe4f8f47	-0.202695
171	0xbe1c9e7b	-0.1529483
172	0xbf463fc0	-0.77441025
173	0xbedba19f	-0.42896745
174	0x3f43aad8	0.7643256
175	0x3e2c86d0	0.16848302
176	0xbe87c11b	-0.26514515
177	0xbeb5b28b	-0.3548778
178	0xbe462bee	-0.19352695
179	0xbf7dd1e9	-0.9914842
180	0xbf9a8417	-1.2071561
181	0xbf3df8be	-0.74207675
182	0xbf0428fd	-0.51625043
183	0xbe1a066e	-0.15041515
184	0x3f3c16bf	0.7347221
185	0x3e9c81a5	0.3056766
186	0xbfb7d2f0	-1.4361248
187	0xbf850a34	-1.0393739
188	0x3d141aab	0.036158245
189	0x3d7a7cc9	0.06115416
190	0x3e0bd764	0.13656384
191	0x3e7abc28	0.24485838
192	0xbcab2624	-0.02089221
193	0x3ee55378	0.44790244
194	0xbf2125a8	-0.62948084
195	0xbfc3af5e	-1.5287893
196	0x3e658606	0.22414407
197	0x3daa029c	0.08301279
198	0xbcc4296c	-0.023945533
199	0x3d442b6a	0.047892965
200	0xbeadbf80	-0.33935165
201	0xbecd862e	-0.40141433
202	0xbe2d5b85	-0.16929443
203	0xbe0ba49c	-0.13637012
204	0x3e8bce9a	0.27306062
205	0xbf12450c	-0.5713661
206	0xbeabe1b4	-0.33570635
207	0xbebfafc5	-0.3743879
208	0x3ea9dd0d	0.3317646
209	0x3ea215cd	0.31657258
210	0x3e326f54	0.17425281
211	0x3d983124	0.07431248
212	0x3ec1e7aa	0.37872058
213	0x3eac4025	0.33642688
214	0xbf4d6d4d	-0.80244905
215	0xbe6df08d	-0.23236294
216	0x3eaa7b17	0.33297035
217	0x3e14d197	0.14533077
218	0x3e1b5f8d	0.15173168
219	0x3df3dacb	0.11906966
220	0xbebea568	-0.3723557
221	0xbea73c18	-0.32663035
222	0xbeda35a5	-0.42619053
223	0x3d99dc1f	0.07512688
224	0x3f387fdb	0.7207009
225	0xbe7bcb4c	-0.2458927
226	0xbea86305	-0.32888046
227	0xbe3a2caf	-0.18181108
228	0x3ca4715b	0.020073583
229	0xbe2a0811	-0.1660464
230	0xbdc03426	-0.093849465
231	0x3c6b6a33	0.014368582
232	0x3efcee5b	0.494006
233	0x3ecde5a7	0.40214273
234	0xbf796dee	-0.97433364
235	0xbef14891	-0.47125676
236	0x3e8675ac	0.26261652
237	0xbd643423	-0.055713784
238	0x3e36d265	0.17853697
239	0x3ebe94f7	0.37223026
240	0xbd4e5eda	-0.050383426
241	0x3f133faf	0.5751905
242	0xbeb94e00	-0.36192322
243	0xbdd86217	-0.10565584
244	0xbf9b6f2b	-1.2143301
245	0xbf077007	-0.52905315
246	0x3cb0ff2c	0.02160605
247	0xbf0dcc3b	-0.55389756
248	0x3ea656e9	0.32488182
249	0x3b668ed3	0.0035180345
250	0xbe822c47	-0.25424406
251	0xbd38260e	-0.044958167
252	0xbede39cc	-0.4340347
253	0x3d69f9ff	0.05712318
254	0x3d0b00ab	0.033936184
255	0xbd062e9d	-0.032759298

network.6.bias f4 [20]
0	0x3e9608ff	0.29303738
1	0x3c97aee9	0.01851602
2	0x3e35e85e	0.17764422
3	0x3e64c09e	0.22339103
4	0x3e990f71	0.29894593
5	0x3e856ef3	0.2606121
6	0xbdb60fa8	-0.08889705
7	0x3e69a2e0	0.22816038
8	0x3e0e3acd	0.13889618
9	0x3e6044b5	0.2190121
10	0x3e8d9bca	0.2765792
11	0x3e809b40	0.25118446
12	0xbec88b53	-0.39168796
13	0x3d330f19	0.04371557
14	0x3eb3d2fd	0.3512191
15	0xbe358aec	-0.17728776
16	0x3cf86837	0.030323131
17	0x3e89a17a	0.2688101
18	0x3e940d18	0.2891624
19	0x3e51f755	0.20504506

network.9.weight f4 [1, 20]
0	0x3dd6e4c9	0.10492856
1	0x3e7b6aea	0.24552503
2	0x3de8e654	0.113720566
3	0x3e0e186c	0.13876504
4	0x3dc62598	0.09675139
5	0x3e18b6bc	0.14913458
6	0x3d356468	0.044285208
7	0xbe94f9f5	-0.29096952
8	0x3dd0a661	0.10187984
9	0xbe67c34a	-0.2263309
10	0xbe5d47ee	-0.2160947
11	0xbe3ab09f	-0.18231438
12	0x392598fa	0.00015792614
13	0x3e52066c	0.20510262
14	0xbe4e0cd7	-0.20122086
15	0x3cc70450	0.024294049
16	0xbef4213f	-0.47681615
17	0xbe4983e3	-0.19679217
18	0xbe3e2fdc	-0.18572944
19	0x3dbb368d	0.09141264
