experiments/exp_sim_continuous_weight/saved_models/run_4/full_data/y.pt (torch, 6695 bytes, 6 tensors)

y_transform.nn.layers.0.weight f4 [20, 2]
00000000: 6184 d13e 591e 46be 1910 66be 3032 d9bf
00000010: d1b5 e1be 9e55 14bf 729f b0be 542c 03be
00000020: 3491 ae3e 33a6 0f3f 728d 72bf 5511 b3be
00000030: 4045 0d3d e526 0c3f c12a d43d 3205 023f
00000040: 2e87 833f 4525 a2be 4f6c 0abf 3ef2 1ebf
00000050: 5c6e 3e3e 34f0 bc3e 0e4a c0be c215 9bbe
00000060: 82a2 423e 9c34 26bf 46d0 25bd 55b7 503c
00000070: b435 15bd a811 993e 68e3 733e ec2c 743e
00000080: da2c b5be c5a1 5a3f 08c0 94bf b3c0 273e
00000090: fa4d 9a3f 5c36 b4be 274e 0fbf 18db e3be
0.4092131 -0.19347514 -0.22467078 -1.6968441 -0.44084027 -0.5794314 -0.34496647 -0.12809879
0.34095156 0.56112975 -0.9474708 -0.3497416 0.03448987 0.5474685 0.10359717 0.5078918
1.0275629 -0.3166906 -0.54071516 -0.6208838 0.18596786 0.3690201 -0.375565 -0.30290037
0.19007304 -0.64924026 -0.04048183 0.012739022 -0.03642817 0.29896283 0.23817217 0.23845261
-0.35385782 0.8540309 -1.1621103 0.16382103 1.2055047 -0.35197723 -0.55978626 -0.44503093

y_transform.nn.layers.0.bias f4 [20]
00000000: 965a db3e 0202 833d de4c fcbe 3246 f7be
00000010: a8c7 a53e 97fe 93be fa95 32bf 4add 1ebe
00000020: 6fe0 f1be a8ae 8f3e c744 b2bd 347a 0abf
00000030: f00a 883e a9df 5abd ffe1 abbe 933e f9be
00000040: fd53 28bf ce0f 94bd 26c3 f83a 000b 96be
0.4284255 0.06396867 -0.49277395 -0.48295742 0.32378888 -0.28905174 -0.69760096 -0.15514103
-0.47241542 0.2806294 -0.087045245 -0.5409272 0.26570845 -0.053435955 -0.3357086 -0.48680553
-0.65753156 -0.07229577 0.0018979057 -0.29305267

y_transform.nn.layers.1.weight f4 [20, 20]
00000000: 35cc 83be c04b 04be 7c8c 8e3d b8f4 003e
00000010: d22e a2bc c20c b4be 40e5 a73b 59da b6bc
00000020: a80c ddbe 7702 ebbe 85c3 75be 98aa 113d
00000030: a64f 1abf c413 94be 85c7 c6bd 9c08 bb3d
00000040: 8b00 d6be 129e ec3d e293 9ebe 7e7b 14bf
00000050: ea25 a4be e96b 213e 5484 4d3e 64fa 933d
00000060: 1d0e 1ebf 2254 093f 046f 8ebd bdbd c2bb
00000070: 8975 38be 6383 a93e 0209 3fbf 8095 633e
00000080: 015c 99bf 0535 e0bd 2c9e c1bc 20a2 0d3e
00000090: 7702 00bf 95a5 843e 10a6 bfbc 1440 ba3e
000000a0: dc9d b13d 26d2 b93d 303f 783c a4ad 8b3d
000000b0: 6832 dd3d 25f0 a73e 4f7f 2cbe a6c1 ad3e
000000c0: 0460 883e a118 afbd 9148 903e 9cac 7dbd
000000d0: 68ef 99bf 247e cfbd 024c febd 0aae 23be
000000e0: 3c4e 1f3d e275 113e 2937 763d c838 0e3e
000000f0: fe77 04bd b68b 77bd 0091 283d 3878 03be
00000100: 890c 09be 6ef8 233e c082 7f3d 4b45 d6be
00000110: 81b2 1f3f 012c babe 12be d3be 807b 0b3d
00000120: 3a57 14be d11e f5bc 6417 c93d 003f 27bc
00000130: 65c3 b53d bfda 3c3d c3c4 353e 6306 11be
00000140: e136 46be 06a9 513d b48e ba3d be08 05be
00000150: 2073 c93c 4232 85be 66ce 353e b453 ac3d
00000160: fc87 773d 46ef 33bd a388 883d f4e8 af3d
00000170: 01a7 7cbc 15c2 bc3c 93ff 54be 0d6f d6bd
00000180: 7fa1 5abe 2897 14be b2fe 5abe cb19 7dbe
00000190: 0abe d6bd 917e b8bf 679f d5bd 79ea 56be
000001a0: 33b6 58bd efd6 8e3e 5093 ef3d da5a 3fbd
000001b0: f47e 0abf 5166 c4bd c13e 40bd c0fa 58be
000001c0: 749c 3abf 7cae 92bc 96b9 1d3e e89f f03d
000001d0: 6516 a6bf 1aee 8bbd 902b 22be 2f16 083f
000001e0: e6f4 9a3d 84a0 973e 340a dd3d 2849 0abe
000001f0: 9072 4f3e b4f6 76bf 90f0 7a3d e8cb 853d
00000200: d0d7 1f3e f1d3 893d eb64 f33d 0008 01bc
00000210: 1024 23bd 8f39 89be 6b35 f1bd 165a 0e3e
00000220: 84c5 173f fd6c 33bf ca91 a0bd 4cda 67be
00000230: 84c7 9dbe b13a 95be 3689 543e 7035 bfbc
00000240: f561 be3c c88b 25bf 405d 643e 94b2 343e
00000250: 5f59 cdbe fb75 47bf 9b8a 113e 914e ebbd
00000260: 04c2 b93d cf07 00bd 7ecd 343e 40ba c5bc
00000270: d415 403f aa07 7d3e 493e 2f3d ac70 81be
00000280: c202 d6bd 7e45 b33f 4e92 213e b620 acbd
00000290: a87a 6e3e 931f c5bf 0c30 5abe 0ce4 7f3e
000002a0: d5f6 2cbd a776 26be 8435 b1bd 4028 c7bc
000002b0: db05 bf3d 51bc 1bbd 2479 253c 4058 2d3e
000002c0: c0cb c33e c078 8fbe a866 01bf afdd 92bf
000002d0: ed9c 7a3e 6f7e 463d 1747 5fbe f028 8cbc
000002e0: 05be 983e 67f2 b7be d6de 0a3e 8524 b73e
000002f0: 6952 e33e 508e 80bf ee08 263e 304d 573d
00000300: 12e9 74be 183b 44bd 6e33 debd 7801 233d
00000310: fdfb c33e 20ff b43c 940f 2c3d f0b7 fcbd
00000320: 5aec afbf 1f19 3bbe 40bb bc3d ced4 313e
00000330: b7c4 ddbe 5d47 ce3e 644e 123e 99e9 cfbd
00000340: 061a 0ebe 4d5d 133e 670f 73be f6c0 19be
00000350: 5e5f 48bf cd55 91bd 6050 e5bc 8436 1d3e
00000360: 1489 8cbd ff90 873e 7d2d 45be 2c15 c33e
00000370: 7221 823e ac3d fab8 8e9c 0e3e da67 59be
00000380: 5aad a3bc ad00 863d 9c5a 1fbe e64a adbe
00000390: 4e0a 95be a656 cd3d 4e99 59bf 1ee9 3f3e
000003a0: 10fb 873d 181f 903d 5680 593e a1b7 cabd
000003b0: dc54 44be 7b88 85bf 63b4 1fbf 049f 4e3e
000003c0: b4cf 50be dfae a8bb 40cc 11bc e8fa 5f3d
000003d0: 7cc8 3bbe baf8 283e 10a6 433d 083d d8be
000003e0: f5db 5e3f aa47 02bf 1614 753d fc09 d73d
000003f0: 96dc 0bbe 72fc c2be 75ff b4bd 1319 e7bd
-0.25741735 -0.12919521 0.06960389 0.12593353 -0.019797716 -0.35165983 0.0051237643 -0.022320913
-0.43173718 -0.45900318 -0.24000366 0.03556308 -0.60277784 -0.2892133 -0.09706024 0.091325015
-0.4179729 0.11553587 -0.309722 -0.58000934 -0.32060176 0.1576382 0.2007001 0.072254926
-0.61740285 0.53644 -0.06954768 -0.0059430287 -0.18013586 0.33108053 -0.7462312 0.22224998
-1.1981202 -0.10947613 -0.023634993 0.13831377 -0.5000376 0.2590758 -0.023394614 0.36377013
0.086726874 0.09073286 0.015151784 0.06820229 0.1080063 0.32800403 -0.1684544 0.33936805
0.26635754 -0.085496195 0.28180364 -0.06193219 -1.2026186 -0.10131481 -0.12416841 -0.1598436
0.03889297 0.14205125 0.0601112 0.13888848 -0.032340996 -0.060435973 0.041153908 -0.12838829
-0.13383688 0.16012737 0.062380552 -0.4184974 0.6238175 -0.36361697 -0.4135595 0.034053326
-0.144864 -0.029921921 0.098189145 -0.010207891 0.08875159 0.04610705 0.1775084 -0.14162593
-0.19356872 0.051186584 0.0910925 -0.12991616 0.024591029 -0.26014906 0.17754516 0.084144026
0.06043242 -0.04392936 0.066666864 0.08589354 -0.015420676 0.023041764 -0.20800619 -0.104704
-0.21350668 -0.14510787 -0.21386221 -0.2471687 -0.10485466 -1.4413625 -0.10430794 -0.20987882
-0.052908134 0.27898356 0.116980195 -0.046717502 -0.54099965 -0.09589828 -0.046934847 -0.21189404
-0.7289498 -0.017905466 0.15402827 0.1174925 -1.2975584 -0.06832524 -0.1583693 0.5315885
0.07566242 0.2961465 0.10792962 -0.1350447 0.20258546 -0.9647019 0.061264575 0.06533033
0.1560967 0.06729878 0.11884483 -0.0078754425 -0.039829314 -0.26801726 -0.11777767 0.13901553
0.5928576 -0.7008818 -0.07840307 -0.22641867 -0.3081628 -0.2914634 0.20755467 -0.02334091
0.023240069 -0.64666414 0.22301197 0.17646247 -0.40107247 -0.779144 0.1421303 -0.11489595
0.09070209 -0.031257447 0.17656514 -0.024136662 0.7503331 0.24709955 0.04278401 -0.25281274
-0.10449745 1.4005582 0.15778467 -0.084046766 0.23288977 -1.5400261 -0.21307391 0.24989337
-0.042227585 -0.162562 -0.086527854 -0.024311185 0.09327289 -0.03802139 0.010099683 0.16928196
0.38241386 -0.28021812 -0.50547266 -1.1473902 0.24473925 0.04846042 -0.21804462 -0.017109364
0.29832473 -0.35927126 0.13561568 0.3577005 0.4439881 -1.004343 0.16214344 0.052563846
-0.23917034 -0.04790792 -0.10849653 0.039796323 0.3827819 0.02209431 0.042007044 -0.12339771
-1.3744004 -0.18271302 0.092154026 0.17366335 -0.43314144 0.4028882 0.14287716 -0.10151977
-0.13877115 0.1439106 -0.23736344 -0.15015015 -0.7827052 -0.07096443 -0.027992427 0.15352827
-0.06862083 0.2647781 -0.19255634 0.3810209 0.25416142 -0.00011932416 0.13926908 -0.21231022
-0.019980121 0.06543098 -0.15561908 -0.33846205 -0.29109424 0.100262925 -0.8499955 0.18741271
0.06639683 0.07037181 0.21240363 -0.09898306 -0.19172996 -1.0432276 -0.62384623 0.20177847
-0.20391732 -0.0051477994 -0.008898795 0.054682642 -0.18338197 0.16501132 0.04776579 -0.42234063
0.8705438 -0.508906 0.05983361 0.10499951 -0.13658366 -0.38083225 -0.08837787 -0.112840794

y_transform.nn.layers.1.bias f4 [20]
00000000: 7c08 f9bc 44f0 2bbe defa f8bd 1554 9abd
00000010: cfef 7bbc e1ad 523e 806f e83c 0e86 91be
00000020: be0e b23c 3c10 efbd a9b8 abbe f9ed 133e
00000030: 9fef a3be bc14 90bd d2d1 a53e 7c48 c93d
00000040: 14f0 1fbe 1d57 e3be d068 823b 0991 2f3d
-0.030399553 -0.16790873 -0.12157224 -0.075355686 -0.015376999 0.20574142 0.02837348 -0.28422588
0.021735545 -0.11673018 -0.33539322 0.14446248 -0.32018754 -0.07035205 0.32386643 0.098282784
-0.15618926 -0.444024 0.00397978 0.042862926

y_transform.nn.layers.2.weight f4 [31, 20]
00000000: 3956 e43d 878c 0f3f d37a 33be 3de5 043e
00000010: fbfc ffbd b65f 3a3f d255 27bc 4706 84be
00000020: dbae e83e 1e43 c73e 88b3 1ebf 5a0d 313f
00000030: 4a44 c7bf 32b6 9ebd 5ae5 80bf e926 1f3f
00000040: 45d6 82bd bebc abbf 7390 7dbf 0345 1dbf
00000050: 1854 953d 660e 563e 6bf5 39be 94d5 433d
00000060: ec40 04be df02 b53e 56f0 93be c7d2 0c3e
00000070: 01e8 62be 71b2 403e 205e edbe 8471 34bd
00000080: 99a4 5abf 4e64 583e 0164 a4be 0a72 333e
00000090: 9d30 50be 1b41 e2bd c0a0 19be 6ffd 80bd
000000a0: d648 3d3e 76f1 023e c8ff 4cbe 69be 61bd
000000b0: 3a61 2ebe 8eec d7be 7036 18be fe6b e03e
000000c0: 8249 e23d dcb7 0d3d 7c68 1cbf 9302 8ebe
000000d0: b862 c0be fabc a3bd 551d 6e3d 3999 5b3d
000000e0: c81e 503c cc52 bebe 8e6c 4d3c 64ee 88bd
000000f0: 7930 3bbd 863a 42be 8e2c 5a3e 2824 05be
00000100: 43f7 97bc 88fd 6abe ca38 19be 700f a23e
00000110: 3e16 5abe 7dd4 033e 9be1 0c3d 9d28 0bbe
00000120: 9999 fc3d b0c1 7d3d c5e5 bd3c 2165 dabd
00000130: 5ee7 8fbb 7dac acbb fd03 3d3e 8871 8b3e
00000140: 1d33 c5bd 4805 e63d 8d3b 143c ac81 533d
00000150: ed64 2cbe 61b5 41bd 5c69 b6bd af90 273e
00000160: 4104 24be 655f 8a3d a1fa 1cbe 71d3 50be
00000170: c797 f23d 5819 42be c1e1 76be 55d9 6abd
00000180: 7e60 aebd 6ca4 5cbe cbb9 903e 615f f5bd
00000190: 0b84 aeba dc55 35bd 6573 87bd 4ca5 c23d
000001a0: 530d 5d3d f870 37bd 6980 b1bb 3fd3 883e
000001b0: bcb2 d4bc b9f9 cdbc 68ef b33e 86d0 2c3e
000001c0: 0ed6 d43e 489f 5c3d e7d3 8dbc be26 eebd
000001d0: b645 eabd c46b ff3e ffcc 003e 9fe1 7abe
000001e0: 8254 5f3d aa59 b4be bd3e aebd 7919 23be
000001f0: 07ae 733e 1ff2 503e cb30 97bd 67c1 85bf
00000200: b3ce 133e f27c ec3d db8e c5bd 4d8f 6e3e
00000210: b845 2d3f eee6 073e 4f53 a13e 290c 9bbe
00000220: 00e0 453e cdbd 983e d0a2 7abd 8fb6 85be
00000230: 8a61 64be e868 b1be fca1 023e 10f5 f3bd
00000240: 3b47 b1bd 2504 e2bd 6d34 35be ecb5 f4be
00000250: f973 95be bacd 81be d684 1b3f 39bf a6be
00000260: 6092 553f 36b2 f2bd dcef de3e 5903 6fbf
00000270: 3f23 bebd 3dee 053f 2e9c c8bc 2cdb c33e
00000280: 7e29 253e 650b 25bf 3649 e5bd 4b6b 0abe
00000290: ba5f 373d f28f 87be cc57 2dbf b6c9 b73d
000002a0: 4363 09bf 89d1 44bf 4c9f a6be 50b4 81bf
000002b0: 572b 903f 94c2 1cbd 2ec8 0a3f 44ba 33bf
000002c0: b621 463e 9b1f 1bbd 5e22 eb3d c56d 043e
000002d0: 17a3 353d 8dac 403e f3c7 2e3e eca7 25bc
000002e0: 8e25 14be 8617 cc3c 58b9 72b9 8ae7 ebbd
000002f0: 6bf8 b73e e3c2 e2bd 7abb a03e fdd2 95bc
00000300: 269b 853e 0718 d8bd 7d5f a63d 5de5 adbe
00000310: 03ac 643e 53a1 5e3e 1915 8c3d 0ca2 6f3e
00000320: ec7d 343e 068b d0bd 6674 083e 110d 5b3d
00000330: 0b0e af3c 6efb 8d3e 41bd 0c3d f954 23be
00000340: 7ab3 2b3e 334f a63d 342b 9c3e cb5f bc3c
00000350: 15b4 a23e 603c 5dbc f17b 183e e28b 43bd
00000360: f67f 003e 4ee5 503e cda3 acbd 5372 9d3d
00000370: 3606 863d d9df b9bd 12a6 be3d fc64 1bbe
00000380: 76dc d53d 2806 1a3e be45 683e dad9 a7be
00000390: 1f5f 313e b601 c93d d16f 52be 99d1 533e
000003a0: 71c6 823d e593 43be 6e3f 563d a964 9dbe
000003b0: 07ee 7f3e b2f5 973d 2fd6 41bb 7a86 463e
000003c0: b7a4 ecbd 83d3 27bd 199a 1f3c 2b63 55bc
000003d0: 22bd 81bd 98ae 163e 26f6 643e d740 c93d
000003e0: b603 ca3c 27ec 473d 558d b03e 0def 3f3d
000003f0: 13d3 b03b e379 1dbe 7909 15bc 38cf 46bd
0.11149258 0.560738 -0.17527322 0.12978072 -0.12499424 0.72802293 -0.010213332 -0.2578604
0.45445904 0.38918394 -0.6199269 0.69161 -1.5567715 -0.07749595 -1.0069993 0.6216875
-0.06388525 -1.3416975 -0.99048537 -0.6143343 0.0729143 0.2090393 -0.18160026 0.047811106
-0.1291539 0.35353753 -0.288943 0.1375228 -0.22158815 0.1881807 -0.46360874 -0.04405357
-0.85407406 0.21132013 -0.32107547 0.17523971 -0.20331044 -0.11047574 -0.15002728 -0.062983386
0.18484816 0.12787423 -0.20019448 -0.05511323 -0.17029276 -0.42172664 -0.14864516 0.43832392
0.11049177 0.03459917 -0.6109693 -0.2773634 -0.37575316 -0.07995029 0.058133442 0.05361292
0.012702651 -0.37172544 0.0125380885 -0.066860944 -0.045700524 -0.18967637 0.21306059 -0.13002074
-0.01855052 -0.22948277 -0.1496307 0.31652403 -0.21297547 0.12874027 0.03439484 -0.13589711
0.12333984 0.061952293 0.023180852 -0.1066382 -0.004391595 -0.0052695856 0.18458553 0.27235055
-0.0962889 0.11231476 0.009047401 0.051637337 -0.16835375 -0.047292117 -0.089068145 0.16363786
-0.16017248 0.06756476 -0.15329982 -0.20393158 0.118453555 -0.1895498 -0.24109556 -0.05733617
-0.08514498 -0.21547097 0.2826675 -0.11981083 -0.0013314498 -0.044271335 -0.06613807 0.09504184
0.053967785 -0.04478547 -0.005416919 0.26723668 -0.025964133 -0.025143491 0.3514359 0.1687642
0.4156956 0.05386284 -0.017312957 -0.11628483 -0.114390776 0.49886906 0.125782 -0.2450013
0.054523952 -0.35224658 -0.0850806 -0.15927686 0.23796855 0.20404862 -0.073823534 -1.0449647
0.14434318 0.11547269 -0.09646388 0.23296852 0.6768451 0.13271686 0.31508872 -0.30282715
0.1932373 0.29832307 -0.061190426 -0.26115844 -0.22302833 -0.3465035 0.12757105 -0.11911976
-0.08656164 -0.11035947 -0.1769578 -0.47795045 -0.29190043 -0.2535227 0.60749567 -0.32567766
0.83426476 -0.11850397 0.43542373 -0.93364483 -0.092840664 0.5231665 -0.024488535 0.38253152
0.1612911 -0.6447051 -0.111956045 -0.13517492 0.044769026 -0.2647701 -0.6771209 0.0897402
-0.53667086 -0.76882225 -0.3254341 -1.0133152 1.1263226 -0.0382715 0.542117 -0.70206094
0.19348797 -0.03787194 0.114811644 0.12932499 0.044344988 0.18815823 0.17068462 -0.0101108365
-0.14467451 0.02491356 -0.00023147964 -0.11518772 0.35931715 -0.11072328 0.31393033 -0.018289084
0.2609493 -0.10551458 0.08123682 -0.33964053 0.22331242 0.21741228 0.068399616 0.2340166
0.1762616 -0.101827666 0.13325652 0.053479258 0.021369 0.27730888 0.034360174 -0.15950383
0.16767684 0.08120575 0.3050171 0.022994896 0.31778017 -0.013503164 0.1489103 -0.047740825
0.12548813 0.20399973 -0.0842968 0.07687821 0.065441534 -0.09075899 0.09309019 -0.15175241
0.1044244 0.15041411 0.22682855 -0.32783395 0.17321442 0.098147795 -0.20550467 0.20685424
0.06385506 -0.19099386 0.052306585 -0.3074086 0.24993144 0.074199095 -0.0029577126 0.19387236
-0.11554854 -0.040973198 0.00974133 -0.013024132 -0.06334902 0.1471504 0.22359523 0.0982682
0.024659973 0.048809197 0.34482828 0.046858836 0.0053962558 -0.15378527 -0.009096497 -0.048537463

y_transform.nn.layers.2.bias f4 [31]
00000000: 1f49 44be 1588 0d3e 4615 693d 87c4 6cbd
00000010: 6462 81bd 03fd 263e 7619 da3c f8a5 2a3d
00000020: e897 9cbd 566e 28bd f3e0 08be 82ee 4abe
00000030: de70 55be 3827 90bb 5063 14be ac68 303d
00000040: 3399 103f 6b29 ab3e 04bf bb3e 9fe1 dd3e
00000050: 973d d93e 70df a33e 620a 983e a0bd 84bf
00000060: 4ef2 0abf 37af b0be 47f7 acbe 641a 193f
00000070: 4e1c 953e d64e 0d3f b877 bd3f
-0.19168518 0.13821442 0.056905054 -0.05780461 -0.06317595 0.16307454 0.026623469 0.041662186
-0.07646161 -0.04112085 -0.13367061 -0.19817546 -0.20843837 -0.0043992065 -0.1449101 0.043068573
0.56483763 0.33430037 0.3666917 0.43336198 0.42429802 0.32006407 0.2969542 -1.0370369
-0.5427598 -0.34508678 -0.33782408 0.59805894 0.29123157 0.5519842 1.480216
