experiments/exp_sim_binary/saved_models/run_0/bootstrapped/propensity_0.pt (torch, 6529 bytes, 7 tensors)

network.0.weight f4 [20, 1]
0	0x3e84f16f	0.2596545
1	0x3f435cb3	0.7631332
2	0xbf666c80	-0.9000931
3	0xbf5bac89	-0.8581014
4	0xbeefe78b	-0.4685634
5	0x3eecca06	0.46247882
6	0x3e89be72	0.2690311
7	0x3f4aface	0.7928895
8	0xbdb5bf70	-0.088744044
9	0x3f179c88	0.5922322
10	0xbe9abbac	-0.30221307
11	0x3d121c1e	0.035671346
12	0xbf85fb59	-1.046733
13	0xbf3e142e	-0.7424954
14	0xbed30ee8	-0.4122231
15	0x3d17bb00	0.03704357
16	0x3eca6960	0.3953352
17	0x3f4f696b	0.8102023
18	0xbf561277	-0.83621925
19	0xbf05be54	-0.5224354

network.0.bias f4 [20]
0	0x3ef4c4be	0.47806352
1	0x3f64ce1c	0.89377
2	0xbd777a28	-0.06041923
3	0x3f5235d0	0.8211336
4	0xbdcf39da	-0.10118456
5	0x3e19b22f	0.15009378
6	0x3f709a20	0.93985176
7	0xbf6d7bce	-0.92767036
8	0xbf212966	-0.62953794
9	0xbd472922	-0.04862321
10	0xbec793dc	-0.38979995
11	0x3f5af633	0.8553192
12	0xbf1e6189	-0.61867577
13	0xbee047a1	-0.4380465
14	0xbf32da1a	-0.69864047
15	0xbf6fc276	-0.936561
16	0xbf157004	-0.5837405
17	0x3f5235ea	0.82113516
18	0x3eeb73d4	0.45986807
19	0x3f025cb0	0.5092268

network.3.weight f4 [20, 20]
0	0x3c40ac50	0.0117598325
1	0xbdeac81f	-0.11463951
2	0x3d1af488	0.03783086
3	0xbe55ca8d	-0.20878048
4	0xbe2572cc	-0.16157073
5	0xbdec15d4	-0.11527601
6	0x3e1077ce	0.14108202
7	0x3e064080	0.13110542
8	0xbdcb18db	-0.0991685
9	0xbc0430c0	-0.0080682635
10	0x3e12713e	0.14301011
11	0x3e63a148	0.22229493
12	0x3db5c03c	0.088745564
13	0x3cf77620	0.030207694
14	0x3e198604	0.14992529
15	0xbe06d1ee	-0.1316602
16	0x3d2aabd8	0.04166779
17	0xbe318639	-0.17336358
18	0xbe1eb2c2	-0.15497878
19	0xbdec9158	-0.115511596
20	0x3dcf3564	0.10117605
21	0x3db82b04	0.089925796
22	0xbe07a208	-0.13245404
23	0x3d8a5954	0.06755319
24	0x3dfb6660	0.12275386
25	0xbce73410	-0.028223068
26	0x3c0be180	0.00853765
27	0x3d543780	0.05181074
28	0x3e0e0cba	0.13872042
29	0x3e5bdbde	0.21470591
30	0xbe3073c8	-0.17231667
31	0xbda7d2d8	-0.08194512
32	0x3db3fa44	0.08787969
33	0x3e3db73a	0.18526927
34	0x3e47411a	0.19458428
35	0x3e4a0944	0.19730097
36	0x3d3646b0	0.044501007
37	0xbe471c7c	-0.1944446
38	0x3ca882b8	0.020570144
39	0xbe0f3f38	-0.1398896
40	0xbe7a121f	-0.24420975
41	0x3e280b8b	0.16410653
42	0x3e2e1a26	0.17002162
43	0xbe79cf41	-0.24395467
44	0x3d2b6e00	0.04185295
45	0xbd94acbb	-0.07259508
46	0xbd90d6ad	-0.07072196
47	0xbdd1a0d6	-0.10235755
48	0x3db01b34	0.085989386
49	0xbe42a623	-0.19008689
50	0x3da7e118	0.0819723
51	0x3da32128	0.079653084
52	0x3e23ea60	0.16007376
53	0x3dab3b3c	0.083609074
54	0xbe629f7d	-0.22131152
55	0xbe1488c8	-0.14505303
56	0x3de4a8e0	0.11165023
57	0x3c4f1f90	0.012641802
58	0xbe3e201f	-0.1856694
59	0xbe18bf0a	-0.14916626
60	0x3eaee3cc	0.3415817
61	0x3e9a0fa9	0.30090073
62	0xbe1b5cd7	-0.15172134
63	0xbe11a031	-0.14221264
64	0xbe832925	-0.25617328
65	0x3e51dd00	0.20494461
66	0xbd5696f6	-0.05239006
67	0xbe309ec1	-0.1724806
68	0xbc49dc90	-0.012320653
69	0x3ec43245	0.38319603
70	0xbdbb8b06	-0.09157376
71	0x3e67fbee	0.22654697
72	0xbe6181fe	-0.22022244
73	0x3e141f56	0.14465079
74	0x3e1cea58	0.1532377
75	0xbe4116de	-0.1885638
76	0xbd63f398	-0.05565223
77	0x3e27a14c	0.16370124
78	0xbd73c212	-0.05951125
79	0xbd01c7a4	-0.031684533
80	0x3e0a8f3a	0.13531199
81	0xbc9e23e3	-0.019304221
82	0x3ca4e97e	0.020130869
83	0x3e5e281f	0.21694992
84	0xbd964275	-0.073368944
85	0xbe7dc4d8	-0.24782121
86	0x391aa8c6	0.00014749457
87	0xbddf126c	-0.108921856
88	0xbda0347e	-0.07822512
89	0xbea3954c	-0.31949842
90	0xbd42d30c	-0.04756455
91	0x3df95aae	0.12175499
92	0x3decf675	0.115704454
93	0x3e65ad74	0.22429448
94	0x3e23e928	0.16006911
95	0xbcbc4ee0	-0.02298683
96	0x3bcba340	0.0062145293
97	0xbd8675c0	-0.06565428
98	0x3e2a5881	0.16635324
99	0x3e80c1cd	0.25147858
100	0x3eb6bc08	0.3569033
101	0x3e9ef46e	0.3104586
102	0x3dfb0507	0.12256818
103	0xbddcf720	-0.10789323
104	0xbe936ee3	-0.28795537
105	0x3dfcb7ba	0.123397306
106	0x3e8f68a3	0.2800952
107	0xbabdfe00	-0.0014495254
108	0xbde39ee9	-0.11114294
109	0x3e47ba84	0.19504744
110	0xbe564902	-0.20926288
111	0xbdafc374	-0.085822016
112	0xbe557b2d	-0.20847769
113	0xbbd3427a	-0.0064471336
114	0x3df795b4	0.120891005
115	0xbe5cd447	-0.21565352
116	0x3e0ed458	0.1394819
117	0xbb33bc7f	-0.0027425585
118	0xbe20be1e	-0.15697524
119	0xbe37dd38	-0.17955482
120	0xbd306a40	-0.043070078
121	0xbd33d438	-0.04390356
122	0xbe4d7820	-0.20065355
123	0xbe45b44b	-0.19307058
124	0xbd0f518c	-0.03498988
125	0x3b3d8300	0.0028917193
126	0xbdd008a0	-0.10157895
127	0x3dac8218	0.08423251
128	0xbe4e16e2	-0.20125917
129	0xbc773e90	-0.0150906
130	0x3e495d16	0.19664416
131	0xbdbacaf4	-0.091207415
132	0x3e4ec37e	0.20191762
133	0x3da5d8dc	0.08098003
134	0xbe4ea3b7	-0.2017964
135	0x3e10def0	0.14147544
136	0xbcd360c8	-0.025802985
137	0xbdcc6e38	-0.0998196
138	0x3e37196c	0.17880791
139	0xbe390843	-0.18069558
140	0x3e2414c9	0.16023554
141	0x3dfcc71a	0.12342663
142	0x3db062ed	0.086126186
143	0xbd2bea1f	-0.041971322
144	0x3d24fb04	0.04027845
145	0x3e9c4c62	0.30527025
146	0x3d87cd78	0.06630987
147	0xbd409e0c	-0.047025725
148	0xbe3cb154	-0.1842702
149	0x3ef9fc42	0.4882527
150	0x3e35ccc2	0.1775389
151	0x3e6d2e3d	0.2316217
152	0xbe8eb7b3	-0.27874526
153	0xbda80d3d	-0.0820565
154	0xbe216940	-0.15762806
155	0xbdfc17a9	-0.123092
156	0xbe056c8e	-0.13029692
157	0x3e7fb74d	0.24972267
158	0xbe7628aa	-0.2403895
159	0xbddbec1e	-0.10738395
160	0x3b768c3b	0.0037620205
161	0x3e0dcf3c	0.13848585
162	0xbe2d15e7	-0.16902886
163	0xbe1d3169	-0.1535088
164	0xbe04f4be	-0.12983987
165	0x3e1a7df1	0.15087105
166	0xbdb031b2	-0.08603229
167	0x3e4122ee	0.18860981
168	0x3da598d4	0.0808579
169	0x3cb9f5d0	0.02270022
170	0xbada2c80	-0.0016645342
171	0xbd4c336b	-0.049853723
172	0x3ce5d3e0	0.028055131
173	0xbd5123b0	-0.051059425
174	0xbacdef80	-0.0015711635
175	0x3ce9b920	0.028530657
176	0xbe331aa8	-0.17490637
177	0xbdfb9bbc	-0.12285563
178	0x3e38e4f2	0.18056086
179	0xbe39d294	-0.18146735
180	0xbc8388a0	-0.016056359
181	0x3e628262	0.2212005
182	0x3da56d64	0.08077505
183	0x3bcf7420	0.006330982
184	0xbe466e3b	-0.19377987
185	0x3de2db50	0.11076987
186	0xbe2317e4	-0.15927082
187	0xbd81fea6	-0.063473985
188	0xbd99a60a	-0.075023726
189	0xbd07a1dc	-0.033113346
190	0x3b204b00	0.0024458766
191	0x3e3cdbe4	0.18443257
192	0x3ce4ada0	0.027914822
193	0x3e4d16fc	0.20028299
194	0x3e0c10dc	0.13678306
195	0xbe10c29a	-0.14136735
196	0x3dcd6418	0.10028857
197	0xbe21dc41	-0.15806676
198	0xbdc216de	-0.09477018
199	0x3d86b148	0.065767825
200	0x3e22909e	0.1587548
201	0x3e983de6	0.29734725
202	0xbe0fc575	-0.14040168
203	0xbdd1a832	-0.10237159
204	0x3d4fb1b9	0.0507066
205	0xbd0cc72f	-0.034369644
206	0x3e6af022	0.22943166
207	0xbe3d57dc	-0.18490547
208	0x3b49f900	0.0030818582
209	0x3e9bb6b8	0.3041284
210	0xbdf1302b	-0.117767654
211	0x3d5f8b3b	0.05457614
212	0x3a7f8432	0.00097471767
213	0xbe4cc95c	-0.19998688
214	0xbe07f0ac	-0.13275403
215	0xbda95dd2	-0.08269848
216	0xbe62f252	-0.2216275
217	0x3e6fc87c	0.23416322
218	0xbe5262b5	-0.20545466
219	0xbe7f799d	-0.24948736
220	0xbdc24a83	-0.09486868
221	0x3d84d485	0.064858474
222	0x3e7c857b	0.24660294
223	0x3e905a1a	0.28193742
224	0x3e610095	0.21972878
225	0xbe5822d7	-0.2110704
226	0xbc93bf44	-0.018035538
227	0x3d874a8c	0.066060156
228	0x3e3c395c	0.18381256
229	0xbdc97a9b	-0.09837838
230	0xbdd8ace5	-0.10579852
231	0xbd1f6823	-0.038917672
232	0x3d2857f4	0.041099504
233	0x3e8d7745	0.27630058
234	0xbe007ef0	-0.12548423
235	0xbe4c25a9	-0.19936241
236	0x3e48c806	0.19607553
237	0xbe64381b	-0.22287028
238	0x3dc5e280	0.09662342
239	0x3e30b387	0.17255984
240	0x3d1e0acd	0.03858452
241	0xbe68c33e	-0.22730729
242	0xbcec81fd	-0.028870577
243	0x3e9b0706	0.30278796
244	0x3e4d9695	0.20076974
245	0x3d506a90	0.050882876
246	0xbcf36225	-0.029709885
247	0x3d86e404	0.06586459
248	0xbd51716c	-0.05113356
249	0xbe352541	-0.17689992
250	0xbe0b7474	-0.13618642
251	0x3e17efeb	0.14837615
252	0x3eae5ade	0.340537
253	0x3e78ffbf	0.2431631
254	0xbd4dfc84	-0.050289646
255	0xbe0d2560	-0.13783789

network.3.bias f4 [20]
0	0xbe5c1c4e	-0.21495172
1	0xbe5e7c01	-0.21726991
2	0xbda02283	-0.078190826
3	0x3e825523	0.2545558
4	0xbe1a7504	-0.150837
5	0x3e999cad	0.30002347
6	0xbdb7306c	-0.089447826
7	0x3e3350a6	0.17511234
8	0x3b94e3c8	0.004543755
9	0xbe4e783b	-0.20163052
10	0x3e79c697	0.24392162
11	0x3e2e8d1d	0.17046018
12	0x3e8ce0b8	0.27515197
13	0x3da1f695	0.0790836
14	0xbe1b0738	-0.15139472
15	0x3e33825d	0.17530198
16	0xbd10da1a	-0.035364248
17	0x3e4c8e27	0.19976102
18	0xbe0f6a55	-0.14005406
19	0x3d0c36d3	0.034231972

network.6.weight f4 [20, 20]
0	0xbe60d2e5	-0.2195545
1	0xbdb25de8	-0.087093174
2	0x3d16802d	0.03674333
3	0xbe4d6666	-0.20058593
4	0x3e270dda	0.16313878
5	0x3dd72257	0.10504597
6	0x3cff2f50	0.03115049
7	0xbe48eaa2	-0.19620755
8	0xbe31870e	-0.17336676
9	0xbd8d48c0	-0.068986416
10	0x3d4e879b	0.050422292
11	0x3ea44e85	0.32091156
12	0x3e72f0a5	0.23724611
13	0xbcbb640b	-0.022874853
14	0x3e270825	0.163117
15	0xbe2ab916	-0.16672167
16	0xbe097d98	-0.13426816
17	0x3e127b95	0.14304955
18	0xbcd6f3ed	-0.02623936
19	0x3e6c85ee	0.23097965
20	0xbe21a3c0	-0.15785122
21	0xbde2d375	-0.110754885
22	0xbe5e871e	-0.2173123
23	0x3d5f2e98	0.054487795
24	0x3dc1f11d	0.09469817
25	0x3de000a1	0.1093762
26	0x3e0db48a	0.13838401
27	0x3d39e35f	0.045382854
28	0x3beb9ce0	0.007190332
29	0xbd8d9648	-0.069134295
30	0xbde6555e	-0.11246751
31	0x3e16df50	0.14733624
32	0x3e703dd9	0.23461093
33	0xbe32a555	-0.17445882
34	0x3e7bd2d0	0.24592137
35	0xbc1dda14	-0.009634513
36	0xbe1de048	-0.15417588
37	0xbdedc880	-0.11610508
38	0x3ea21649	0.31657627
39	0x3ea7b4df	0.3275518
40	0xbe5417e7	-0.20712243
41	0x3e217e98	0.15770948
42	0x3dbb45e0	0.09144187
43	0x3dc53b39	0.096304365
44	0x3e9dcb7e	0.30819315
45	0xbe1cf2a8	-0.15326941
46	0x3d909bc4	0.0706096
47	0x3d0690cf	0.032852944
48	0xbd8751fa	-0.06607433
49	0x3d9940d8	0.07483071
50	0xbde76377	-0.11298268
51	0x3e844a47	0.2583792
52	0x3d83bf8b	0.06433018
53	0xbd5b6570	-0.053563535
54	0x3e06d42c	0.13166875
55	0x3e023c04	0.12718207
56	0xbd213aaf	-0.039362606
57	0x3d8a613a	0.06756826
58	0x3e807399	0.25088194
59	0x3dd0a5ae	0.10187851
60	0x3d8b5e64	0.06805113
61	0xbd5ce6cc	-0.053931043
62	0x3da08298	0.07837409
63	0xbe25ddf2	-0.16197947
64	0xbe06a497	-0.13148724
65	0xbde8730d	-0.11350069
66	0x3e526dd4	0.20549709
67	0xbd7673cc	-0.060169026
68	0xba200c00	-0.0006105304
69	0xbddddf86	-0.10833649
70	0x3e6494f2	0.22322443
71	0x3e5fa1a6	0.21839008
72	0xbe2cb04b	-0.16864125
73	0xbe399f2f	-0.1812713
74	0xbe2d8f69	-0.16949238
75	0xba8d5900	-0.001078397
76	0xbd697700	-0.056998253
77	0xbe15df9f	-0.14636086
78	0xbda440b2	-0.08020152
79	0x3d2d0a60	0.042246222
80	0xbdef45de	-0.11683248
81	0x3d4af230	0.049547374
82	0xbc8682a1	-0.01641971
83	0x3d2c64c3	0.04208828
84	0xbd96a634	-0.073559195
85	0x3eae0e84	0.3399545
86	0xbe1acddc	-0.15117592
87	0x3e37a3db	0.179336
88	0xbd9fa2db	-0.07794734
89	0x3e60b168	0.21942675
90	0xbda81511	-0.08207143
91	0xbea01a72	-0.31270176
92	0x3debe399	0.1151802
93	0xbc3fb7fa	-0.011701578
94	0x3bc23b8b	0.005927508
95	0x3d3b2f7b	0.045699578
96	0xbbf40ff0	-0.007448189
97	0x3d4336cd	0.047659684
98	0x3d1b282b	0.037880104
99	0xbdcfd662	-0.10148312
100	0xbe5eee8a	-0.21770683
101	0xbe072d40	-0.13200855
102	0xbd0b3f40	-0.033995867
103	0x3e9030aa	0.28162128
104	0xbe6b752a	-0.22993913
105	0x3ec5231e	0.38503355
106	0xbd4bff10	-0.049803793
107	0x3e144150	0.1447804
108	0x3e38878d	0.18020459
109	0x3de62ae4	0.112386495
110	0x3eaf5c90	0.34250307
111	0x3d482597	0.048863973
112	0xbe1e20a9	-0.15442146
113	0x3bc7b5c9	0.0060946685
114	0xbcaa8f3c	-0.020820253
115	0x3e9373e5	0.28799358
116	0xbaa525f0	-0.0012599807
117	0xbd9868eb	-0.074418865
118	0x3c0c43a1	0.008561046
119	0x3e060c40	0.1309061
120	0xbd825ea8	-0.063657105
121	0xbe3d9868	-0.1851517
122	0xbe24c775	-0.16091712
123	0x3e6ad5c3	0.22933106
124	0xbdc8cbef	-0.09804522
125	0x3d82f9f4	0.06395331
126	0x3d392198	0.045198053
127	0x3e8c4fd7	0.27404663
128	0x3e3b3bc4	0.18284518
129	0x3e31c556	0.17360434
130	0x3dfb7007	0.12277227
131	0xbe8ba828	-0.2727673
132	0xbe91a643	-0.2844716
133	0x3eb616ba	0.35564214
134	0x3dbd96fd	0.09257314
135	0x3e4cb8cb	0.19992368
136	0xbe08b3e2	-0.1334987
137	0x3eaa14a8	0.33218884
138	0x3e0387fb	0.12844841
139	0x3dfe2f51	0.12411369
140	0xbe412893	-0.18863134
141	0xbdaccb44	-0.08437207
142	0xbe2d86c9	-0.16945948
143	0x3e3234e6	0.17402992
144	0x3cb34d97	0.021887584
145	0xbe0f3fae	-0.13989136
146	0x3defec98	0.117150486
147	0xbe276d24	-0.16350228
148	0xbde18c84	-0.11013129
149	0xbca03aa8	-0.01955922
150	0xbd8c282a	-0.06843598
151	0xbd6148d4	-0.055001095
152	0x3e9f96c5	0.31169716
153	0xbd648e61	-0.055799846
154	0x3e1e13c8	0.15437233
155	0x3e765a6c	0.2405793
156	0x3e3d6a4b	0.18497579
157	0x3d9c6d2f	0.076380126
158	0x3e9e6b9b	0.3094147
159	0x3e1d6cdc	0.15373558
160	0xbdd3df41	-0.10345317
161	0x3e589bd2	0.2115319
162	0x3d58c630	0.05292338
163	0xbe5f67a9	-0.21816887
164	0xbd825fa2	-0.06365897
165	0xbe1bf81e	-0.15231368
166	0x3e48c0ca	0.19604793
167	0xbd17418c	-0.036927745
168	0xbe50b705	-0.20382316
169	0xbc664df0	-0.014056668
170	0x3e0fcc58	0.14042795
171	0x3d6df310	0.05809313
172	0x3d90ce08	0.07070547
173	0x3caa1fb8	0.020767078
174	0x3daabb28	0.083364785
175	0xbd5f28c4	-0.054482237
176	0xbdb62bda	-0.08895083
177	0xbe5605fa	-0.20900717
178	0xbe2c7e7c	-0.16845125
179	0x3dc679ac	0.09691176
180	0xbe079404	-0.13240057
181	0x3d036668	0.032080084
182	0x3de4b482	0.11167242
183	0x3e36d441	0.17854406
184	0xbe604d7c	-0.21904558
185	0x3ec34a68	0.38142705
186	0xbe0525dc	-0.13002723
187	0x3eb95a7f	0.36201856
188	0xbe30d790	-0.1726973
189	0xbd5c5118	-0.053788275
190	0x3e8b4d10	0.27207232
191	0xbe1ebac8	-0.15500939
192	0x3def572a	0.11686547
193	0xbc3a65f6	-0.011376848
194	0xbe31469f	-0.17312096
195	0x3c2f789f	0.010709911
196	0x3dbdfd16	0.09276788
197	0x3ea76c8b	0.327
198	0xbe3787a2	-0.17922834
199	0x3b4f26f4	0.0031608911
200	0xbd659ef4	-0.056059793
201	0xbd469f70	-0.048491895
202	0x3e18a7ae	0.14907715
203	0xbe5257ba	-0.20541278
204	0x3e1142a1	0.14185573
205	0x3e399b69	0.1812569
206	0xbcfbb5b8	-0.030726299
207	0x3df33ead	0.11877189
208	0xbd8d071e	-0.06886123
209	0x3e38509c	0.179995
210	0xbe85bb21	-0.2611933
211	0x3db339ee	0.087512836
212	0x3db14d58	0.0865733
213	0x3dfaab9e	0.12239765
214	0x3e296369	0.16541828
215	0x3e65baa8	0.22434485
216	0x3d3ef8e0	0.046624064
217	0x3d348de8	0.044080645
218	0x3e8c0c00	0.27352905
219	0x3d80eb32	0.0629486
220	0x3e48b9ca	0.19602123
221	0xbe187408	-0.14888012
222	0xbcc637a8	-0.02419646
223	0xbc888e05	-0.016669283
224	0x3dbe6a1d	0.09297583
225	0x3e177442	0.14790443
226	0xbd112c2c	-0.035442516
227	0xbe429749	-0.19003023
228	0x3de2e8b8	0.11079544
229	0x3d88fc84	0.066887885
230	0x3dafbe87	0.08581262
231	0xbe13b9d4	-0.14426357
232	0x3e0d80d1	0.13818671
233	0x3e53e39c	0.20692295
234	0x3c7518c5	0.014959519
235	0xbe5aec33	-0.21379165
236	0x3e1ba15d	0.15198274
237	0xbe2efb09	-0.1708795
238	0x3d3b9d72	0.04580445
239	0x3d051878	0.03249404
240	0xbdd655f7	-0.10465615
241	0x3d9f747c	0.077858895
242	0xbe4ccd1f	-0.20000122
243	0x3d0d03fb	0.034427624
244	0xbe0f7d35	-0.14012606
245	0xbd26ec76	-0.04075285
246	0x3ceb9ee0	0.028762281
247	0x3e325a68	0.174173
248	0xbdda7ee4	-0.10668734
249	0x3e12b048	0.14325058
250	0xbd376230	-0.044771373
251	0xbdd59439	-0.10428662
252	0xbe449d56	-0.19200644
253	0xbe647035	-0.22308429
254	0x3e4cf64e	0.20015833
255	0xbd94d222	-0.07266642

network.6.bias f4 [20]
0	0x3e330068	0.17480624
1	0x3e572cbb	0.21013157
2	0x3d911de9	0.07085783
3	0xbc741780	-0.014898181
4	0x3e964321	0.2934809
5	0x3c0beffb	0.0085411025
6	0x3dbdecf7	0.09273713
7	0xbd9d5c33	-0.07683601
8	0xbcfcdcb8	-0.030866966
9	0x3e200f3c	0.15630811
10	0x3d727dcf	0.05920201
11	0xbd4031d2	-0.046922512
12	0xbe764545	-0.24049862
13	0x3ac9d997	0.001539993
14	0x3cdb246f	0.026750771
15	0x3dbbb5c4	0.091655284
16	0x3e1a634a	0.15076938
17	0x3e735fbe	0.23766991
18	0xbe07d88c	-0.132662
19	0xbcba7797	-0.022762103

network.9.weight f4 [1, 20]
0	0xbe35abb2	-0.17741278
1	0xbe8d2e48	-0.27574372
2	0xbe825750	-0.2545724
3	0x3e56e7ce	0.20986864
4	0x3e168793	0.14700155
5	0x3e925d5a	0.28586847
6	0x3e959183	0.2921258
7	0xbe89bc70	-0.2690158
8	0x3cc05f70	0.023483008
9	0x3eb91c46	0.36154383
10	0xbe5f6f1c	-0.21819729
11	0x3e45f983	0.19333462
12	0x3cf909c0	0.030400157
13	0x3e1564d4	0.14589244
14	0xbe4356f3	-0.19076137
15	0x3e67119b	0.2256531
16	0xbe36d68f	-0.17855285
17	0xbdac1711	-0.08402837
18	0x3d98bfa8	0.074584305
19	0x3d044fd8	0.032302707
