experiments/exp_sim_binary/saved_models/run_0/bootstrapped/propensity_2.pt (torch, 6529 bytes, 7 tensors)

network.0.weight f4 [20, 1]
0.29831308 0.31953394 -0.021329284 0.8755932 0.14572144 -1.1286656 -0.91471773 -1.083576
0.17615691 0.78728294 -0.13193047 1.0268539 -0.30524945 0.2910705 1.1591026 0.698423
-0.03190291 1.0792233 -0.72734195 0.41128388
00000000: 7ebc 983e f499 a33e c0ba aebc e026 603f
00000010: 0038 153e 1d78 90bf f12a 6abf 9eb2 8abf
00000020: 7a62 343e 608b 493f c818 07be f36f 833f
00000030: a849 9cbe 3107 953e 795d 943f dacb 323f
00000040: a0ac 02bd fd23 8a3f 1533 3abf cd93 d23e

network.0.bias f4 [20]
0.6803403 -0.61919165 -0.9393436 0.277554 -0.3793888 -0.3433387 0.3281937 -0.67788166
0.91349137 -0.0037680476 -0.32025242 0.90138996 0.3532426 0.25537795 -0.31943053 1.0026983
-0.30456865 0.95069265 0.05859582 0.34408125
00000000: c82a 2e3f 5883 1ebf d278 70bf 8f1b 8e3e
00000010: 403f c2be 17ca afbe 0109 a83e a789 2dbf
00000020: 92da 693f 59f1 76bb 20f8 a3be 7ec1 663f
00000030: 37dc b43e e6c0 823e 668c a3be 6b58 803f
00000040: 6cf0 9bbe 9860 733f 2c02 703d 6b2b b03e

network.3.weight f4 [20, 20]
0.23082986 -0.1664758 -0.14903465 -0.34590623 0.1612792 0.3173483 0.0650054 0.23419836
0.13364913 -0.02111244 0.05519408 -0.09069626 -0.014677412 0.17094891 -0.36563978 -0.1761612
-0.089280054 -0.008015129 0.21907224 0.103091866 -0.12953514 -0.08581802 -0.09943341 -0.10828371
-0.18833804 0.045772225 -0.06502874 -0.2152229 -0.13056786 -0.13428617 -0.09645565 -0.13816758
-0.038777724 0.080132365 -0.18096809 -0.01915519 -0.06435174 -0.114320815 -0.049651504 -0.09477155
0.0071884543 -0.16141057 0.042404532 0.20530063 0.1852831 -0.100256145 0.06892192 -0.21135406
0.18826425 -0.22283866 -0.19982089 -0.20071597 -0.20765333 0.030283034 -0.05912894 0.053519726
-0.013835475 -0.0048033297 -0.08078498 -0.13266474 -0.18721604 0.112828344 -0.11529152 -0.045476884
0.10860464 -0.05537887 -0.056379035 -0.14906648 -0.19131811 0.107323855 -0.050449744 0.14060506
0.014717028 -0.00028401613 -0.20187244 0.0049367994 -0.050534412 -0.12759772 -0.051751062 0.011689886
-0.16848376 0.037182152 0.15558895 0.044172883 0.21344447 0.10434437 -0.17634727 -0.088014826
-0.05380939 0.06689033 -0.0063776076 0.17993563 0.025975555 -0.14161254 -0.081977785 -0.18603218
-0.061655 0.10993782 0.0021592677 -0.21323241 -0.19348647 0.08106777 -0.19626026 -0.17835322
-0.13331771 0.21312374 -0.063581645 -0.09219338 -0.15098219 0.14304286 -0.036105514 0.043119192
0.053417414 0.063063085 0.14312816 0.011603728 0.023129344 -0.0145210475 -0.17375752 -0.051172048
0.33165428 -0.15847513 -0.14112028 -0.03259397 0.013558999 -0.16558586 -0.15752478 0.13258821
0.19792499 0.36656603 0.038288444 -0.056734633 -0.041743066 -0.05281893 0.20311768 0.19852349
-0.06201826 0.352273 -0.1948503 -0.06640823 0.28207976 -0.19316407 0.19027403 -0.018612027
-0.20380671 0.29796612 0.05559722 0.22569075 -0.09903109 -0.3083628 0.049785584 -0.20603311
0.18982463 -0.016207336 -0.16606402 -0.0073612174 0.07732737 0.0034994362 0.17198265 -0.05099201
-0.15380703 0.02847746 -0.14272346 -0.13861606 -0.21501313 -0.07127416 -0.14941145 0.17413446
0.1611419 0.053054035 0.18168166 0.10766983 -0.21064265 -0.022373006 -0.036296368 -0.13576585
0.063685656 -0.06979065 -0.10692404 -0.0026066601 -0.14866948 0.18506846 0.14149404 0.21166477
-0.03960523 0.07302886 -0.008993924 -0.18503006 0.10116354 -0.15618756 -0.08071786 -0.10013654
-0.21814388 0.008020416 0.03663212 -0.016623884 0.1644524 0.0107213855 -0.040729612 -0.121964745
-0.13280123 -0.03179033 -0.13123578 -0.14750737 -0.029574782 -0.039481327 -0.13649467 0.13065115
0.18963575 -0.15246144 0.097941846 -0.10375587 -0.023217991 0.20873794 0.028612733 -0.21320319
0.20555922 -0.009460673 -0.11196752 -0.11808899 0.19292296 0.003773883 0.12350583 0.23496799
-0.08678885 -0.20410468 -0.2498643 0.18672368 -0.13158691 0.29071793 0.05665502 0.1758038
-0.22088031 0.028960396 0.36856592 0.0050457083 -0.0032083988 0.15017025 -0.2721681 -0.029081386
0.21468692 0.10966766 0.20768207 0.14044452 0.05298114 0.0063806376 -0.08220858 -0.22887649
0.26509455 0.2362103 0.090966135 0.25580192 0.089322895 0.15416591 0.29053336 -0.07142029
00000000: aa5e 6c3e a278 2abe 8a9c 18be 9f1a b1be
00000010: 6026 253e 7a7b a23e 8d21 853d b2d1 6f3e
00000020: 51db 083e fff3 acbc 3013 623d f6be b9bd
00000030: 8779 70bc 3b0d 2f3e 2335 bbbe 9a63 34be
00000040: 76d8 b6bd e351 03bc 7954 603e d421 d33d
00000050: dca4 04be 5cc1 afbd bea3 cbbd dac3 ddbd
00000060: b0db 40be a87b 3b3d ca2d 85bd 6463 5cbe
00000070: 95b3 05be 5082 09be 8a8a c5bd cd7b 0dbe
00000080: 64d5 1ebd 701c a43d b34f 39be 58eb 9cbc
00000090: d8ca 83bd 0821 eabd 605f 4bbd 9617 c2bd
000000a0: 208d eb3b d048 25be 60b0 2d3d 543a 523e
000000b0: daba 3d3e 1853 cdbd f026 8d3d 336d 58be
000000c0: 58c8 403e d12f 64be d99d 4cbe 7d88 4dbe
000000d0: 13a3 54be 2014 f83c 3031 72bd 8037 5b3d
000000e0: 30ae 62bc 4065 9dbb 9872 a5bd 44d9 07be
000000f0: 90b5 3fbe 8c12 e73d f61d ecbd f845 3abd
00000100: 1c6c de3d f4d4 62bd b4ed 66bd e2a4 18be
00000110: e5e8 43be 9ccc db3d 64a4 4ebd c6fa 0f3e
00000120: b01f 713c 00e8 94b9 a6b7 4ebe e0c4 a13b
00000130: 2cfd 4ebd faa8 02be ecf8 53bd f086 3f3c
00000140: 0287 2cbe 504c 183d b652 1f3e a0ee 343d
00000150: 3091 5a3e 80b2 d53d 6194 34be 1e41 b4bd
00000160: 3c67 5cbd ccfd 883d 40fb d0bb 0c41 383e
00000170: b0ca d43c e102 11be f8e3 a7bd 387f 3ebe
00000180: f489 7cbd 1427 e13d 8082 0d3b 9959 5abe
00000190: 5121 46be dc06 a63d 73f8 48be 3aa2 36be
000001a0: 7084 08be 1c3d 5a3e 1837 82bd e2cf bcbd
000001b0: 139b 1abe d479 123e 60e3 13bd c09d 303d
000001c0: 38cc 5a3d 3827 813d 3090 123e 901d 3e3c
000001d0: c079 bd3c b0e9 6dbc 7eed 31be c899 51bd
000001e0: 97ce a93e 4e47 22be d681 10be 4181 05bd
000001f0: 9026 5e3c 578f 29be 2d4e 21be 34c5 073e
00000200: d9ac 4a3e 8bae bb3e 58d4 1c3d 9362 68bd
00000210: c7fa 2abd aa58 58bd 15fe 4f3e be49 4b3e
00000220: dc06 7ebd 205d b43e d686 47be 0a01 88bd
00000230: c26c 903e cdcc 45be 32d7 423e 4078 98bc
00000240: b5b2 50be 048f 983e e9b9 633d 7a1b 673e
00000250: d0d0 cabd bbe1 9dbe f8eb 4b3d 58fa 52be
00000260: 6361 423e 3fc5 84bc b00c 2abe 5e36 f1bb
00000270: d05d 9e3d cc56 653b 381c 303e ffdc 50bd
00000280: 977f 1dbe 9049 e93c 1926 12be 5ef1 0dbe
00000290: 672c 5cbe 30f8 91bd 51ff 18be 4e50 323e
000002a0: 6202 253e 304f 593d c20a 3a3e 0082 dc3d
000002b0: b5b2 57be 9847 b7bc 80ab 14bd 3406 0bbe
000002c0: a06d 823d 66ee 8ebd fefa dabd 80d4 2abb
000002d0: d03c 18be 9682 3d3e d0e3 103e a6be 583e
000002e0: 1839 22bd 2890 953d 405b 13bc 8578 3dbe
000002f0: d42e cf3d a2ef 1fbe 684f a5bd 6314 cdbd
00000300: 1c61 5fbe 1068 033c 900b 163d d02e 88bc
00000310: 3666 283e c0a8 2f3c 18d4 26bd a7c8 f9bd
00000320: 0cfd 07be 9436 02bd ac62 06be 2c0c 17be
00000330: d046 f2bc 2cb7 21bd 42c5 0bbe 6ac9 053e
00000340: e02f 423e da1e 1cbe bc95 c83d f57d d4bd
00000350: a833 bebc 66bf 553e 4065 ea3c f051 5abe
00000360: 1e7e 523e f000 1bbc 3a4f e5bd a4d8 f1bd
00000370: 998d 453e 4053 773b a0f0 fc3d 739b 703e
00000380: 5abe b1bd d100 51be 6ddc 7fbe 7e34 3f3e
00000390: b8be 06be fbd8 943e 180f 683d e905 343e
000003a0: 732e 62be 5a3e ed3c acb4 bc3e 7856 a53b
000003b0: 0044 52bb 3bc6 193e 9e59 8bbe 163c eebc
000003c0: e3d6 5b3e 7099 e03d 9caa 543e b0d0 0f3e
000003d0: c002 593d ab14 d13b f95c a8bd 995e 6abe
000003e0: 79ba 873e 1de1 713e 744c ba3d 78f8 823e
000003f0: ecee b63d abdd 1d3e cac0 943e cd44 92bd

network.3.bias f4 [20]
0.23503983 0.007599488 -0.12556304 -0.046904787 -0.19899549 -0.194607 0.051654145 0.25039807
0.06677905 0.042165726 -0.05926214 0.18009584 0.09348184 0.11026544 0.108871356 0.10239043
0.19707847 0.13849372 0.21636616 0.14672208
00000000: 48ae 703e 2005 f93b 9993 00be 3c1f 40bd
00000010: 79c5 4bbe 0f47 47be 4c93 533d 2d34 803e
00000020: 74c3 883d f8b5 2c3d dcbc 72bd 0b6b 383e
00000030: 6873 bf3d d9d2 e13d f2f7 de3d 13b2 d13d
00000040: f0ce 493e 4cd1 0d3e 178f 5d3e 503e 163e

network.6.weight f4 [20, 20]
0.24477637 -0.06724556 0.15284362 0.062770694 0.16875166 -0.034912646 -0.22491482 0.19733673
0.09094474 0.18067893 0.086668044 0.0308021 0.1495973 -0.100975476 0.35556123 0.08900138
0.30492613 0.11453806 -0.2228714 0.06611784 0.36991662 -0.15708849 -0.019164637 -0.1364658
-0.05399449 0.033323646 0.04404742 0.0950049 -0.21173826 0.12073943 0.12545025 -0.10191538
0.16380075 0.13234797 0.114432625 0.0052528623 0.20281808 -0.0886468 -0.09252161 -0.18445086
-0.23520179 0.11167222 -0.066397876 -0.10727276 0.19697407 0.035751104 0.31190014 0.10180613
-0.031499535 0.033354074 0.20731461 -0.0057354383 0.08336074 0.17236784 -0.120655105 0.21454832
0.004838569 -0.0715132 0.17605 0.35940173 0.0376971 -0.15163381 -0.17148444 0.13366291
-0.20509928 -0.108740196 0.12836936 0.020514704 0.1818403 -0.104528144 0.03537464 -0.009979634
-0.0018443656 0.12992112 0.35524657 -0.12149583 0.2921476 0.014939 -0.01022319 -0.19005552
0.06633031 0.1623022 -0.19193047 -0.20651296 -0.21982425 0.051666856 -0.06424999 -0.06945844
0.20821336 -0.05703436 -0.14200091 0.020113721 -0.12272914 -0.06551553 0.118115634 0.051607072
-0.1534436 0.21288222 0.15128401 -0.15242937 0.097399235 0.091884315 -0.16044928 -0.1571494
-0.18515183 0.09960562 0.038957864 0.09450045 -0.09821385 0.16813529 0.028552115 -0.17842196
-0.056282 0.11411482 0.049167275 -0.034207925 -0.1562244 -0.13909872 0.19286811 -0.12808998
0.32051766 -0.0748447 0.0022350848 -0.21774605 -0.07268655 0.18849593 -0.2083508 0.2742941
-0.188184 0.032613665 -0.20273004 -0.21513188 -0.13026932 -0.04874723 0.1947835 -0.08521433
0.22051561 0.08982789 0.23137847 0.16951756 0.035859946 -0.065844044 -0.020607382 0.19784164
0.11123517 -0.059298873 0.32989323 -0.30637473 0.19137791 0.12510934 -0.16400692 0.004062388
0.34600258 0.3858728 -0.086730264 0.0838577 0.006730207 0.124754496 0.15338391 0.35272846
0.14493623 0.055745363 0.11610299 -0.20945168 -0.10473937 0.024511427 0.06080827 -0.030569434
0.08443111 0.0681172 -0.20665829 0.07052967 -0.018180415 -0.15387398 0.0075462908 -0.05499369
-0.11874414 -0.20375879 0.1870611 -0.13579562 0.20054325 0.17913139 -0.02817054 -0.14655502
-0.21633011 0.037153065 -0.08277631 0.18767524 0.07142475 -0.06335549 0.1516163 -0.077138186
0.0015925189 -0.09401176 0.23991844 -0.04215166 0.2222972 -0.0730835 0.24591827 -0.12134465
-0.11015368 -0.028897747 -0.13657492 0.08524874 -0.081906974 0.09174034 0.12977529 0.13057181
-0.041050017 0.12203032 -0.118406065 -0.22279048 -0.021280631 -0.16212983 -0.17323446 0.056840003
0.19107738 -0.087996736 -0.01264894 -0.16200188 0.07791255 0.06374964 -0.03432481 0.17012665
-0.17996489 -0.030001014 -0.29204303 0.2621621 0.18939817 0.21995169 0.20572814 0.08542973
-0.24939165 -0.31898922 0.095360816 -0.2960347 0.18888845 0.060320538 0.008906974 -0.35105568
0.15553439 -0.023665547 -0.093833864 0.11674732 0.018896043 -0.09946932 0.015748784 -0.14911397
0.2078233 0.19599074 0.1031234 0.09211319 -0.25241074 -0.1495738 -0.22278461 -0.15034238
00000000: a8a6 7a3e 0ab8 89bd 0a83 1c3e ec8d 803d
00000010: 3ccd 2c3e 9000 0fbd 1250 66be a412 4a3e
00000020: 3c41 ba3d e603 393e 047f b13d b054 fc3c
00000030: 0930 193e 3bcc cebd 1f0c b63e 5b46 b63d
00000040: 471f 9c3e ee92 ea3d 6638 64be ca68 873d
00000050: b665 bd3e cedb 20be 28ff 9cbc b1bd 0bbe
00000060: 5429 5dbd 607e 083d 116b 343d ee91 c23d
00000070: ead1 58be 3c46 f73d 0876 003e 03b9 d0bd
00000080: 62bb 273e 3a86 073e a75b ea3d 3420 ac3b
00000090: 8baf 4f3e 748c b5bd f87b bdbd b0e0 3cbe
000000a0: bdd8 70be 68b4 e43d 9cfb 87bd d2b1 dbbd
000000b0: 92b3 493e c06f 123d 60b1 9f3e bb7f d03d
000000c0: a805 01bd 489e 083d 484a 543e 58f0 bbbb
000000d0: 09b9 aa3d 3281 303e 061a f7bd 8eb2 5b3e
000000e0: dc8c 9e3b 8375 92bd 7446 343e 8103 b83e
000000f0: 4668 1a3d e545 1bbe 9e99 2fbe eede 083e
00000100: 8c05 52be 2eb3 debd 4273 033e 740e a83c
00000110: 5834 3a3e da12 d6bd 00e5 103d 9e81 23bc
00000120: a4be f1ba 0b0a 053e e1e2 b53e ced2 f8bd
00000130: 5f94 953e b5c2 743c 2b7f 27bc ea9d 42be
00000140: 30d8 873d 8c32 263e 6c89 44be 2278 53be
00000150: 9c19 61be a0a0 533d 8095 83bd 3a40 8ebd
00000160: e235 553e dc9c 69bd b068 11be 88c5 a43c
00000170: 6a59 fbbd 022d 86bd 9ce6 f13d f061 533d
00000180: 5220 1dbe ccfd 593e 32ea 1a3e 7216 1cbe
00000190: 4079 c73d d82d bc3d d14c 24be c6eb 20be
000001a0: 7198 3dbe 08fe cb3d 4892 1f3d 7489 c13d
000001b0: 5824 c9bd a82b 2c3e 20e6 e93c 3fb4 36be
000001c0: f487 66bd 08b5 e93d a063 493d 9c1d 0cbd
000001d0: 4af9 1fbe e56f 0ebe 387f 453e 052a 03be
000001e0: e41a a43e 2e48 99bd 807a 123b d2f8 5ebe
000001f0: b0dc 94bd 1405 413e ea59 55be 4770 8c3e
00000200: 4eb3 40be e895 053d 7798 4fbe 884b 5cbe
00000210: 5265 05be 2dab 47bd 5375 473e da84 aebd
00000220: d8ce 613e aff7 b73d 7aee 6c3e 0396 2d3e
00000230: e1e1 123d 3ed9 86bd d0d0 a8bc 0097 4a3e
00000240: 44cf e33d 60e3 72bd c4e7 a83e 26dd 9cbe
00000250: 92f8 433e aa1c 003e 6ef1 27be c81d 853b
00000260: 4027 b13e 1f91 c53e a39f b1bd 96bd ab3d
00000270: 1189 dc3b 497f ff3d ac10 1d3e d398 b43e
00000280: 2a6a 143e 4055 643d 68c7 ed3d 807a 56be
00000290: 9881 d6bd 30cc c83c 1812 793d c06c fabc
000002a0: 38ea ac3d 0881 8b3d 3b9e 53be dc71 903d
000002b0: 18ef 94bc 2491 1dbe e046 f73b 1041 61bd
000002c0: 2130 f3bd 25a6 50be f28c 3f3e 020e 0bbe
000002d0: 365b 4d3e 386e 373e e8c5 e6bc 8512 16be
000002e0: a485 5dbe d02d 183d a086 a9bd f02d 403e
000002f0: 2447 923d 86c0 81bd 4e41 1b3e a0fa 9dbd
00000300: 11bc d03a 3d89 c0bd 2ead 753e 38a7 2cbd
00000310: e1a1 633e cdac 95bd 00d2 7b3e 8b83 f8bd
00000320: 4198 e1bd f8ba ecbc 4cda 0bbe e496 ae3d
00000330: d8be a7bd 5ce2 bb3d d0e3 043e 9eb4 053e
00000340: 1024 28bd 08eb f93d e17e f2bd 3023 64be
00000350: b854 aebc 5d05 26be 6064 31be 10d1 683d
00000360: caa9 433e a237 b4bd 803d 4fbc d2e3 25be
00000370: 9d90 9f3d 2c8f 823d 2c98 0cbd ae35 2e3e
00000380: b748 38be b0c4 f5bc aa86 95be 1c3a 863e
00000390: 98f1 413e 043b 613e 66aa 523e c8f5 ae3d
000003a0: 8660 7fbe 8e52 a3be 884c c33d dc91 97be
000003b0: f96b 413e ab12 773d 8fee 113c 92bd b3be
000003c0: 6844 1f3e 40de c1bc f82b c0bd 3819 ef3d
000003d0: e0cb 9a3c 92b6 cbbd 9803 813c 55b1 18be
000003e0: a2cf 543e ccb1 483e 5c32 d33d d7a5 bc3d
000003f0: fb3b 81be e029 19be a621 64be 5af3 19be

network.6.bias f4 [20]
0.21622612 0.033405557 0.16664952 0.15409656 -0.17128289 -0.18497102 0.19144757 0.21683082
-0.10411919 0.16430861 -0.21893586 0.013259332 0.027783047 0.12405385 0.06718988 0.18894148
-0.07477082 0.2775986 -0.19259912 -0.1371277
00000000: 616a 5d3e 44d4 083d 2ca6 2a3e 7dcb 1d3e
00000010: c864 2fbe 0b69 3dbe d50a 443e e608 5e3e
00000020: 713c d5bd 8440 283e b930 60be ab3d 593c
00000030: 4699 e33c f20f fe3d d99a 893d e079 413e
00000040: 7221 99bd 6721 8e3e b438 45be 346b 0cbe

network.9.weight f4 [1, 20]
-0.23344877 -0.3186945 0.30023673 -0.13001831 -0.17564915 0.046378195 -0.30656835 0.15429726
0.106298655 -0.19499728 0.114950895 -0.18556191 -0.15755078 0.20707941 0.29088542 -0.18585451
0.0076381 0.15335278 0.019228414 0.04376334
00000000: 320d 6fbe ed2b a3be a1b8 993e 8523 05be
00000010: 5fdd 33be 10f7 3d3d 87f6 9cbe 1a00 1e3e
00000020: 1cb3 d93d 5ead 47be 606b eb3d f103 3ebe
00000030: fe54 21be a00c 543e efee 943e a550 3ebe
00000040: 0749 fa3b 8308 1d3e e884 9d3c 3041 333d
