experiments/exp_sim_binary/saved_models/run_0/bootstrapped/propensity_1.pt (torch, 6529 bytes, 7 tensors)

network.0.weight f4 [20, 1]
000000 09 0f 8f bf 40 df e0 bd 3e 61 c6 3e ad e0 7e bf
       -1.1176463 -0.109800816 0.38746065 -0.9956158
000010 0e 65 3f 3f 3f 0a 01 bf bf 1b 03 bf c8 cc 5b bf
       0.7476357 -0.5040626 -0.5121421 -0.85859346
000020 f0 84 0d 3f 46 0b 62 bf 93 ce a4 be 4c 72 e3 3e
       0.5528097 -0.8829845 -0.32188854 0.4442314
000030 84 47 59 3f 6b cd d1 3e 67 7f 88 be 30 a0 91 be
       0.8487475 0.40977034 -0.266597 -0.28442526
000040 60 85 34 3f ee 99 ce 3e 1a 04 80 3f e0 cf c0 3e
       0.70516014 0.40351814 1.0001252 0.37658596

network.0.bias f4 [20]
000000 89 96 4b 3f 7a 49 4e bf 1f 71 3c 3f 16 3e c0 be
       0.79526573 -0.80580866 0.7361011 -0.37547368
000010 53 7e e9 bd 5b dc 85 3d 04 d5 e2 bd 9e 71 9c 3e
       -0.114010476 0.0653617 -0.11075786 0.30555433
000020 7a ca 73 3f 1b bf 02 bf b3 5e 98 3e 90 bf 4d bf
       0.9523083 -0.51072854 0.2975975 -0.80370426
000030 e0 f0 9a 3e a1 b3 5e 3f 69 2a 1b 3f 9b 60 53 3f
       0.30261898 0.8699284 0.6061159 0.82569283
000040 31 34 1f 3f ef 25 4b bd 8c 64 b8 3e 0c f1 d5 be
       0.6218901 -0.049596723 0.3601421 -0.41785467

network.3.weight f4 [20, 20]
000000 d5 77 89 3e cc 4b e5 3d 22 c0 2f be ac 4d d8 3e
       0.26849237 0.11196098 -0.17163137 0.4224676
000010 20 05 c8 bd 20 4c d5 3d 6c 98 17 3e 13 a2 37 3d
       -0.097666025 0.1041491 0.14804238 0.0448323
000020 95 12 0d bc 5e fa 87 3e 55 87 23 be 1e e4 eb bd
       -0.008610387 0.26558203 -0.15969594 -0.11518119
000030 50 6b a3 bd 65 51 24 3e a9 ad 50 3e 9a 76 be bd
       -0.079794526 0.16046675 0.20378746 -0.09299965
000040 7f c8 7a bd 86 42 06 be 95 d7 25 be b8 0e 21 bd
       -0.061226364 -0.13111314 -0.1619552 -0.039320678
000050 78 e5 9e bd 34 f8 ff 3d fb 1c e3 bd b0 e9 0c 3d
       -0.077586114 0.12498513 -0.11089512 0.03440255
000060 84 36 01 be 70 ed 8e bd d8 40 34 3e 96 d2 e0 bd
       -0.12618452 -0.06978881 0.17602861 -0.10977666
000070 00 4b 5c bc 44 ae 5a 3e 7c bd 9c 3d 28 18 e9 bd
       -0.013445616 0.2135554 0.07653329 -0.113815606
000080 f0 79 09 be 10 97 a0 bd d8 67 8f bd 4c 62 c7 3d
       -0.13425422 -0.07841313 -0.070022285 0.097355455
000090 38 a0 4b bd 3c 1d 41 3e 56 44 fb bd a0 33 8f bd
       -0.049713343 0.18858808 -0.122688934 -0.069922686
0000a0 a4 77 64 3c e2 de 36 3e 3c 05 a3 3e 3d 89 6b bd
       0.01394454 0.1785846 0.3183993 -0.057503927
0000b0 ae 08 99 3e 88 73 1d be b8 79 a6 3c 3c 02 41 be
       0.29889435 -0.15376103 0.020321712 -0.18848509
0000c0 cc 36 5f 3d 7d 46 d8 be e7 bd 74 be 5c f8 ff 3d
       0.054495618 -0.42241278 -0.23900567 0.12498543
0000d0 7c ee 29 3e 06 a6 91 3e dd 46 40 3e 93 0c 05 3e
       0.16594881 0.28446978 0.18777032 0.12993078
0000e0 47 7d 60 3e 96 db 30 3e 51 22 89 3e 38 36 dc 3d
       0.2192279 0.17271265 0.26783994 0.10752529
0000f0 7d 82 70 3a 00 83 d3 bb 20 fb 04 3d bb 0d 83 3d
       0.00091747177 -0.0064548254 0.032466054 0.06399103
000100 0a cf e5 3d 73 d6 3f 3d ff 86 fb bd 30 ca 9a 3d
       0.1122113 0.046835374 -0.12281608 0.075580955
000110 43 60 e6 bd 3d 26 80 bc c6 29 3a be 32 bb 34 3e
       -0.11248829 -0.015643233 -0.18179998 0.17649534
000120 0c 61 09 bd e7 27 ef 3d b2 38 24 3d 73 b9 ae 3d
       -0.033539817 0.11677533 0.04009313 0.085314654
000130 c7 ed ea 3d 1e d7 b1 3e d9 b3 96 3e c0 68 34 3d
       0.11471134 0.34734434 0.29434088 0.04404521
000140 c0 b5 9b 3d c4 0a 33 be 80 ab 75 bd 70 17 a6 3c
       0.076030254 -0.17484576 -0.05997801 0.020274848
000150 b0 ef dd 3c 0a cb a1 bd 6d fd 62 be 00 30 6e bd
       0.027091831 -0.07900055 -0.22166987 -0.058151245
000160 20 52 af 3d 86 29 45 3e 06 c5 4e be bc a3 da 3d
       0.08560586 0.19254121 -0.20192346 0.10675761
000170 50 44 59 be b7 f7 5a be b0 64 0f be d0 f2 f1 bc
       -0.21217465 -0.21383558 -0.14003253 -0.029534727
000180 b0 cd 7f 3d 05 23 2e be 04 69 30 3e c0 0f 4f 3e
       0.06245202 -0.17005546 0.1722756 0.20220852
000190 00 6a 03 3c 72 61 3a 3e 57 37 06 bb f2 cc 24 be
       0.008020878 0.18201235 -0.0020479762 -0.16093805
0001a0 b0 97 7c 3e bd 14 03 3a c1 67 76 be d8 5e 4d be
       0.24667239 0.00050003437 -0.24063016 -0.20055711
0001b0 a8 d5 47 3e f2 1e a6 bd d9 29 85 3e f8 b5 ba bd
       0.19515097 -0.08111371 0.2600849 -0.09116739
0001c0 00 36 5c 3e f1 b9 38 3c ec 2f 2e 3e 58 41 3f 3d
       0.21504974 0.011274801 0.17010468 0.046693176
0001d0 e9 79 92 3e b0 c6 ad 3e 81 7d a4 3e 38 56 eb 3d
       0.28608635 0.3394065 0.32127002 0.11491054
0001e0 b8 45 4a bd ac 52 45 3e d6 1c 53 bd e4 84 6a 3d
       -0.049382895 0.19269818 -0.051541172 0.05725564
0001f0 fb 67 f9 3e 0a 83 10 3e 8c 3c 98 be 3b ac 46 be
       0.48712143 0.14112487 -0.29733694 -0.19401638
000200 e8 0b d6 3d f2 47 0d be 22 1e c6 3d 8c 3f ba 3d
       0.1045149 -0.13796976 0.09673716 0.09094152
000210 4b 8b ac 3e 46 63 c4 3c cf 78 87 bd 23 ca a8 3d
       0.33700022 0.023973119 -0.06614839 0.082416795
000220 3e d3 3b 3e 2d aa 9b 3d 3d 8e 2b 3e 15 d9 2d be
       0.18342301 0.07600818 0.16753478 -0.16977341
000230 fb cb 9b bd 56 bb b3 bd 74 e0 6f 3e 11 97 3a be
       -0.076072656 -0.08775966 0.23425466 -0.1822169
000240 a3 07 bf 3d 1b f2 58 be d9 58 0a 3d 0b 28 30 be
       0.093276285 -0.21186106 0.033776138 -0.17202775
000250 c9 50 f1 3d d1 d3 b8 be 52 73 0c be 2c f4 e9 bd
       0.11782987 -0.36099103 -0.13715866 -0.11423525
000260 16 0e e3 3d 17 bf 7b 3e 2a 2a 64 3e 2e fa b9 bb
       0.11086671 0.24584614 0.2228171 -0.0056755757
000270 ab b6 25 be 39 75 95 3d d3 1b 04 bc 80 ce 42 bd
       -0.16182964 0.07297749 -0.008063274 -0.047560215
000280 e8 f9 ae 3d 70 74 e6 3d c0 0a cb 3d 24 d2 82 3d
       0.085437596 0.112526774 0.0991416 0.063877374
000290 be 63 b9 bd c0 74 1b bb 80 20 e9 3c 2e ea e9 bd
       -0.090522274 -0.0023720711 0.02845788 -0.11421619
0002a0 68 dd a3 bc f8 a8 e4 bc 43 56 58 be ea 39 1b 3e
       -0.020003036 -0.027912602 -0.21126656 0.15158811
0002b0 b8 32 b9 bc 31 f0 45 be 5e 28 35 3e c3 68 f6 bd
       -0.022607192 -0.19329907 0.1769118 -0.120317005
0002c0 1c 22 a2 3d 64 13 63 3e a0 98 29 3c c0 c0 83 3d
       0.07916662 0.22175366 0.01035133 0.064332485
0002d0 b4 3d 57 3e 58 0e 2d 3e 77 27 d1 bc 86 7b f3 3d
       0.21019632 0.16900003 -0.025531514 0.118887946
0002e0 1e 58 09 be c3 af 9e 3e e2 b5 77 3e 47 30 91 3e
       -0.1341252 0.3099347 0.24190477 0.28357145
0002f0 14 ce ce 3c 70 cf e6 3e c0 df e1 3d 20 e7 c6 3b
       0.02524475 0.45080137 0.11029005 0.0060700327
000300 c0 c7 96 be 30 c4 1b be 8d 86 e4 3d 36 ca 52 3e
       -0.29449272 -0.15211558 0.11158476 0.2058495
000310 83 2e cf 3d cc 1c 8e bd 82 0c 2f 3c c0 87 bf 3d
       0.10116293 -0.06939086 0.010684134 0.09352064
000320 6a a9 45 be 99 40 49 be 99 88 31 be 80 f2 7b 3b
       -0.19302908 -0.19653548 -0.17337264 0.0038444102
000330 9c c8 10 be 86 8c 92 bd d4 07 09 bd 5c ac b2 3d
       -0.14139026 -0.07155709 -0.03345473 0.08724281
000340 b0 5b 54 3d be 69 54 3e 28 88 4e 3e 3a 13 12 be
       0.051845253 0.20743462 0.20169127 -0.14265147
000350 00 aa 38 ba e0 3e 17 3d b6 e4 47 3e 64 ed 8d bd
       -0.0007044375 0.036925197 0.1952084 -0.06930044
000360 5c f9 b3 bd 6b 0b 11 be b8 b8 28 3e 64 bd 81 bd
       -0.08787796 -0.14164512 0.16476715 -0.063349515
000370 38 83 ab bd e0 de 1a 3e 66 b1 52 3e 50 63 1a bc
       -0.08374637 0.15124083 0.20575485 -0.009423092
000380 9c 67 21 be 68 90 3a 3e b6 9e 9c bd 81 08 d3 bd
       -0.1576218 0.18219149 -0.07647459 -0.10304356
000390 48 f9 20 be 1e 3e dc bd ee 52 33 be ac 2a 04 be
       -0.15720093 -0.107540354 -0.17512104 -0.12906903
0003a0 cb 95 50 be d0 99 38 bd 08 21 b8 3d cb d1 2d be
       -0.20369641 -0.045068562 0.08990675 -0.16974561
0003b0 00 b8 a3 b9 8e df a8 bd 0c 82 dd 3d 98 51 46 3e
       -0.00031226873 -0.08245765 0.1081582 0.19367063
0003c0 2a d8 39 3d 05 7c e6 bd a5 e4 13 be 38 98 a7 3d
       0.045372166 -0.112541236 -0.1444269 0.0818333
0003d0 08 8c 12 3d e6 dd 13 3e 44 35 9d 3e 31 ea 4c 3d
       0.035778075 0.14440116 0.307047 0.05002803
0003e0 06 b2 06 3e 24 43 1b 3e 4a 01 f1 3d 2e 49 5e 3e
       0.13153848 0.15162331 0.11767824 0.21707603
0003f0 b3 a7 83 be 80 55 b7 bd 38 63 4a 3e f2 f2 b6 3c
       -0.25713882 -0.08951855 0.19764411 0.022332642

network.3.bias f4 [20]
000000 20 df 4c 3e b8 ad d5 3d c8 36 8c bd d0 0c 3a 3e
       0.2000699 0.10433525 -0.06846386 0.1816895
000010 a9 4f 46 be 5b 24 84 bd 41 5d 79 bd 68 f8 8f 3c
       -0.19366325 -0.06452247 -0.06087995 0.017574504
000020 98 77 24 3d e2 8c a1 3b 22 08 59 be 30 72 d3 bc
       0.040153116 0.0049301246 -0.21194509 -0.025811285
000030 b6 e6 56 3e 34 8f 83 3e 49 5f 59 3e e7 9b 54 3d
       0.20986447 0.25695193 0.21227755 0.051906493
000040 a7 1b c1 3c 8b 84 30 be 9d 7a 3f 3e 80 8d 27 be
       0.023572756 -0.17238061 0.18699117 -0.16362572

network.6.weight f4 [20, 20]
000000 f9 45 e7 bd b4 b1 70 bd a2 27 94 3e 04 87 c5 3d
       -0.11292643 -0.05876322 0.28936487 0.09644893
000010 57 99 d0 bd 69 6e 2c 3e 85 68 ae bc 90 80 b9 3c
       -0.10185497 0.16838993 -0.021290073 0.022644311
000020 a0 a8 7d 3d 67 01 71 bd a8 5f c0 bc 5e f1 0b 3e
       0.06192839 -0.058839228 -0.023483112 0.13666293
000030 7f 95 49 be a5 12 86 3c 6e a5 b3 3e a8 f2 da 3d
       -0.19685934 0.016366312 0.3508715 0.10690814
000040 eb 95 51 3d c8 35 ed 3d 5d c0 29 3e f0 0c a0 bd
       0.051168364 0.115825236 0.16577287 -0.07814968
000050 f4 c0 be bd b4 b5 15 bd c8 48 a6 3d e8 d9 e9 bc
       -0.09314147 -0.03655024 0.08119351 -0.028546289
000060 3c 43 05 3e 72 b9 3a be e5 ae e0 bd 34 8e 2e 3e
       0.13013929 -0.18234804 -0.109708585 0.17046434
000070 70 4f f0 3c 58 6f 38 3d d4 9d 96 3d 5c 6b 58 bd
       0.029334754 0.04502806 0.07354322 -0.05283676
000080 ec 22 b7 bd b0 60 83 3d 78 bd 72 bd 44 2d bd bd
       -0.08942208 0.06414926 -0.059262723 -0.09237149
000090 e0 02 f2 3c a0 89 5d 3d 20 65 a5 bc 86 da 1a be
       0.029542387 0.054086328 -0.020189822 -0.15122423
0000a0 b4 c0 a2 bd f8 c3 01 be 1f 87 a7 3d b3 41 3e be
       -0.079469115 -0.12672412 0.08180069 -0.1857975
0000b0 9a 91 36 3e d3 ad 5a 3d bd 22 68 be d1 81 02 3e
       0.1782898 0.053388428 -0.22669502 0.12744834
0000c0 a6 70 62 be a9 e7 71 bd 0e f6 0e be e9 fa 44 be
       -0.22113284 -0.05905882 -0.1396105 -0.1923634
0000d0 50 e6 69 bc 8c e1 13 be 9e 11 01 3e 4e f2 61 be
       -0.014276102 -0.14441508 0.12604377 -0.22065088
0000e0 8e 91 16 3e 92 23 0a 3e 4a 9a 1e 3e e7 a4 e3 bd
       0.14703962 0.13490131 0.15488544 -0.11115437
0000f0 09 ca 1c be 34 1f 18 be 6e fe 4e 3e 33 26 ca bd
       -0.15311445 -0.14855653 0.20214245 -0.09870567
000100 10 8b e1 bc ea da 8d bc b5 e9 7d 3d 6a 47 31 be
       -0.02753213 -0.0173163 0.06199046 -0.17312399
000110 56 a1 38 3e 00 64 44 be 7a 35 61 3e f4 2f b3 bd
       0.18030295 -0.19178772 0.21993056 -0.08749381
000120 ab da d3 bd d2 0d 70 bc fd 5d a8 3d a0 30 2a bd
       -0.10344442 -0.0146517325 0.08221052 -0.04155028
000130 9a b1 4b be 5e 0e 21 3e ed 59 66 3e c0 cc bf 3d
       -0.19891968 0.15728137 0.22495241 0.09365225
000140 5a ad b2 3e 88 a0 79 3d 01 57 a2 bd 98 f0 23 be
       0.34897882 0.06094411 -0.07926751 -0.16009748
000150 b5 1f 48 be 43 3c 65 be 10 4b 0e be 4c 60 da 3d
       -0.19543345 -0.2238627 -0.13895822 0.106628984
000160 04 f1 bc bd 77 be 0c 3e 40 d1 4e bb d0 ac 15 be
       -0.092256576 0.13744532 -0.0031557828 -0.14616704
000170 12 91 fc 3d eb 1f 23 3e a4 41 ce 3d bb 4f 89 3e
       0.123323575 0.15930144 0.10071114 0.26818642
000180 55 4b 41 ba 60 f2 81 3b 44 ee 85 3e ca e0 aa 3d
       -0.0007373591 0.003965661 0.26158345 0.08343656
000190 68 03 fa bd 34 e8 43 3e a9 2e 13 3e 36 82 27 bd
       -0.12207681 0.19131547 0.14373268 -0.040895663
0001a0 24 ef 40 3e 4f 9a 2b 3e 01 7a 89 3e 63 4a b4 bd
       0.18841225 0.16758083 0.26850894 -0.08803251
0001b0 c0 f6 29 3d 75 0f b8 3d a4 21 04 bd 46 26 02 be
       0.041495085 0.08987323 -0.032258645 -0.12709913
0001c0 43 f4 1c 3e 84 3c 71 3e 72 cd 4c 3e 4a 23 bd 3d
       0.15327553 0.23558241 0.20000246 0.092352465
0001d0 e5 2d 1b 3e 02 4f 03 3e b4 8a 2f 3b 93 1c 2b be
       0.15154226 0.12823108 0.0026785554 -0.16710119
0001e0 15 89 6d 3e 38 5b 74 3d 1e c9 be 3c 31 e8 b6 3c
       0.23196824 0.059657305 0.02328926 0.022327514
0001f0 10 16 f3 bc fc b1 c7 bd c5 e8 b4 bc a0 e2 57 be
       -0.029673606 -0.09750745 -0.02208365 -0.21082544
000200 b2 6a 55 be 96 05 7a 3e 3f ba fa bd 50 18 9a bc
       -0.20841482 0.24416193 -0.12242555 -0.018810421
000210 02 bb 50 3e c6 22 b6 bc 9f 80 61 3d e1 df 15 3e
       0.20383838 -0.022233378 0.055054303 0.14636184
000220 13 a5 92 3d 08 f7 a3 bc e6 0c 38 3e 3e 70 81 3e
       0.07160392 -0.020015255 0.1797367 0.25280946
000230 2a 7c f3 3d 7c f4 58 be b5 62 e4 bd 57 aa 6b be
       0.11888917 -0.21187013 -0.11151639 -0.23014198
000240 ac 94 b6 bd b5 58 e2 3d 40 00 61 be 65 ac 53 be
       -0.08915076 0.11052076 -0.21972752 -0.20671232
000250 b2 94 04 3e 4a 0a 2a be 4e 59 27 3e f4 b0 8e 3d
       0.12947348 -0.16605487 0.16342661 0.06967345
000260 4e a5 ac 3c 7c ac 18 3e c7 77 5c be 32 33 04 3e
       0.021074917 0.14909548 -0.21530066 0.12910154
000270 d4 82 94 3d f0 6f 19 be 32 fa 8e 3c 62 43 c5 bd
       0.07251516 -0.14984107 0.017453287 -0.09631993
000280 1a 58 e3 bd 88 63 c6 bc b7 7a ec bd da 0d 38 3e
       -0.111007884 -0.024217382 -0.115468435 0.17974034
000290 ee 13 45 3e 28 69 c3 bc a1 69 53 be f0 1e 60 bc
       0.19245884 -0.023853853 -0.20645763 -0.013679251
0002a0 d0 0d 72 3c aa 1e 03 3e a0 be eb 3b 98 48 85 3d
       0.014773801 0.12804666 0.007194355 0.06507987
0002b0 2e 40 11 3d b4 bf 11 be 75 07 0e be 91 4c 63 be
       0.035461597 -0.14233285 -0.13870032 -0.22197177
0002c0 80 27 e6 ba f0 d6 8d 3d 98 fa 25 bd c5 43 48 3e
       -0.0017559379 0.06925762 -0.040522188 0.19557102
0002d0 5d f1 37 bd 4a 69 15 be 3f 7b 23 3e 7d 62 19 3d
       -0.044907916 -0.14590946 0.15964983 0.03744744
0002e0 58 1e fb bc d7 30 b1 3e d3 bb 21 3e 96 52 8d 3e
       -0.030654117 0.34607574 0.15794306 0.2760207
0002f0 80 a0 f4 3c 75 46 f1 bd bc df 27 3e 09 6e 02 be
       0.029861689 -0.11781017 0.16393942 -0.12737288
000300 d5 4b 0d bc 3b 39 36 3e 44 6f 70 3e a3 ed 12 be
       -0.008624037 0.17795269 0.23479944 -0.14348464
000310 9f 58 c9 3d 94 24 6d bd 0d f2 32 3e 26 c8 60 3d
       0.09831356 -0.05789621 0.17475148 0.054878376
000320 40 fe 6b 3e 28 ac 09 3e 37 63 08 bd cf dd b0 3d
       0.23046207 0.13444579 -0.033297744 0.08636057
000330 d8 b1 37 3e cc 01 43 be b5 bb 39 be 1a 44 21 3d
       0.17938936 -0.19043654 -0.18138011 0.039371587
000340 c4 67 b5 bd 0e 89 2c 3e 12 44 4a 3e f0 58 d4 bc
       -0.08857682 0.16849157 0.1975253 -0.025921315
000350 de 81 58 bd d0 06 99 bd e8 9f 42 3e e3 eb 99 3d
       -0.052858226 -0.074720025 0.19006312 0.07515695
000360 50 63 33 bd 4c 22 ce 3d ff c5 43 3e 58 09 f5 bc
       -0.043795884 0.10065135 0.19118498 -0.029911682
000370 43 16 0e 3e ca f0 00 3e 99 8a 2e 3e 36 d3 83 3d
       0.1387568 0.12591854 0.17045058 0.0643677
000380 06 66 9a bd 26 5e 8a bd 40 ed 8b 3d d5 9f 40 bd
       -0.07538991 -0.06756239 0.06832361 -0.047027428
000390 68 90 33 3d 84 de 8d be 8f 5f e2 bd 6c 1a aa 3d
       0.04383889 -0.27708828 -0.110533826 0.08305821
0003a0 da ac a4 bd 51 b5 10 be 69 db 41 be 2f c4 b9 3d
       -0.08040781 -0.14131667 -0.18931355 0.09070622
0003b0 56 53 24 bd 50 f9 60 be 12 7d 0e 3e d5 7d 3e 3d
       -0.040118538 -0.21970105 0.13914898 0.04650672
0003c0 f7 e7 e2 bd a8 1c 27 be a4 5d af 3e 1b 68 ec 3d
       -0.110794 -0.16319525 0.3425113 0.11543294
0003d0 b0 b5 09 be 0d 74 84 3e 51 a0 ef 3d 05 75 c8 3d
       -0.13448215 0.2586979 0.117005 0.09787945
0003e0 52 8f ee bd 8f 40 41 be 00 11 18 be b8 22 c9 bc
       -0.1164843 -0.18872283 -0.14850235 -0.024552688
0003f0 dd d5 15 be 7f 8d b4 3e 90 4e 0b 3e 16 51 b1 3c
       -0.14632364 0.35264203 0.13604188 0.02164511

network.6.bias f4 [20]
000000 b8 35 bc 3d 56 36 97 bd 11 87 3c be 60 d7 1a be
       0.091899335 -0.07383411 -0.18410899 -0.15121222
000010 5d 5f 1c 3e 7f ab a7 3c 73 5d 64 3c 23 86 1e 3d
       0.15270753 0.020467518 0.013938296 0.03870214
000020 8b 25 1d be 79 d7 d6 3d 98 9f 53 3e ff f4 29 be
       -0.15346353 0.10490317 0.20666349 -0.16597365
000030 6f 8d 2d 3e 79 33 b9 3d 2b f6 19 3e 63 bf 6a 3e
       0.16948484 0.09043021 0.15035312 0.2292457
000040 48 53 18 3e ea 90 c7 3d 77 1b 45 be 5c 55 b6 3d
       0.1487552 0.09744437 -0.19248758 0.08903

network.9.weight f4 [1, 20]
000000 22 c1 7c 3e 7e 56 a6 bd 17 44 55 be 4c 40 fb 3d
       0.2468305 -0.08121966 -0.20826755 0.12268123
000010 7f cf de bd 88 7e 2e 3e 10 7c 45 be 64 ca fb 3d
       -0.108794205 0.17040455 -0.19285607 0.12294462
000020 7c aa 4a 3e b5 28 83 3e 47 75 1d be 7a ef 12 3e
       0.19791597 0.25616995 -0.15376769 0.14349166
000030 5c d2 56 3e e5 c7 24 3e 55 08 44 be 87 f9 68 be
       0.20978683 0.16091879 -0.19143803 -0.22751437
000040 f9 f5 bb be ef 3d 86 3e 8c 56 62 3e 52 61 05 3e
       -0.367111 0.26219127 0.22103328 0.13025406
