experiments/exp_sim_binary/saved_models/run_0/bootstrapped/y_0.pt (torch, 3447 bytes, 6 tensors)

y_transform.nn.layers.0.weight f4 [10, 2]
0	0xbd765f40	-0.06014943
1	0xbd326900	-0.043557167
2	0xbf98cda9	-1.1937762
3	0xbebc9386	-0.368313
4	0x3f506808	0.8140874
5	0xbfacf875	-1.3513323
6	0x3ec2ef6f	0.38073298
7	0xbe8f8f55	-0.2803904
8	0xbe28a304	-0.16468436
9	0x3c768f40	0.015048802
10	0xbfc97421	-1.5738565
11	0xbf401b10	-0.75041294
12	0xbf5656fa	-0.83726466
13	0x3ee00642	0.43754774
14	0xbf97a75c	-1.1847949
15	0x3f57634c	0.8413589
16	0x3f059707	0.52183574
17	0xbef55fd4	-0.47924674
18	0x3e0ab168	0.13544238
19	0xbf0dfd08	-0.5546422

y_transform.nn.layers.0.bias f4 [10]
0	0xbf1a1b0a	-0.6019751
1	0x3e86db88	0.26339364
2	0x3eab0fa7	0.3341038
3	0xbec865e2	-0.3914023
4	0xbf2e9805	-0.68200713
5	0xbf2321ba	-0.6372334
6	0x3e40575f	0.1878333
7	0xbf7415db	-0.9534585
8	0xbf2fdaa2	-0.6869298
9	0xbe14082f	-0.14456247

y_transform.nn.layers.1.weight f4 [10, 10]
0	0xbe69477e	-0.22781178
1	0xbe83b892	-0.25726753
2	0xbdaed63c	-0.08536956
3	0x3c6e05fa	0.014527792
4	0xbe932091	-0.28735784
5	0xbd93d8cf	-0.07219087
6	0xbe9c0849	-0.3047507
7	0xbe5ba6c8	-0.21450341
8	0xbd360e48	-0.044447213
9	0xbe379ef1	-0.17931725
10	0xbe607b70	-0.21922088
11	0xbd0b7ecc	-0.03405647
12	0xbe6dd86b	-0.23227088
13	0xbe756658	-0.23964822
14	0x3e38aac0	0.18033886
15	0x3c9b8e08	0.018988624
16	0x3df8d847	0.12150627
17	0xbe26f82e	-0.1630561
18	0xbe1c689a	-0.15274277
19	0xbcefbec0	-0.029265761
20	0x3ad1b400	0.0015999079
21	0x3ec94eb6	0.39317864
22	0xbf8c4bf2	-1.0960677
23	0xbd1f8332	-0.038943477
24	0x3e0f3dc2	0.13988402
25	0xbf9c6ab8	-1.2220068
26	0xbd77e34b	-0.060519498
27	0x3ebbbc52	0.36667114
28	0xbe9b2371	-0.30300477
29	0x3c950fa9	0.018195944
30	0xbe7ab1e6	-0.24481925
31	0x3d32b119	0.043625925
32	0x3c55438e	0.013016595
33	0x3d90e9f4	0.07075873
34	0xbe99449a	-0.2993515
35	0xbe84632d	-0.25856915
36	0xbdcb013e	-0.09912346
37	0xbe8e071b	-0.27739796
38	0xbe8aa867	-0.27081606
39	0xbe3f4147	-0.18677245
40	0x3e8e3397	0.27773735
41	0x3dec4275	0.11536113
42	0x3f27708d	0.65406114
43	0xbe855c35	-0.2604691
44	0xbdcbab2e	-0.09944759
45	0xbfbe30dc	-1.4858661
46	0xbd4af02a	-0.049545445
47	0xc00b0523	-2.1721885
48	0xbe6c4814	-0.2307437
49	0x3dd7e8f0	0.10542476
50	0xbb6e3180	-0.0036345422
51	0xbe050bf7	-0.12992845
52	0xbe38eca9	-0.18059029
53	0xbdd6e8fe	-0.104936585
54	0x3e7f3dc6	0.24925908
55	0xbe68210e	-0.2266886
56	0xbe66ab46	-0.22526273
57	0xbdc7cec0	-0.09756231
58	0x3bb44380	0.0055012107
59	0x3db04b38	0.08608097
60	0x3c1b7960	0.009489387
61	0xbdd965fb	-0.10615154
62	0xbe4458bd	-0.19174476
63	0xbd6869d8	-0.056741565
64	0xbe025a8c	-0.12729853
65	0x3e66df8b	0.22546212
66	0xbeacfa33	-0.33784637
67	0xbe6d4c02	-0.23173526
68	0xbe83ba2e	-0.2572798
69	0xbd6cb820	-0.057792783
70	0x3e7c5796	0.24642786
71	0x3d9d9ca4	0.076958925
72	0xbe642a5c	-0.22281784
73	0xbc607ac0	-0.013701141
74	0x3e3e11da	0.18561497
75	0x3d869b54	0.06572595
76	0x3d7127d2	0.058875866
77	0xbdfe5566	-0.12418632
78	0xbe599209	-0.21247114
79	0x3e32019e	0.1738343
80	0xbdde1554	-0.10843912
81	0xbfd60c5f	-1.6722525
82	0x3e9a88d5	0.3018252
83	0x3e5377be	0.20651147
84	0x3e919ff3	0.28442344
85	0x3e188a1b	0.14896433
86	0xbf141ae2	-0.5785352
87	0x3e290011	0.16503932
88	0xbe05e33f	-0.13074969
89	0xbdbffb1e	-0.09374069
90	0x3e9b59f1	0.30342057
91	0xbce4cb10	-0.027928859
92	0xbe56cd16	-0.20976672
93	0xbe101862	-0.14071801
94	0xbe32dd7c	-0.17467302
95	0x3e041d2e	0.12901756
96	0xbe8d3998	-0.27583003
97	0xbe96f6cf	-0.29485175
98	0xbe9f9a6d	-0.31172505
99	0x3e0b6940	0.13614368

y_transform.nn.layers.1.bias f4 [10]
0	0xba86bdc5	-0.0010279944
1	0xbea240db	-0.31690106
2	0x3dd12cc6	0.10213618
3	0xbcfa0f8b	-0.03052499
4	0xbc355459	-0.011067473
5	0xbd89070c	-0.06690797
6	0xbbda5c5b	-0.0066638417
7	0xbe8a63e4	-0.27029335
8	0x3e553c66	0.20823821
9	0xbe5be026	-0.21472225

y_transform.nn.layers.2.weight f4 [15, 10]
0	0x3db26715	0.087110676
1	0x3e26ef2a	0.16302171
2	0xbedf8086	-0.43652743
3	0x3e12e7f7	0.143463
4	0x3f174e8f	0.59104246
5	0xbdff50ec	-0.124666065
6	0xbdf2d4c0	-0.11856985
7	0x3d8be2c4	0.068303615
8	0xbf61d044	-0.88208413
9	0x3e000e5e	0.1250548
10	0x3db7d1d2	0.08975567
11	0x3ece3651	0.40275815
12	0x3e1f7d34	0.15575105
13	0xbe749d63	-0.23888163
14	0xbe02a4cc	-0.12758178
15	0x3de948f0	0.11390865
16	0xbea60cff	-0.3243179
17	0xbd1b4923	-0.037911545
18	0x3d28cb2d	0.04120939
19	0xbe67fd76	-0.22655281
20	0xbdbd95c5	-0.09257082
21	0x3dfe3ecd	0.12414322
22	0x3d39e452	0.04538376
23	0x3e3ca25f	0.18421315
24	0x3ed15f3a	0.40892965
25	0x3e1392ee	0.14411518
26	0xbea04d2b	-0.31308874
27	0x3e0a8dc3	0.1353064
28	0x3e43b777	0.19112955
29	0x3e7afac6	0.24509725
30	0xbe9b7f20	-0.30370426
31	0x3e224be8	0.15849268
32	0xbbb87f8c	-0.005630439
33	0xbe667932	-0.2250717
34	0xbddeefd0	-0.10885584
35	0x3e8a378f	0.26995513
36	0xbe4cc740	-0.19997883
37	0x3dcf8ad1	0.10133899
38	0x3e861ce4	0.26193917
39	0x3da9bd14	0.08288017
40	0x3ed8b121	0.4232264
41	0x3e8fd3b0	0.28091192
42	0x3dea41fd	0.114383675
43	0x3dc1b6bf	0.09458684
44	0xbc9ef275	-0.019402722
45	0xbe96e27b	-0.29469666
46	0xbe10033a	-0.14063731
47	0x3d84bcfb	0.06481358
48	0x3c15685b	0.009119119
49	0x3e958ddb	0.2920979
50	0x3e47121d	0.19440503
51	0x3d18e8f6	0.037331544
52	0x3e4d885f	0.20071553
53	0xbe54853b	-0.20753948
54	0xbe2d6353	-0.1693242
55	0x3d3d2420	0.04617703
56	0x3de5e882	0.11225988
57	0x3d9e24da	0.07721873
58	0xbd3ecb57	-0.04658064
59	0xbdc348ba	-0.09535356
60	0x3e6c9194	0.23102409
61	0x3d5c56c6	0.05379369
62	0x3df36a84	0.118855506
63	0x3e63fe3e	0.22264954
64	0x3e6cfce0	0.23143339
65	0xbdcb13a6	-0.09915857
66	0xbd08089c	-0.033211336
67	0xbe6cf56f	-0.231405
68	0x3e4e7e83	0.20165448
69	0x3df38ae8	0.11891729
70	0xbe627af3	-0.22117214
71	0x3e807d1e	0.25095457
72	0xbea70a38	-0.32624984
73	0xbe22beef	-0.15893148
74	0x3f00a3d8	0.50250006
75	0x3e266cc8	0.16252434
76	0x3e67554a	0.22591129
77	0x3e4681a5	0.19385393
78	0xbe8ed459	-0.27896383
79	0xbe14a14e	-0.14514658
80	0xbe592ef9	-0.21209325
81	0xbdfac7df	-0.12245154
82	0x3f1e467e	0.6182631
83	0x3ec438b7	0.3832452
84	0x3f3ea70b	0.7447364
85	0xbc5a1da0	-0.013312727
86	0xbe6b50e8	-0.22980082
87	0x3eb6ae23	0.3567973
88	0xbee76a8d	-0.4519848
89	0xbe9fa0d7	-0.311774
90	0x3e2918d1	0.16513373
91	0x3eac3963	0.33637533
92	0xbe78130e	-0.24226019
93	0x3ed0e02c	0.4079603
94	0xbe86d0f2	-0.26331288
95	0xbd44ef68	-0.048079878
96	0xbe62563f	-0.22103213
97	0xbcef2e06	-0.02919675
98	0x3e702cfc	0.2345466
99	0xbd1a0e10	-0.037611067
100	0x3e32d078	0.17462337
101	0x3dca1f82	0.09869291
102	0xbe93a672	-0.28837925
103	0x3ee80cf6	0.45322388
104	0xbdf7199b	-0.12065431
105	0x3e72539a	0.23664704
106	0x3dcc8a49	0.09987313
107	0xbdbd4424	-0.092415124
108	0x3ef83ce6	0.48483962
109	0x3e1146cc	0.14187163
110	0xbee7115d	-0.45130435
111	0xbc906630	-0.017626852
112	0x3f947739	1.1598884
113	0xbedfe825	-0.437318
114	0x4083880a	4.1103563
115	0x3c9e8000	0.019348145
116	0x3e8d688b	0.27618822
117	0xbe59b7db	-0.21261542
118	0xbfead91b	-1.8347505
119	0x3e8b8025	0.27246204
120	0xbe8027c0	-0.25030327
121	0x3db880ca	0.090089396
122	0xbfe5087d	-1.7893215
123	0xbe1b7e4d	-0.15184899
124	0xc0184ca4	-2.3796778
125	0x3e8fab09	0.28060177
126	0x3e96a149	0.29419926
127	0x3d097470	0.03355831
128	0xbfc27a12	-1.5193503
129	0xbe0d17ec	-0.13778657
130	0x3cc83bfc	0.024442665
131	0x3e8c98cb	0.27460322
132	0x3f890984	1.0706029
133	0x3e9934e5	0.29923168
134	0x3e1e7d9b	0.15477602
135	0xbe4ab4c0	-0.19795513
136	0x3e2bdbc2	0.1678305
137	0x3e0e9772	0.1392496
138	0x3f223a31	0.63370043
139	0x3e198b90	0.14994645
140	0xbdb088f0	-0.08619869
141	0xbd97a20a	-0.074039534
142	0x3fb5ebb0	1.4212551
143	0xbda7db26	-0.08196096
144	0xbd8389e7	-0.06422787
145	0xbe9a3dbf	-0.30125234
146	0xbccd5ab5	-0.025067667
147	0xbd649771	-0.05580849
148	0xc00e8b4d	-2.2272522
149	0x3cd16600	0.025561333

y_transform.nn.layers.2.bias f4 [15]
0	0x3d48708f	0.04893547
1	0x3d17377d	0.036918152
2	0x3e175d15	0.14781602
3	0x3e6ce38c	0.23133677
4	0xbe0b3aa7	-0.13596593
5	0xbd529265	-0.051409144
6	0x3d8f57b5	0.06999151
7	0x3e1d890f	0.15384315
8	0x3f03ec4a	0.51532423
9	0x3f1c7fcb	0.61132497
10	0x3ef7d173	0.48401985
11	0xbf842b9d	-1.032581
12	0xbfee2c35	-1.8607241
13	0x3ff14615	1.8849512
14	0x40673811	3.612797
