experiments/exp_sim_binary/saved_models/run_0/bootstrapped/y_1.pt (torch, 3447 bytes, 6 tensors)

y_transform.nn.layers.0.weight f4 [10, 2]
-0.29305175 -1.046061 1.0496981 -0.9911276 -0.020149412 0.27767357 1.6715499 -1.527532
-1.5296888 -1.0845562 1.3604908 -1.3997637 1.669299 0.4231816 -0.2799397 -0.31226313
-0.15896368 -0.2024301 -1.3571719 0.037110418
00000000: e10a 96be 54e5 85bf 825c 863f 8aba 7dbf
00000010: 6110 a5bc 3b2b 8e3e 59f5 d53f 2b86 c3bf
00000020: d8cc c3bf bdd2 8abf 9024 ae3f 752b b3bf
00000030: 97ab d53f 42ab d83e 4254 8fbe f4e0 9fbe
00000040: 60c7 22be d649 4fbe cfb7 adbf 1801 183d

y_transform.nn.layers.0.bias f4 [10]
-0.22738443 -0.12169185 -0.3021167 -0.39239466 -0.6352756 0.4030203 -0.095793135 -0.2996892
-0.15918909 -0.083630264
00000000: 77d7 68be 9439 f9bd 0aaf 9abe f4e7 c8be
00000010: 6ca1 22bf ad58 ce3e 312f c4bd dd70 99be
00000020: 7702 23be 5846 abbd

y_transform.nn.layers.1.weight f4 [10, 10]
-1.5588285 -0.20933603 -0.0061016916 -0.052052043 -2.2725239 -0.18195722 0.32773063 -0.012886836
-0.024367165 0.41028687 -0.14538476 -0.15563853 -0.119771846 -0.02677849 -0.2143936 -0.07592128
-0.065339446 0.14184746 0.23633221 0.17794156 -0.34928936 0.0017876556 0.025670024 -0.41303188
-0.35103703 0.36817425 -1.7567765 -0.24910296 -0.14633042 -1.1409878 -0.15641302 -0.29438996
0.21182832 -0.012599766 -0.16990133 -0.12881352 0.083137244 -0.22933939 0.020310044 -0.0038996637
-0.060037978 0.031527024 -0.16428432 0.021942466 0.18272112 0.022097344 0.06431366 -0.119811825
-0.061496787 -0.03316874 -0.021604422 0.13786386 -0.0146245295 -0.91437346 -0.92558485 -1.4539472
-1.0605975 -0.2764911 -0.039757557 0.25281447 -0.26626718 -0.00013005733 -0.05267766 -0.019721724
-0.24769682 -0.23591064 -0.08928935 0.13404477 0.023922592 0.085697174 0.31613356 -0.42580912
-0.1356285 0.07817592 -0.19827281 -0.078267366 -0.37402427 -0.030070039 0.031354442 -0.48173264
0.031360265 -0.25288752 -0.32404852 0.10699779 -0.31386706 0.15067485 -0.118306845 0.14126465
0.071474776 -0.008656295 -0.118847825 0.062414333 -0.2204898 -0.05034351 -0.10164018 0.0028224364
-0.5108208 0.19322237 -0.28777173 0.031710446
00000000: b187 c7bf 2f5c 56be b3f0 c7bb 8634 55bd
00000010: 0871 11c0 fe52 3abe 4fcc a73e 4f23 53bc
00000020: a69d c7bc 1f11 d23e bedf 14be b55f 1fbe
00000030: f14a f5bd 905e dbbc ff89 5bbe 9e7c 9bbd
00000040: b0d0 85bd 7640 113e 1201 723e 5036 363e
00000050: 0ed6 b2be c54f ea3a f149 d23c ea78 d3be
00000060: 20bb b3be 5681 bc3e 0dde e0bf d914 7fbe
00000070: a4d7 15be e30b 92bf bc2a 20be 48ba 96be
00000080: 86e9 583e 406f 4ebc 9dfa 2dbe b1e7 03be
00000090: dc43 aa3d f2d7 6abe 4061 a63c 8091 7fbb
000000a0: 62ea 75bd 7b22 013d 263a 28be b0c0 b33c
000000b0: 3f1b 3b3e 7d05 b53c e1b6 833d e75f f5bd
000000c0: 0ee4 7bbd f2db 07bd c2fb b0bc 2f2c 0d3e
000000d0: b99b 6fbc 6114 6abf 21f3 6cbf f11a babf
000000e0: a9c1 87bf 3e90 8dbe d2d8 22bd e670 813e
000000f0: 2c54 88be 0060 08b9 88c4 57bd 748f a1bc
00000100: 3ca4 7dbe 8f92 71be 56dd b6bd 0843 093e
00000110: 50f9 c33c 0082 af3d 42dc a13e a703 dabe
00000120: 33e2 0abe b21a a03d 0708 4bbe a44a a0bd
00000130: 1c80 bfbe 7155 f6bc 846d 003d a9a5 f6be
00000140: 9f73 003d 797a 81be b0e9 a5be a821 db3d
00000150: 2fb3 a0be 824a 1a3e dc4a f2bd aea7 103e
00000160: 5e61 923d 22d3 0dbc 7d66 f3bd 2ca6 7f3d
00000170: 14c8 61be ff34 4ebd ba28 d0bd a0f8 383b
00000180: 27c5 02bf 16dc 453e d156 93be d0e2 013d

y_transform.nn.layers.1.bias f4 [10]
-0.20324527 -0.34605148 0.1625705 -0.23507866 -0.2880837 0.10717395 -0.25439912 -0.13649404
-0.19056481 -0.35648236
00000000: 871f 50be a92d b1be e278 263e 76b8 70be
00000010: b57f 93be 047e db3d 9a40 82be 18c5 0bbe
00000020: 6c23 43be db84 b6be

y_transform.nn.layers.2.weight f4 [15, 10]
-0.65604293 -0.2027651 0.54642457 0.23782334 0.0046798172 -0.42865092 -0.12972479 -0.023899047
-0.11296658 -0.17797972 0.08166321 0.20391892 0.4633783 0.19047311 0.09784929 -0.030269628
0.281496 -0.096855916 -0.20611978 -0.06968833 0.17734013 0.20352955 0.041434012 -0.12834395
0.10260079 0.118454576 -0.17646617 0.082183525 -0.24673109 0.21488999 -0.15170792 0.056448746
-0.6880243 0.06447616 -0.331418 0.21958478 -0.3172713 0.17116565 -0.08678112 0.16491051
-0.015819486 0.29341924 -0.16905686 0.18671271 0.13815899 0.43032986 0.051875543 0.02569942
0.09980988 -0.053572115 0.12965421 0.27743062 0.22259293 0.049123824 0.12638898 0.056602594
0.017041568 0.1113747 0.09857435 -0.3166983 0.26573727 0.05231711 -0.3635383 0.13810703
0.24482034 0.20363428 0.104230285 0.1302608 -0.1347613 0.21230228 -0.406077 0.16214304
0.021810569 -0.12542008 -0.1671428 -0.08185161 0.118467346 -0.3042235 -0.10740271 0.16564673
-0.2336952 -0.031632513 -0.18376108 0.3050957 0.037177388 0.50865114 0.11345232 0.048093002
0.28056502 0.010759539 0.1440666 0.31585738 -0.05988796 0.12491691 0.5397163 -0.38512036
0.2477787 0.29178926 0.5857865 0.3428566 0.008845805 0.32563496 0.7902344 0.072291255
0.34510404 -0.41182622 0.005212486 0.58217216 0.30801362 -0.35047722 -2.218498 -0.17796704
0.9741951 0.12217784 -0.059979886 -11.686452 -0.07896058 0.11509733 0.50627685 -0.23407565
-1.6758854 0.22160986 -3.0784721 -0.15224403 -0.20256053 -1.3569909 0.17517729 -0.05847873
0.08375561 0.45101818 1.7570143 0.10429135 -0.13843253 -0.108333185 -0.00916325 -1.023122
-0.15143012 0.133686 0.3757792 0.040341966 -0.79532975 0.21387543 3.433286 0.118518054
0.36597523 0.96469086 0.174072 0.86833125 0.7477583 -0.21885379
00000000: 6ef2 27bf a8a1 4fbe 7be2 0b3f f687 733e
00000010: 2759 993b 2278 dbbe 93d6 04be efc7 c3bc
00000020: 065b e7bd 5140 36be 0b3f a73d 1fd0 503e
00000030: ec3f ed3e 620b 433e 3565 c83d 03f8 f7bc
00000040: 3e20 903e 655c c6bd 1011 53be c1b8 8ebd
00000050: a798 353e 0d6a 503e b6b6 293d 996c 03be
00000060: 5d20 d23d 5098 f23d 8cb3 34be d64f a83d
00000070: 13a7 7cbe 1f0c 5c3e 5259 1bbe cd36 673d
00000080: 5c22 30bf 140c 843d 9faf a9be d5da 603e
00000090: 6271 a2be 0c46 2f3e 4dba b1bd 4dde 283e
000000a0: de97 81bc 0c3b 963e 3e1d 2dbe 9e31 3f3e
000000b0: 8d79 0d3e 3254 dc3e 737b 543d 9787 d23c
000000c0: 1f69 cc3d 6f6e 5bbd 13c4 043e 630b 8e3e
000000d0: 67ef 633e 1036 493d 1d6c 013e 1fd8 673d
000000e0: c29a 8b3c 6b18 e43d 59e1 c93d 4826 a2be
000000f0: b70e 883e 774a 563d b121 babe ee6b 0d3e
00000100: 2fb2 7a3e 8185 503e b076 d53d 1663 053e
00000110: defe 09be c565 593e 53e9 cfbe d308 263e
00000120: 14ac b23c 1f6e 00be 7b27 2bbe d1a1 a7bd
00000130: 029f f23d 2fc3 9bbe f4f5 dbbd 4c9f 293e
00000140: cb4d 6fbe 1891 01bd dd2b 3cbe 8135 9c3e
00000150: 5147 183d f636 023f b159 e83d 2bfd 443d
00000160: 38a6 8f3e c748 303c 3286 133e 0fb8 a13e
00000170: 144d 75bd 70d4 ff3d d92a 0a3f 7f2e c5be
00000180: b3b9 7d3e 6765 953e 1bf6 153f e68a af3e
00000190: ffed 103c a0b9 a63e cd4c 4a3f 700d 943d
000001a0: 7ab1 b03e e3da d2be 80cd aa3b 3c09 153f
000001b0: f6b3 9d3e c071 b3be dffb 0dc0 fe3c 36be
000001c0: da64 793f 6038 fa3d 78ad 75bd b5fb 3ac1
000001d0: 16b6 a1bd 26b8 eb3d 5c9b 013f 87b1 6fbe
000001e0: 6a83 d6bf b2ed 623e b005 45c0 dce5 1bbe
000001f0: 076c 4fbe e1b1 adbf ad61 333e 6587 6fbd
00000200: 1088 ab3d dbeb e63e d8e5 e03f b496 d53d
00000210: 42c1 0dbe cadd ddbd 7521 16bc a9f5 82bf
00000220: 7f10 1bbe fce4 083e 2266 c03e 9e3d 253d
00000230: bb9a 4bbf 2902 5b3e f5ba 5b40 98b9 f23d
00000240: 1b61 bb3e fbf5 763f ee3f 323e f54a 5e3f
00000250: 176d 3f3f 351b 60be

y_transform.nn.layers.2.bias f4 [15]
-0.10617578 0.19067113 0.015341235 -0.19510062 -0.08964766 0.2900887 0.09267956 -0.05613921
0.60720664 0.58017975 0.52262396 -0.7537427 -2.3071613 0.62071276 2.4346058
00000000: b072 d9bd 4b3f 433e ce59 7b3c 75c8 47be
00000010: 3199 b7bd 8286 943e c8ce bd3d 3af2 65bd
00000020: e571 1b3f a986 143f afca 053f 48f5 40bf
00000030: 88a8 13c0 08e7 1e3f 95d0 1b40
