experiments/exp_sim_binary/saved_models/run_0/bootstrapped/y_2.pt (torch, 3447 bytes, 6 tensors)

y_transform.nn.layers.0.weight f4 [10, 2]
0.06850152 -0.05594413 0.14047769 -0.4010997 -0.27907956 0.3102829 -0.24393685 0.24232937
-0.0947128 -0.03215603 1.0119231 -1.7528874 1.508567 -1.7193736 1.9918723 0.48349136
0.031218717 -0.07185924 -1.1835726 0.9147369
00000000: 864a 8c3d ac25 65bd 62d9 0f3e f15c cdbe
00000010: 84e3 8ebe 66dd 9e3e 95ca 79be 3125 783e
00000020: c9f8 c1bd 0bb6 03bd b286 813f 9d5e e0bf
00000030: b918 c13f 6f14 dcbf acf5 fe3f 2e8c f73e
00000040: 65be ff3c f02a 93bd 4f7f 97bf 332c 6a3f

y_transform.nn.layers.0.bias f4 [10]
-0.07466817 -0.20716824 -0.64274514 -0.48824567 -0.09820941 0.7340167 0.49353534 -0.011428396
-0.033293094 -0.85994023
00000000: a0eb 98bd e923 54be f28a 24bf 56fb f9be
00000010: 0422 c9bd 85e8 3b3f aab0 fc3e 2b3e 3bbc
00000020: 575e 08bd 0b25 5cbf

y_transform.nn.layers.1.weight f4 [10, 10]
-0.57751113 0.15361734 -0.066689745 -0.4928656 0.17498475 -0.033325583 0.23857245 -0.24689642
-0.10601266 0.24074964 0.19267276 0.18832496 0.20165154 -0.16550075 0.06602684 -0.27356535
0.18372181 -0.3134474 -0.31603935 -0.31258544 0.041878875 0.00511557 0.00071910024 -0.045735516
-0.24015431 -0.32731563 -0.21300852 -0.2715576 -0.42715335 -0.025914142 0.1389813 -0.36637008
0.15551174 -0.34851998 -0.26303768 -0.109346636 0.15007137 0.083674595 -0.11375848 -0.27839562
-0.13078177 0.009271145 -0.2371167 -0.37820852 -0.13530223 0.008123338 -0.21356162 -0.18051331
0.2257851 0.16191705 -0.07030144 -0.15712585 -0.12106891 0.019304728 0.09426285 0.71126825
-2.6056283 -1.289154 -0.003946417 0.5232113 -0.022437524 0.016970797 0.043866634 -0.32437617
-0.46147802 -0.08924774 -0.23558722 0.26759273 -0.0067715426 -0.5627796 -0.15611856 -0.54109764
-0.100708485 -0.05095815 0.08040396 -1.6923687 0.034995116 -1.2731653 -0.015878066 -1.5111039
-0.1465695 -0.08168647 0.13991839 -0.25282404 -0.108520314 -0.30589822 -0.30585995 -0.045651097
-0.3957329 -0.1519163 0.029928926 -0.0381678 0.2811695 -0.2637978 -0.13813157 0.44826776
0.65330106 -2.000277 0.026549054 -0.008167509
00000000: c5d7 13bf dd4d 1d3e a294 88bd e158 fcbe
00000010: 342f 333e 6880 08bd 564c 743e 6ad2 7cbe
00000020: 2a1d d9bd 1387 763e 024c 453e 42d8 403e
00000030: be7d 4e3e 0779 29be 1439 873d c210 8cbe
00000040: 9221 3c3e 2d7c a0be e9cf a1be 330b a0be
00000050: 2f89 2b3d 83a0 a73b 0082 3c3a 2a55 3bbd
00000060: 03eb 75be ea95 a7be e81e 5abe 9909 8bbe
00000070: d8b3 dabe e549 d4bc 1d51 0e3e dc94 bbbe
00000080: 783e 1f3e 3671 b2be e0ac 86be 21f1 dfbd
00000090: 4fac 193e 965d ab3d 35fa e8bd df89 8ebe
000000a0: a8eb 05be 00e6 173c b8ce 72be 8ca4 c1be
000000b0: ab8c 0abe c017 053c e6af 5abe 7bd8 38be
000000c0: 3634 673e 95cd 253e 34fa 8fbd 99e5 20be
000000d0: faf2 f7bd f324 9e3c e20c c13d ad15 363f
000000e0: 9dc2 26c0 0003 a5bf f250 81bb 2df1 053f
000000f0: e6ce b7bc 5706 8b3c 80ad 333d a214 a6be
00000100: d946 ecbe 85c7 b6bd c73d 71be ea01 893e
00000110: d1e3 ddbb 5312 10bf 8bdd 1fbe 6085 0abf
00000120: 4040 cebd 7eb9 50bd d5aa a43d 8a9f d8bf
00000130: 0a57 0f3d 15f7 a2bf b812 82bc da6b c1bf
00000140: 5116 16be 3c4b a7bd c446 0f3e 2772 81be
00000150: e63f debd b19e 9cbe ad99 9cbe a5fc 3abd
00000160: 819d cabe f28f 1bbe 822d f53c d755 1cbd
00000170: 73f5 8f3e 8110 87be 5d72 0dbe 5a83 e53e
00000180: bd3e 273f 8a04 00c0 677d d93c 04d1 05bc

y_transform.nn.layers.1.bias f4 [10]
-0.46337074 -0.16667645 -0.12725891 -0.4115175 -0.23419185 -0.026800128 -0.2932338 0.17060295
-0.15428564 -0.40247706
00000000: ee3e edbe 3bad 2abe 2950 02be 6cb2 d2be
00000010: fdcf 6fbe f18b dbbc be22 96be 8ab2 2e3e
00000020: 0efd 1dbe 7911 cebe

y_transform.nn.layers.2.weight f4 [15, 10]
0.06057716 0.023313016 0.049455408 -0.14248276 -0.059950944 -0.70090586 -0.5658112 0.33134717
-0.03543439 0.33603874 -0.16191986 -0.12077287 -0.19204317 0.030225208 0.008531994 0.08396689
0.36677518 0.24766397 -0.019596564 0.36046317 0.23656166 0.03544748 -0.07300066 -0.021611188
-0.027110098 0.25353432 0.6419765 0.14534162 0.16070059 0.0013477919 -0.06962455 -0.05855447
-0.3353762 -0.56840515 0.14392276 0.17534877 0.07642221 -0.39440185 0.3731009 -0.7530048
0.0361532 -0.120056435 0.018102987 0.14132415 0.10150567 0.17192255 -0.26807913 -0.42588815
0.106736004 -0.21743698 0.08799194 -0.22010821 0.1580208 0.16642337 0.17632517 0.081272766
0.14340964 0.3566375 -0.065204136 0.3951906 -0.4082649 -0.24861376 -0.09273126 -0.055237938
0.07135314 0.20330846 0.43925163 0.29469883 0.024439452 -0.13168782 -0.35882196 -0.06343749
-0.12786429 0.2979069 -0.48854554 -0.45315155 -0.5228292 0.112867706 -0.43969378 0.3407886
0.38848442 -0.2137046 0.55438346 0.15734956 -0.2678402 0.6646017 -0.6537301 -0.75863534
-0.023697525 0.0569369 -0.06618665 0.028801322 -0.07957472 -0.24951439 0.11924269 -0.23661734
0.20606719 0.49782827 -0.034064166 -0.08998555 -0.28763053 0.3020136 0.17082533 0.14585051
-0.4869728 -0.37498274 0.31181902 -0.08965955 -0.10259597 1.0616257 -0.26016816 -0.03434378
0.096530765 -0.17819424 0.09914118 -12.131754 -2.256252 -3.8421972 -0.15986319 3.6327403
0.15463579 -0.24583562 0.050425295 -0.041796595 -0.18184489 -2.6415102 -1.9843965 -2.138132
0.046604395 -1.7454858 0.27246994 -0.022120506 -0.021792602 -0.12970197 0.27622968 0.29059422
-0.42850518 2.0983388 0.35926023 0.32346535 -0.08293302 -0.1464459 -0.12911296 0.053472903
0.110749684 0.86979645 -1.523633 2.7570453 -0.272069 2.840967
00000000: c21f 783d f0fa be3c c191 4a3d 00e7 11be
00000010: 1f8f 75bd 916e 33bf 01d9 10bf 56a6 a93e
00000020: a723 11bd 450d ac3e 52ce 25be c457 f7bd
00000030: f7a6 44be db9a f73c c7c9 0b3c d5f6 ab3d
00000040: f5c9 bb3e a09b 7d3e f988 a0bc a18e b83e
00000050: 383d 723e 6031 113d 5f81 95bd f209 b1bc
00000060: ff15 debc 40cf 813e 9258 243f 6fd4 143e
00000070: b28e 243e 64a8 b03a 5197 8ebd d0d6 6fbd
00000080: 6eb6 abbe 0083 11bf 7d60 133e a18e 333e
00000090: 3f83 9c3d 0aef c9be 1507 bf3e ecc4 40bf
000000a0: 6115 143d 26e0 f5bd b74c 943c 47b7 103e
000000b0: 34e2 cf3d 770c 303e ab41 89be 030e dabe
000000c0: 6898 da3d cda7 5ebe 1e35 b43d 0c64 61be
000000d0: 34d0 213e e36a 2a3e 968e 343e 5672 a63d
000000e0: fad9 123e 3199 b63e bf89 85bd 6c56 ca3e
000000f0: 1908 d1be 9b94 7ebe e3e9 bdbd 2d41 62bd
00000100: 9821 923d 1830 503e 97e5 e03e c4e2 963e
00000110: 3f35 c83c 2cd9 06be 83b7 b7be 84eb 81bd
00000120: dbee 02be 4187 983e a422 fabe 7b03 e8be
00000130: 22d8 05bf 2f27 e73d 8b1f e1be d87b ae3e
00000140: 6ee7 c63e 61d5 5abe 13ec 0d3f 3e20 213e
00000150: 5a22 89be 5623 2a3f db5a 27bf ed35 42bf
00000160: 5021 c2bc ab36 693d de8c 87bd c0f0 eb3c
00000170: 12f8 a2bd b380 7fbe 8335 f43d d14b 72be
00000180: 4703 533e 59e3 fe3e de86 0bbd 584a b8bd
00000190: 4f44 93be 87a1 9a3e d6ec 2e3e d659 153e
000001a0: 8054 f9be bdfd bfbe bea6 9f3e 6d9f b7bd
000001b0: d61d d2bd 5ae3 873f c334 85be 10ac 0cbd
000001c0: ecb1 c53d 8d78 36be 880a cb3d aa1b 42c1
000001d0: 6f66 10c0 8fe6 75c0 2db3 23be d17e 6840
000001e0: d858 1e3e 55bc 7bbe c18a 4e3d e832 2bbd
000001f0: 8c35 3abe 810e 29c0 b400 febf 28d7 08c0
00000200: 40e4 3e3d 146c dfbf 2e81 8b3e 1036 b5bc
00000210: 6686 b2bc 98d0 04be fa6d 8d3e c4c8 943e
00000220: 0865 dbbe 2f4b 0640 f5f0 b73e 409d a53e
00000230: cad8 a9bd eaf5 15be 3036 04be 6706 5b3d
00000240: bbd0 e23d fbaa 5e3f 6806 c3bf 6e73 3040
00000250: a14c 8bbe 67d2 3540

y_transform.nn.layers.2.bias f4 [15]
0.037617184 0.20002784 0.18131681 -0.19058594 0.107974544 0.31397524 0.27159703 0.054620482
0.64318573 0.5348657 0.5189951 -0.87111646 -3.630269 0.5210137 2.287562
00000000: 7a14 1a3d 19d4 4c3e 1dab 393e f628 43be
00000010: c221 dd3d 5dc1 a03e c40e 8b3e bab9 5f3d
00000020: d2a7 243f f5ec 083f dddc 043f 7d01 5fbf
00000030: 5456 68c0 2761 053f 6a67 1240
