experiments/exp_sim_binary/saved_models/run_0/bootstrapped/y_3.pt (torch, 3447 bytes, 6 tensors)

y_transform.nn.layers.0.weight f4 [10, 2]
00000000: c821 ff3f b9fc 90be 72f2 993e 24d0 f7be
00000010: bd8b bb3d 47ec e2be 9541 50bf dbeb 7bbf
00000020: f346 143f 7015 2bbf 34c8 93bf b93a 50be
00000030: 0a31 cc3e 4855 81be cf02 423f ecda 9dbf
00000040: 59cf cbbf e63c 613c f682 79be f03d c13e
1.9932184 -0.28317812 0.30067784 -0.48400986 0.09157512 -0.4432089 -0.8135007 -0.9840676
0.5792076 -0.66829586 -1.1545472 -0.20334901 0.39881164 -0.25260377 0.75785536 -1.2332435
-1.5922652 0.0137474295 -0.24366364 0.37742567

y_transform.nn.layers.0.bias f4 [10]
00000000: 9a30 f2bd cb62 13bf e893 60be be23 81be
00000010: c747 2cbd 1bd7 78bf d2ef 0fbf c88f 413f
00000020: c5d1 a8bc fb5e 1fbf
-0.11825676 -0.5757262 -0.21931422 -0.25222582 -0.04206064 -0.97203225 -0.5622531 0.7561002
-0.020607838 -0.62254304

y_transform.nn.layers.1.weight f4 [10, 10]
00000000: dbae 4f3e 1e9d 97be 5fb7 8bbf 6f63 19be
00000010: b49d dabf 2eb4 55bf 9892 c2bd 8d2f e3bd
00000020: d107 5abf b744 86ba eba1 c7bd 542a c93d
00000030: 8ea0 3abd 2f35 57be ae6f b9be d53f 80be
00000040: b4e2 93be 6506 68bd a9a1 47bd 283e 213c
00000050: 291c 61bf 902c 48be 097e 3e3e 589e 3b3e
00000060: a569 4e3e 9f88 d7bf 661d 6c3e 1c4d 2bc0
00000070: 65b9 7cbe f05f 1dbe 6e86 65be 776c 9b3e
00000080: 8feb 2fbd 84d5 e7bd ad39 5fbe c7f0 fbbd
00000090: fc14 a63d cec7 0cbe 8d79 dfbc 476b 033e
000000a0: 5050 983c f0b0 b93d b035 1dbd 1cee e9bd
000000b0: 3c9b 79be 5acb f8bd 620d 9bbe aaaa cbbd
000000c0: 1c6b 293e 5b17 9d3e 56dd 8abe ee97 86be
000000d0: 359b 0a3e f0d8 97be fa4d 84bd 4fcf 4c3e
000000e0: 9169 8f3e 92a0 e6bc 8850 933c ef83 4dbd
000000f0: 16d1 19be eea8 023e 184d 98be 6dbc 9cbe
00000100: 0e89 613d 117d 9ebe 262b 2a3e 43d3 903d
00000110: 9abc 563e 248a c53d 5e50 fdbd d68b 153e
00000120: 8353 f33c 8024 233c d1cb c5be de76 493e
00000130: 784b 103d 72bb 013d de00 59be 1ae4 a1bd
00000140: fdd3 bdbf b05f 943c 0e6d 263d 9964 9fbe
00000150: 09a5 323e 4e91 ac3d 72ba 5ebe 892f 363f
00000160: 979a 84bf 6148 773d 421b c7be e026 5dbd
00000170: 3abb 88be 233f cdbf 88cc 53bf 284d 55be
00000180: c01a 6a3c 484e 42bf cfb8 c53e 7056 88bc
0.20281546 -0.29612058 -1.0915335 -0.14979337 -1.7079377 -0.8347806 -0.09500617 -0.11093054
-0.85168177 -0.0010243867 -0.0974768 0.098225266 -0.045563273 -0.21016382 -0.36218017 -0.250487
-0.28883898 -0.056646723 -0.048738156 0.009841479 -0.87933594 -0.19548249 0.18602766 0.18322122
0.20157488 -1.6838568 0.2305809 -2.6765814 -0.24680097 -0.15368629 -0.22414562 0.3035619
-0.042949256 -0.11320022 -0.21799345 -0.12301784 0.08109471 -0.13748094 -0.02727964 0.12833892
0.018592983 0.09066951 -0.03838128 -0.11422369 -0.24375623 -0.12148161 -0.30283648 -0.09944661
0.16544765 0.3068188 -0.2712199 -0.26287788 0.1353577 -0.29657698 -0.06460185 0.20000957
0.28010228 -0.028152738 0.017982736 -0.05017465 -0.15021166 0.12759754 -0.29746318 -0.30612507
0.055062346 -0.30954793 0.16618022 0.07071545 0.20970383 0.09645489 -0.123688444 0.14604124
0.029702907 0.009957433 -0.38632062 0.1967425 0.035228223 0.031672902 -0.21191737 -0.07904835
-1.4830319 0.018112034 0.040631346 -0.31131437 0.17445768 0.08426152 -0.2175081 0.7116628
-1.0359677 0.06037176 -0.38887984 -0.053992152 -0.26705343 -1.6034893 -0.82733965 -0.20830214
0.014288604 -0.759007 0.3861756 -0.01664278

y_transform.nn.layers.1.bias f4 [10]
00000000: 97c2 2dbc ecf8 58be 44ac 75bc 0122 7fbd
00000010: a366 a1be 4ba7 c2be 66f4 e9be 720b f0be
00000020: 7cdb 3fbc 2ccc 0bbd
-0.010605476 -0.21188706 -0.014994685 -0.062288288 -0.31523618 -0.3801826 -0.45694274 -0.46883732
-0.011710044 -0.03413026

y_transform.nn.layers.2.weight f4 [15, 10]
00000000: f513 d4bd 3ea0 10be 0f95 553e dedc eabd
00000010: 3edb 7a3e a264 593e 5953 2cbc 655b f83d
00000020: af7e 00bf ad57 66bf 33b2 cf3d 2d04 8e3d
00000030: 5482 ef3d 0fa8 8c3e 886f ca3d 81dd 92bd
00000040: 4875 acbe 905a 213e 1f5b 99bd b840 c5bd
00000050: 6d6e d03e 3140 493e d8bc c03e 38ff 84bc
00000060: 60e4 19bd 7589 ae3c 9d64 d9ba ce2d 1f3e
00000070: 0da4 ae3e 0e14 013e 9052 2c3e 8f71 cdbd
00000080: 6111 fabe 0737 0cbd 888d 77bd eb4c 8b3e
00000090: d07e 373e f614 b63d 1dc8 81be 51f8 ba3e
000000a0: 52de 2f3e 6faf e1bd 87e4 95bd 1923 2abe
000000b0: 401d 963d 9a1e 893e 4862 d73d 68aa 3e3e
000000c0: 196b 38bf d6ec 2cbd 2dc7 5dbd 0a90 0bbd
000000d0: e9df 4b3e 1277 7a3e f280 5c3e a89f f7bd
000000e0: 2ee5 a23d 9eb2 813e 71a2 0ebd 5bba 9e3d
000000f0: 6eed da3e 644d 303e 3f73 0c3d a841 fabd
00000100: 6715 51be 8a1f 343e dbda 2dbe 7441 9f3c
00000110: 6268 1a3f 1a95 033e 61b8 ecbe 5650 9bbc
00000120: 7e9e 87be e20f 18bd 7749 85be 08e6 833e
00000130: 61f5 f83d 8ea0 d9be cdf8 163f e27b a6bc
00000140: d39a aebe 84d9 9b3e 3b05 8c3e 4293 c43e
00000150: a575 893e 145b 0e3f 1082 953c ed4b 983e
00000160: 9190 123e 7c27 3b3f a234 793e 1195 cb3e
00000170: afb4 0a3e b9d5 3b3e 7015 77be de77 183e
00000180: b0b2 153d acf5 03be 481f 6ebe 6cbf 9dbe
00000190: 2a11 c23e 9879 213e 304b ebbd 24e0 033d
000001a0: b8cb 30bd e678 953d bcac ae3d 6602 7e3e
000001b0: 101b dabe c8b3 d1be 8699 77c0 f9ac 9abe
000001c0: 57b6 febf f4fa 74be ba3f 6b3e e6b7 5dbe
000001d0: f00d 85bc 0d67 3bbe c8e0 0440 85dd fdc0
000001e0: 9bd5 90be 3f34 ebbe 7dc7 e0bf 1270 c1bd
000001f0: c7ab 943e b366 18be d167 52be c1ce 7bbe
00000200: 6056 2cbe 5094 81bf aa6c 59bf 59bb babd
00000210: 8a0a c83f d500 d63e 9cf2 43be b281 6e3d
00000220: ce46 69be d20d 403e 4753 53c0 229b ee3f
00000230: b23c d53f f996 803f 0da5 ac40 9100 86bd
00000240: 88b8 0b3e 3ab0 16bf 74db 16be 17db 8ebe
00000250: c37d c240 ecdb 24c0
-0.10355369 -0.14123628 0.20857643 -0.11467908 0.24497697 0.21229795 -0.0105179185 0.12126807
-0.50193304 -0.8997753 0.10141411 0.0693439 0.1169478 0.2747197 0.09884554 -0.07171155
-0.33683228 0.15757203 -0.07488083 -0.09631485 0.40709248 0.19653393 0.37644076 -0.016234979
-0.03757131 0.021305779 -0.0016585771 0.15544817 0.34109536 0.12605307 0.1682837 -0.10031425
-0.48841384 -0.034232166 -0.06043771 0.2720712 0.17919469 0.08890717 -0.25347987 0.36517575
0.17174652 -0.110197894 -0.07318979 -0.16614951 0.07329798 0.2678116 0.105167925 0.18619692
-0.7203842 -0.04221805 -0.054145027 -0.034072913 0.19909634 0.24459484 0.21533564 -0.12090999
0.07953869 0.25331587 -0.034822885 0.07750388 0.4275927 0.17217022 0.034289595 -0.12219554
-0.2041832 0.17590156 -0.16978018 0.01944039 0.60315526 0.12849846 -0.4623442 -0.018959206
-0.26488107 -0.037124522 -0.26032612 0.25761437 0.12156177 -0.42505306 0.5897339 -0.020322744
-0.34102497 0.3043939 0.2734774 0.383936 0.26847568 0.55607724 0.018250495 0.29745427
0.1431296 0.73107123 0.24336484 0.39762166 0.13545488 0.18343247 -0.24129272 0.14889476
0.036547363 -0.12886685 -0.2325412 -0.30810106 0.3790372 0.1576904 -0.1148895 0.03219618
-0.04316303 0.0729845 0.0852904 0.24805602 -0.42598772 -0.40957475 -3.8687453 -0.30210093
-1.9899396 -0.23923856 0.22973529 -0.21652183 -0.016241997 -0.1830103 2.0762196 -7.933291
-0.28287968 -0.45938298 -1.7560879 -0.09445204 0.29037306 -0.14882927 -0.20547415 -0.24590589
-0.16829824 -1.0123386 -0.84931433 -0.09117765 1.5628216 0.4179751 -0.19135517 0.058229156
-0.22780916 0.18755272 -3.3019578 1.8641093 1.6659148 1.0046073 5.395148 -0.06543077
0.13644612 -0.5886265 -0.14732152 -0.27901527 6.077852 -2.575923

y_transform.nn.layers.2.bias f4 [15]
00000000: f658 533e a6e0 1abd ba79 1e3e fd0b d2bd
00000010: 4d9b 6b3d f93d 10be 8907 febc f252 50be
00000020: 75f0 fc3e 8b76 f73e c8f7 fd3e c85e 87bf
00000030: a8f2 02c0 26d4 713f 0d8d c13f
0.20639405 -0.037811898 0.15476122 -0.10256193 0.057521153 -0.1408614 -0.031009452 -0.20344141
0.49402204 0.4833263 0.49603105 -1.05758 -2.0460606 0.9446434 1.512117
